tmbed/models/cnn/cv_0.pt (torch, 281007 bytes, 12 tensors)

filter_kernel f4 [7]
0	0x3b91431a	0.004433048
1	0x3d5d34f5	0.054005582
2	0x3e77d858	0.24203622
3	0x3ecc5051	0.39905027
4	0x3e77d858	0.24203622
5	0x3d5d34f5	0.054005582
6	0x3b91431a	0.004433048

model.input.norm.bias f4 [1, 64, 1, 1]
0	0xbdc164c5	-0.094430484
1	0xbdbb4856	-0.09144656
2	0xbe4b91f1	-0.19879891
3	0xbd68cd21	-0.05683625
4	0xbd81419c	-0.06311342
5	0xbd5e64c6	-0.054295324
6	0xbe84d34a	-0.2594245
7	0xbc1fa51f	-0.009743958
8	0xbe701dae	-0.23448822
9	0xbdda2919	-0.1065237
10	0xbd84a7fc	-0.06477353
11	0xbdba0b71	-0.090842135
12	0xbca997e7	-0.020702315
13	0xbcdd057d	-0.026980156
14	0xbdeff8e2	-0.117173925
15	0xbdfa9699	-0.122357555
16	0xbc8f1862	-0.017467681
17	0xbd4a2854	-0.049354866
18	0xbd92fa83	-0.071766876
19	0xbdd42dc1	-0.10360289
20	0xbe19c6a5	-0.15017183
21	0xbd89a2b1	-0.06720484
22	0xbd9e505a	-0.077301696
23	0xbf075c79	-0.5287548
24	0xbe2b9d56	-0.16759238
25	0xbe287ba0	-0.16453409
26	0xbdfadad8	-0.122487724
27	0xbdc9c45d	-0.098519064
28	0xbd357927	-0.044304993
29	0xbe2e1074	-0.16998464
30	0xbdcec588	-0.1009627
31	0xbdeb6c26	-0.11495237
32	0xbe58a539	-0.21156777
33	0xbe0bf093	-0.1366599
34	0xbd21e7f2	-0.03952784
35	0xbd9d0382	-0.07666685
36	0xbe29ca36	-0.16581044
37	0xbd9e1abb	-0.07719942
38	0xbcf1a694	-0.029498376
39	0xbd265cf8	-0.040616006
40	0xbd48137e	-0.048846714
41	0xbe0b0613	-0.13576536
42	0xbdbc4da3	-0.091944955
43	0xbd98b419	-0.07456226
44	0xbc54e20f	-0.01299335
45	0xbdd85e97	-0.105649166
46	0xbda7a29d	-0.08185313
47	0xbe23b2b9	-0.15986146
48	0xbd4be7be	-0.049781553
49	0xbe01b79c	-0.12667698
50	0xbd948102	-0.07251169
51	0xbd9b76bd	-0.07591007
52	0xbdf0c631	-0.11756552
53	0xbe347f7e	-0.1762676
54	0xbe1ec616	-0.15505251
55	0xbe1eba82	-0.15500835
56	0xbd116223	-0.03549398
57	0xbd988328	-0.07446891
58	0xbe21b025	-0.1578985
59	0x3c497baf	0.012297555
60	0xbea9f1c3	-0.33192262
61	0xbd6a51fa	-0.057207085
62	0xbe81929f	-0.25307176
63	0xbd97b6fc	-0.074079484

model.input.norm.weight f4 [1, 64, 1, 1]
0	0x3f7ac7f9	0.97961384
1	0x3f76ad2f	0.9635801
2	0x3f825682	1.018265
3	0x3f8734be	1.0562971
4	0x3f7416ee	0.9534749
5	0x3f6fba9f	0.93644136
6	0x3f846509	1.0343333
7	0x3f863943	1.0486225
8	0x3f77066f	0.9649419
9	0x3f8a38a5	1.0798537
10	0x3f73795c	0.95107055
11	0x3f7f645e	0.99762523
12	0x3f834ccb	1.025781
13	0x3f8510a0	1.0395699
14	0x3f80d5c3	1.0065235
15	0x3f7a2c59	0.9772392
16	0x3f849674	1.0358415
17	0x3f82667a	1.0187523
18	0x3f8533eb	1.0406469
19	0x3f791ebf	0.9731254
20	0x3f8072bd	1.0035015
21	0x3f852616	1.0402248
22	0x3f87fe42	1.0624468
23	0x3fbcfbb3	1.4764313
24	0x3f7d4811	0.9893809
25	0x3f82e111	1.0224935
26	0x3f88bb8b	1.0682234
27	0x3f85bac9	1.0447627
28	0x3f82840b	1.0196546
29	0x3f7007e4	0.9376204
30	0x3f81e226	1.014714
31	0x3f7cc504	0.9873812
32	0x3f79552a	0.97395575
33	0x3f7ae236	0.9800142
34	0x3f7dbcfc	0.9911649
35	0x3f8a7130	1.0815792
36	0x3f854501	1.0411683
37	0x3f946af6	1.1595142
38	0x3f82f378	1.0230551
39	0x3f8501ad	1.0391136
40	0x3f810154	1.007853
41	0x3f7f74ad	0.9978741
42	0x3f84db09	1.0379344
43	0x3f817850	1.0114841
44	0x3f7dbf80	0.9912033
45	0x3f8fb2e2	1.1226466
46	0x3f896a3f	1.0735549
47	0x3f72bd26	0.9481987
48	0x3f8441e9	1.0332614
49	0x3f87df80	1.0615082
50	0x3f841713	1.0319542
51	0x3f8e8cf8	1.113677
52	0x3f81b42f	1.0133113
53	0x3f6d209c	0.9262788
54	0x3f85130f	1.0396441
55	0x3f6dd525	0.9290336
56	0x3f762384	0.9614794
57	0x3f80e611	1.0070211
58	0x3f808326	1.0040023
59	0x3f7eed76	0.99581087
60	0x3fa3689f	1.2766303
61	0x3f7d6343	0.98979586
62	0x3f9a3d1a	1.2049897
63	0x3f7be5b2	0.9839736

model.input.conv.weight f4 [64, 1024, 1, 1]
0	0x3d1dd0af	0.038529094
1	0xbdcd0dc7	-0.100123934
2	0xbdd0db6d	-0.10198102
3	0xbdccbd05	-0.0999699
4	0xbd960e0d	-0.07326899
5	0xbe0ff6fd	-0.14059062
6	0xbd24aa4f	-0.04020148
7	0xbd8b905d	-0.068146445
8	0xbdf0915f	-0.11746477
9	0x3b24b323	0.0025131188
10	0x3b46842e	0.0030291188
11	0xbd329669	-0.043600474
12	0xbe5401fa	-0.20703879
13	0x3e06a8a4	0.13150269
14	0xbc182a7c	-0.009287473
15	0x3c5bbda1	0.01341191
16	0x3d487a96	0.048945032
17	0xbdfcb7d9	-0.12339754
18	0xbe087012	-0.13324001
19	0xbe4813dc	-0.19538826
20	0xbe81132f	-0.25209948
21	0x3dd331b8	0.103122175
22	0xbd04527f	-0.032305237
23	0x3d99aecd	0.07504044
24	0x3e196a91	0.14982058
25	0xbcba9982	-0.022778276
26	0xbd33b178	-0.04387042
27	0x3d89a9a4	0.067218095
28	0xbe57f01f	-0.21087693
29	0x3d7ccad7	0.06171688
30	0xbbef86e9	-0.0073097837
31	0xbd0e8674	-0.034796193
32	0xbd9f7151	-0.07785285
33	0x3e52f63e	0.20601746
34	0xbda917f2	-0.0825652
35	0xbc841c6b	-0.016126832
36	0x3d976381	0.07392026
37	0xbc08d6c4	-0.008351985
38	0x3da36086	0.07977395
39	0xbd6ace7e	-0.057325833
40	0xbd82e437	-0.06391185
41	0x3d74c707	0.05976012
42	0xbd0a7fa9	-0.033813152
43	0xbbacc3d4	-0.005272368
44	0x3d923510	0.07139027
45	0x3d21d292	0.039507456
46	0x3d48a6fb	0.04898737
47	0xbd7d5bac	-0.061855003
48	0x3cb335f5	0.021876315
49	0xbd412bec	-0.047161028
50	0xbca3b287	-0.01998259
51	0x3e3a203a	0.18176356
52	0xbcb678ec	-0.022274457
53	0x3dd15217	0.102207355
54	0x3d8294c1	0.06376029
55	0xbc919760	-0.017772377
56	0xbd2d673b	-0.042334776
57	0xbd22a3d6	-0.039707027
58	0xbe016ec4	-0.1263991
59	0xbe25009c	-0.16113514
60	0x3e5b150f	0.21394752
61	0x3da0b78e	0.0784751
62	0x3cf19e77	0.029494507
63	0x3d6bb602	0.057546623
64	0xbde1c81e	-0.110244974
65	0xbe295416	-0.16535982
66	0xbdb243da	-0.08704348
67	0x3c86565f	0.016398607
68	0xbd2fd80b	-0.042930644
69	0xbd0bb3ed	-0.034107137
70	0x3d84c876	0.064835474
71	0x3dd32169	0.10309107
72	0x3cd7c861	0.026340665
73	0x3b6e08d1	0.0036321173
74	0x3d50c1e7	0.05096617
75	0xbdb3181d	-0.087448336
76	0x3df24cea	0.118310764
77	0xbd9a663e	-0.075390324
78	0x3d96335f	0.07334017
79	0x3c6470d9	0.013942921
80	0x3bb5528d	0.0055335225
81	0xbd5b7069	-0.053574
82	0x3d07750e	0.033070616
83	0xbdf2f93a	-0.118639424
84	0x3d80daed	0.06291757
85	0x3d729439	0.059223387
86	0x3dd081b0	0.10180986
87	0x3c780273	0.015137303
88	0x3e1f514d	0.15558358
89	0xbcb83ce2	-0.022489969
90	0xbda21eb3	-0.07916012
91	0xbd04086e	-0.0322346
92	0xbd8a4843	-0.06752064
93	0xbde17836	-0.110092565
94	0xbe074371	-0.1320932
95	0x3c54227b	0.012947674
96	0xbc5c56da	-0.013448441
97	0xbda632ba	-0.08115144
98	0xbdeb4c2f	-0.1148914
99	0xbd76fcc2	-0.060299642
100	0xbc5636f2	-0.013074623
101	0xbd90d27a	-0.07071395
102	0x3d24fae5	0.040278334
103	0x3dc283aa	0.09497769
104	0xbd8d41ac	-0.068972915
105	0xbcf1ade9	-0.029501872
106	0xbda01000	-0.07815552
107	0x3dc681b1	0.096927054
108	0x3c8cb7a7	0.017177416
109	0xbd7335f7	-0.059377637
110	0x3dda05a7	0.10645609
111	0x3d4551f6	0.048173867
112	0x3c28d80e	0.010305418
113	0x3c8a8ee1	0.016913833
114	0xbe1c6214	-0.15271789
115	0xbe396213	-0.18103819
116	0xbd6865a5	-0.05673756
117	0x3cf62ba5	0.030050108
118	0xbe28ad62	-0.1647239
119	0x3cd74497	0.026277823
120	0xbdaf9687	-0.08573633
121	0xbc325dc2	-0.010886611
122	0x3dcd8456	0.10035007
123	0x3c5a9213	0.013340491
124	0xbdaab79f	-0.08335804
125	0xbd947ff2	-0.07250966
126	0x3e0eb422	0.13935903
127	0xbdd5b5a3	-0.10435035
128	0xbd970902	-0.07374765
129	0x3dd83891	0.10557664
130	0xbd011d20	-0.031521916
131	0x3d921d37	0.071344785
132	0x3c818be0	0.015813768
133	0xbdcd9aeb	-0.10039314
134	0xbe1f73bd	-0.15571494
135	0x3d2e5639	0.042562697
136	0x3da9acb0	0.08284891
137	0x3e1d8e50	0.15386319
138	0x3e3398d8	0.17538774
139	0x3be521f7	0.0069925743
140	0xbe43a2f2	-0.19105127
141	0x3da4da78	0.08049482
142	0x3e73d4a0	0.23811579
143	0xbe26811d	-0.1626019
144	0x3c62420c	0.013809692
145	0x3d5d18d2	0.05397875
146	0xbcbb30dc	-0.022850446
147	0xbe41408a	-0.18872276
148	0xbdb074ad	-0.08616004
149	0x3c780794	0.0151385255
150	0xbe0f7ab1	-0.14011647
151	0xbd8cb5e8	-0.06870633
152	0xbdafbbf7	-0.08580773
153	0x3cc2fa17	0.023800893
154	0xbd0f6a02	-0.035013206
155	0x3e49853e	0.19679734
156	0xbd47137a	-0.04860256
157	0x3e2a5cb9	0.16636933
158	0xbb6faa4d	-0.0036570013
159	0xbe0b3591	-0.13594653
160	0x3ce08ff4	0.027412392
161	0xbd2080c3	-0.039185297
162	0x3e16f38a	0.1474134
163	0xbe83cfdb	-0.2574452
164	0xbcccf3e9	-0.02501865
165	0xbe38ee9a	-0.1805977
166	0x3d72a938	0.05924341
167	0xbb827329	-0.0039810133
168	0x3c890a3e	0.016728517
169	0xbe21561f	-0.15755509
170	0xbd7a69a7	-0.061135914
171	0xbbd27ac7	-0.0064233276
172	0xbdafbed6	-0.08581321
173	0x3bd0de42	0.0063741514
174	0x3bc78881	0.0060892706
175	0x3d85d60d	0.065349676
176	0x3dba90b3	0.091096304
177	0xbe55b457	-0.20869575
178	0xbdf93214	-0.12167755
179	0xbdb7575f	-0.089522116
180	0x3d37ad26	0.04484286
181	0xbb322bf3	-0.002718684
182	0xbc530fd7	-0.0128821945
183	0x3cb727b8	0.022357807
184	0xbe2e958a	-0.17049232
185	0x3de1afc8	0.11019856
186	0xbc53a4f6	-0.012917748
187	0xbce350b2	-0.02774844
188	0xbd4672f5	-0.048449475
189	0x3d727cdd	0.05920111
190	0xbd9afdda	-0.075679496
191	0xbe3817b2	-0.17977789
192	0xbcab4c45	-0.020910392
193	0xbc8e0ec7	-0.01734103
194	0x3cfe1d5d	0.03101986
195	0xbe6ea399	-0.23304595
196	0xbdaf1366	-0.08548622
197	0x3dfe7962	0.12425496
198	0xbe1aeb50	-0.15128827
199	0xbd80bffa	-0.062866166
200	0x3d2feb7b	0.04294918
201	0xb99addec	-0.00029538514
202	0xbe37ed86	-0.17961702
203	0x3dc25edc	0.09490749
204	0xbdf15e3a	-0.117855504
205	0xbe84763c	-0.25871456
206	0x3df51d0e	0.11968432
207	0xbcd9b723	-0.026576584
208	0xbe37d5c8	-0.17952645
209	0x3e1ba4e4	0.1519962
210	0xbdb7aba1	-0.089682825
211	0xbd991c5b	-0.074761115
212	0xbdd7454c	-0.10511264
213	0x3cadc643	0.021212703
214	0x3ddd793d	0.1081414
215	0xbdbd7b32	-0.09252013
216	0x3bb3b05f	0.0054836716
217	0xbdaa854b	-0.08326205
218	0x3da88977	0.08229344
219	0xbc3b009d	-0.01141372
220	0x3e017c55	0.12645085
221	0xbe396d45	-0.1810809
222	0xb9ff3e01	-0.00048683587
223	0xbc13cb0b	-0.009020577
224	0xbe776163	-0.24158244
225	0xbd9e770c	-0.0773755
226	0xbbe1fe96	-0.006896804
227	0x3de644dc	0.11243603
228	0xbe246da5	-0.16057451
229	0xbe2e2ff8	-0.17010486
230	0xbc33564a	-0.010945866
231	0xbda29a31	-0.07939566
232	0x3d9254fe	0.07145117
233	0x3d782b40	0.06058812
234	0x3e1811e7	0.14850579
235	0xbe080fe8	-0.13287318
236	0x3cf432dd	0.02980941
237	0x3e2a3802	0.16622928
238	0x3c9f2501	0.019426825
239	0xbcbcd4f3	-0.02305076
240	0x3bf69e3d	0.0075261877
241	0x3e5a5eaf	0.21325181
242	0xbdd9c2a0	-0.10632825
243	0xbdeaa10e	-0.114565
244	0xbd48def7	-0.04904076
245	0x3d16038c	0.036624476
246	0x3d9337ca	0.07188375
247	0x3bf1f8be	0.0073843887
248	0xbc659629	-0.014012852
249	0x3bdc1455	0.006716291
250	0x3da6697b	0.081255876
251	0x3e0c84de	0.1372256
252	0xbc0d7e16	-0.008636018
253	0x3dd7ffbc	0.10546824
254	0xbde27bad	-0.110587455
255	0xbd8bc29b	-0.068242274

model.dwc1.norm.bias f4 [1, 64, 1, 1]
0	0xbcbdf381	-0.0231874
1	0x3ed671b8	0.41883636
2	0xbe07f4e2	-0.13277009
3	0xbe0d613e	-0.13806626
4	0xbe9c2ade	-0.30501455
5	0x3ea1960b	0.31559786
6	0xbd4db148	-0.050217897
7	0xbdd97bf4	-0.10619345
8	0x3ed5aaec	0.41731966
9	0x3ce94d9e	0.028479394
10	0xbd97344d	-0.073830225
11	0x3f0861e1	0.5327435
12	0xbddd3a3e	-0.108021244
13	0xbd55d037	-0.052200522
14	0xbe01643d	-0.12635894
15	0x3b842ac1	0.004033417
16	0xbe516954	-0.20450336
17	0xbe57b278	-0.21064174
18	0xbe25b187	-0.16181003
19	0x3ebc01c3	0.36720094
20	0x3ed37c1f	0.41305634
21	0x3ec3a7ab	0.38213858
22	0x3ebdc75c	0.37066162
23	0xbdd529f9	-0.10408396
24	0x3ebb273b	0.36553368
25	0x3eae2457	0.340121
26	0xbda00ee7	-0.078153424
27	0x3db66de0	0.08907676
28	0xbe29b625	-0.16573389
29	0x3ecd1848	0.40057588
30	0xbe42f04a	-0.19036976
31	0x3e494a0b	0.19657151
32	0x3e6ef616	0.23336062
33	0x3e707f76	0.23486122
34	0x3e4b3342	0.19843772
35	0x3d93237e	0.07184504
36	0x3ecb11fd	0.3966216
37	0x3dd3bbb7	0.10338538
38	0xbe5f1cbb	-0.21788304
39	0x3dab6260	0.08368373
40	0xbd89869a	-0.06715126
41	0xbe3082b3	-0.17237358
42	0xbe173109	-0.14764799
43	0xbe47f4e3	-0.1952701
44	0x3e3bff59	0.18359126
45	0xbd3462a7	-0.044039395
46	0xbd39da90	-0.045374453
47	0x3ea4f4db	0.3221806
48	0xbe0bf7a1	-0.13668682
49	0x3ed28d57	0.4112346
50	0x3e6440f9	0.2229041
51	0xbd9cf99a	-0.07664795
52	0xbdc3d5b6	-0.095622465
53	0x3e2f3bdc	0.17112678
54	0x3ee3b011	0.44470266
55	0x3edddc11	0.4333196
56	0x3eefdaa0	0.46846485
57	0x3eac616a	0.3366807
58	0x3eccd023	0.40002546
59	0xbe0bbb0b	-0.1364557
60	0xbe0a2e36	-0.1349419
61	0xbeb340f9	-0.35010508
62	0xbdb1911f	-0.08670258
63	0xbe0e4610	-0.13893914

model.dwc1.norm.weight f4 [1, 64, 1, 1]
0	0x3fa43d38	1.2831182
1	0x3fa25dd4	1.2684884
2	0x3f6e15b1	0.9300185
3	0x3f956b1b	1.1673311
4	0x3fa02ec4	1.2514272
5	0x3f893e1f	1.0722083
6	0x3f8303f2	1.0235579
7	0x3f7904f7	0.972732
8	0x3f9b65f0	1.2140484
9	0x3f7b477e	0.98155963
10	0x3f7acc0f	0.9796762
11	0x3fab0a5a	1.3362534
12	0x3f974e04	1.1820683
13	0x3f99d2f6	1.2017505
14	0x3f84e260	1.0381584
15	0x3f768b2b	0.96306103
16	0x3f9d1bdf	1.227413
17	0x3f9d470e	1.2287309
18	0x3f910fd0	1.133295
19	0x3f943246	1.1577842
20	0x3f9cc10f	1.2246417
21	0x3f97c9e7	1.1858491
22	0x3fcb498e	1.5881822
23	0x3f627d94	0.88472867
24	0x3f953363	1.1656307
25	0x3fa39d33	1.2782348
26	0x3f851790	1.0397816
27	0x3f7922c1	0.97318655
28	0x3f96a6e4	1.1769681
29	0x3fd64a8c	1.67415
30	0x3f7adf89	0.9799734
31	0x3f873711	1.056368
32	0x3f951524	1.1647077
33	0x3f81a3b0	1.0128078
34	0x3f80b751	1.0055944
35	0x3f83d296	1.0298641
36	0x3f912653	1.1339821
37	0x3f84f6c3	1.0387806
38	0x3f9355a4	1.151051
39	0x3f7dad4b	0.9909255
40	0x3f7299e0	0.94766045
41	0x3f954f66	1.1664855
42	0x3f77f948	0.9686475
43	0x3f938b39	1.1526862
44	0x3f7bc7f0	0.98351955
45	0x3f80102a	1.0004933
46	0x3f76ed39	0.96455723
47	0x3f8b7852	1.0896094
48	0x3f95be23	1.169865
49	0x3f9e3588	1.2360086
50	0x3f80fa3b	1.0076364
51	0x3f89fdf2	1.0780623
52	0x3f87f985	1.0623022
53	0x3f8ffa55	1.124827
54	0x3fbaf60e	1.460634
55	0x3f9cfe93	1.226519
56	0x3f80b615	1.0055567
57	0x3f829a58	1.0203352
58	0x3faf6481	1.3702546
59	0x3f84c1a8	1.0371599
60	0x3f443eb8	0.766582
61	0x3f682c93	0.90693015
62	0x3f7df08d	0.99195176
63	0x3f5463ca	0.82964766

model.dwc1.conv.weight f4 [64, 1, 9, 1]
0	0x3dc8c92a	0.09803994
1	0x3e189cda	0.14903584
2	0x3dd2e48a	0.102974966
3	0x3e167bde	0.14695689
4	0x3d8ee3ca	0.06977041
5	0x3d8b404a	0.067993715
6	0x3d5eb096	0.054367624
7	0x3e0bc536	0.13649449
8	0x3d941598	0.07230681
9	0xbc18fbfd	-0.009337422
10	0xbd01aafc	-0.031657204
11	0xbd2fb1de	-0.042894237
12	0xbcb5d4f0	-0.022196263
13	0xbdcdf891	-0.10057176
14	0xbd67f5c6	-0.056630872
15	0xbd5f1f7a	-0.054473378
16	0xbba1bce7	-0.004935849
17	0x3d060977	0.03272387
18	0x3dd9300a	0.10604866
19	0x3cb87638	0.022517309
20	0x3d280150	0.041016877
21	0x3db80702	0.08985712
22	0x3e326616	0.17421755
23	0x3d392a2d	0.045206238
24	0x3dc05325	0.093908586
25	0x3db29839	0.087204404
26	0x3dbd89c0	0.09254789
27	0x3d8dfd88	0.06933123
28	0x3dca4e72	0.098782435
29	0x3d0263ad	0.03183334
30	0x3da436cb	0.080182634
31	0x3d727846	0.059196733
32	0x3d0badad	0.034101177
33	0x3dc5d0df	0.096589796
34	0x3ddebecd	0.10876236
35	0x3dbdaa76	0.092610285
36	0x3d740148	0.059571534
37	0x3de3dfc1	0.11126662
38	0x3dd8b5cd	0.10581551
39	0xbbf6336b	-0.0075134537
40	0x3d05db40	0.032679796
41	0x3c368ac7	0.011141486
42	0x3e042e36	0.12908253
43	0x3d8612d2	0.065465584
44	0x3de7886d	0.11305318
45	0x3d8626bd	0.065503575
46	0xbd055598	-0.03255233
47	0x3c289608	0.0102896765
48	0xbce1eebf	-0.027579663
49	0xbc621c28	-0.013800658
50	0xbd790f7c	-0.060805783
51	0xbca0764b	-0.019587656
52	0xbd0b47e9	-0.034004126
53	0x3d0e1d52	0.03469593
54	0x3dd54b0a	0.10414703
55	0x3dfe16f7	0.12406724
56	0x3df7da45	0.121021785
57	0x3ce96008	0.028488174
58	0x3d2b51ae	0.041825943
59	0x3d22a8c3	0.039711725
60	0x3dcb5952	0.09929146
61	0x3e26fd37	0.16307531
62	0x3e23fde3	0.16014819
63	0x3d3cb921	0.04607499
64	0x3bebcd6f	0.0071961205
65	0x3d7769b3	0.060403537
66	0xbb3eee94	-0.0029133903
67	0xbcc54545	-0.024080882
68	0xbdbaa22b	-0.09112962
69	0x3d974219	0.07385654
70	0xbd493099	-0.049118612
71	0x3be152b3	0.0068763136
72	0xbd0fea10	-0.03513533
73	0xbd28b148	-0.041184694
74	0xbd2c6681	-0.042089943
75	0xbc8c8985	-0.017155418
76	0xbbe2875c	-0.0069131088
77	0xbcad299d	-0.021138007
78	0xbc1ddc1b	-0.009634997
79	0xbd52ce57	-0.051466312
80	0xbcda687c	-0.02666115
81	0xbe8a6444	-0.27029622
82	0xbdae3e7b	-0.08508011
83	0xbebde7e8	-0.37090993
84	0xbe8b0636	-0.27153176
85	0xbe878e25	-0.26475635
86	0xbe5d586c	-0.21615762
87	0xbe83581d	-0.25653163
88	0xbeaff27d	-0.3436469
89	0xbdae2863	-0.08503797
90	0xbd28649e	-0.04111158
91	0xbd0bb68a	-0.03410963
92	0xbd3fba09	-0.046808276
93	0xbc35583a	-0.011068398
94	0x3d9dd76c	0.07707104
95	0x3d5c10d0	0.05372697
96	0x3d548612	0.051885672
97	0xbd0c844b	-0.034305852
98	0xbcff52ba	-0.031167377
99	0xbdcba54b	-0.099436365
100	0xbdacf675	-0.084454454
101	0xbd2e2a80	-0.042521
102	0xbd4e1e94	-0.05032213
103	0xbcecaf11	-0.028892072
104	0xbcd7f06e	-0.026359763
105	0xbd46050b	-0.048344653
106	0xbda9b4ed	-0.08286462
107	0xbd9147d8	-0.07093781
108	0x3d8d53b6	0.06900732
109	0x3e2ef5ad	0.17085905
110	0x3de06613	0.10956969
111	0x3b06c2c6	0.0020562871
112	0xbcac964e	-0.021067765
113	0x3d482663	0.048864733
114	0x3d3ff840	0.04686761
115	0x3e111ada	0.141704
116	0x3ddad56b	0.106852375
117	0x3c4f4771	0.01265131
118	0x3dc5ea52	0.09663834
119	0x3dc5aea6	0.09652452
120	0xbbed8767	-0.007248807
121	0x3e058917	0.13040577
122	0x3cd64f39	0.026160823
123	0x3da972c1	0.08273841
124	0x3c33fe04	0.010985855
125	0x3cb2a83a	0.021808732
126	0x3da033a9	0.078223534
127	0x3d2f2e63	0.042768847
128	0x3d45eb5b	0.048320156
129	0x3d525e2d	0.051359344
130	0x3df7f210	0.12106717
131	0x3dda3f1b	0.10656568
132	0x3d6930f5	0.056931455
133	0x3cbe5a24	0.023236342
134	0xbbd7b8a4	-0.00658329
135	0xbda21e4d	-0.07915936
136	0xbdd3ada8	-0.10335857
137	0xbe0d485f	-0.13797139
138	0xbd7ff67e	-0.062490933
139	0xbdf11044	-0.117706805
140	0xbd7a2f2b	-0.06108014
141	0xbd5fb320	-0.054614186
142	0x3c9ee030	0.01939401
143	0xbd636f63	-0.05552615
144	0x3de0de68	0.109799206
145	0x3e016cf1	0.12639214
146	0x3deaafcd	0.114593126
147	0x3d54b9a6	0.05193486
148	0x3dd4ce24	0.10390881
149	0x3ddad2fa	0.10684772
150	0xba2c6f05	-0.00065778225
151	0x3d820570	0.06348693
152	0x3dd8f43b	0.10593458
153	0x3e2cde7f	0.1688175
154	0x3e19ada5	0.15007646
155	0x3d988d0a	0.07448776
156	0x3dcce801	0.10005189
157	0xbc8ad3bb	-0.016946664
158	0x3de94fcd	0.11392174
159	0x3da299cc	0.07939491
160	0x3dcd87d9	0.100356765
161	0x3dce8135	0.10083238
162	0x3db0bcd9	0.0862977
163	0x3d945841	0.072433956
164	0x3def5249	0.116856165
165	0x3c17f7b4	0.009275366
166	0x3d5b16da	0.05348859
167	0x3c1b29d6	0.009470424
168	0x3df00207	0.11719137
169	0x3dde524b	0.1085554
170	0x3dc12fda	0.09432955
171	0xbd15607f	-0.03646898
172	0xbc97cef5	-0.018531302
173	0xbcf2e08c	-0.029648088
174	0xbcff4783	-0.03116203
175	0xbd0d8edd	-0.034560073
176	0xbcf47336	-0.029840093
177	0xbbaf17ac	-0.005343398
178	0xbd534feb	-0.051589888
179	0xbc944540	-0.018099427
180	0xbd662631	-0.056188766
181	0xbd621274	-0.05519338
182	0xbcfa769e	-0.03057414
183	0xbc50254c	-0.012704205
184	0xbc55f07f	-0.013057827
185	0xbc88ae64	-0.016684718
186	0xbceb8be6	-0.028753232
187	0xbd14855c	-0.036259994
188	0xbd241545	-0.040059347
189	0xbce7100c	-0.028205894
190	0xbc1ed670	-0.009694681
191	0xbc89d98a	-0.016827364
192	0x3b825e13	0.0039784997
193	0x3aefcc0c	0.0018295064
194	0xbc3234af	-0.010876819
195	0xbbffd7fa	-0.007807729
196	0xbcf3bf10	-0.029754192
197	0xbd0706f4	-0.032965615
198	0xbe108551	-0.14113356
199	0xbe123cc1	-0.14280988
200	0xbe31a604	-0.17348486
201	0xbe340436	-0.17579731
202	0xbe0cad1a	-0.13737908
203	0xbda71da1	-0.08159948
204	0xbd1cf203	-0.038316738
205	0xbe08aba3	-0.13346724
206	0xbe345a2e	-0.17612526
207	0xbf05b691	-0.522317
208	0xbf0adfe9	-0.5424791
209	0xbee17e6e	-0.4404177
210	0xbf0a3698	-0.53989553
211	0xbf0bc7ee	-0.54601943
212	0xbf08c5eb	-0.53427
213	0xbf10e3c0	-0.5659752
214	0xbf12bd0b	-0.57319707
215	0xbea6475c	-0.32476318
216	0xbbf7b0c7	-0.0075589153
217	0xbd0c7303	-0.03428937
218	0xbcf50cfc	-0.029913418
219	0xbc5713eb	-0.013127307
220	0xbcfeb8c1	-0.031093957
221	0x397686bc	0.0002351058
222	0xbc97c6f8	-0.018527493
223	0xbcd0f20d	-0.025506044
224	0xbcbadbec	-0.022809945
225	0xbc1a4c05	-0.0094175385
226	0xbc6228f3	-0.013803708
227	0xbc93e547	-0.018053664
228	0xbd33671a	-0.043799497
229	0xbcc67921	-0.02422768
230	0x3b2427c7	0.0025048123
231	0xbc98898b	-0.018620273
232	0x3b347398	0.002753472
233	0xbd0e3b33	-0.034724426
234	0x3becd76e	0.0072278297
235	0x3c4758fc	0.012167212
236	0x3db95d7b	0.09051033
237	0x3da27146	0.079317614
238	0x3d36925f	0.044573184
239	0xbba9723d	-0.005171089
240	0x3d89e6a7	0.067334466
241	0xbcd80b44	-0.02637256
242	0x3dac7320	0.08420396
243	0xbd23795b	-0.039910655
244	0xbd35eacc	-0.044413373
245	0xbc307919	-0.010771059
246	0xbbf4e779	-0.0074738828
247	0xbdd25bb6	-0.10271399
248	0xbd9ca80e	-0.076492414
249	0x3d400dfc	0.046888337
250	0xbd3519c6	-0.044214033
251	0xbcb6d1e5	-0.022316882
252	0x3e20f219	0.15717353
253	0x3dbe3aa9	0.09288532
254	0x3d6b6b91	0.05747563
255	0x3dbbd6f0	0.091718554

model.dwc2.norm.bias f4 [1, 64, 1, 1]
0	0xbe6722f5	-0.22571929
1	0x3da4f92a	0.08055337
2	0x3daae425	0.08344296
3	0xbe570d20	-0.210011
4	0xbe516ccd	-0.2045166
5	0xbd4f10be	-0.050553076
6	0xbc43c05c	-0.0119477175
7	0x3cc28dae	0.023749199
8	0xbdaea9a9	-0.08528454
9	0xbdf1fa67	-0.118153386
10	0xbdb0d555	-0.0863444
11	0xbdcc045f	-0.09961771
12	0xbd4a1dd4	-0.049344853
13	0xbc54832f	-0.01297073
14	0xbd99256f	-0.07477843
15	0x3deb030c	0.114751905
16	0xbdc42df0	-0.095790744
17	0x3b599e37	0.0033205876
18	0xbe39021e	-0.18067214
19	0x3e6b1a10	0.22959161
20	0x3ec86707	0.39141104
21	0xbe4f7209	-0.20258345
22	0xbe00f596	-0.12593684
23	0x3eee065b	0.46489224
24	0x3ea51bd0	0.32247782
25	0xbd2fc487	-0.042912032
26	0xbdd93dea	-0.10607512
27	0x3da54f1f	0.08071732
28	0x3e029550	0.1275227
29	0xbe243fb6	-0.16039929
30	0xbd12183d	-0.035667647
31	0xbddf05ef	-0.108898036
32	0xbe091ae4	-0.13389164
33	0x3e03432e	0.12818596
34	0xbd9776ce	-0.07395707
35	0xbb76a312	-0.0037633819
36	0x3e9bc140	0.30420876
37	0xbe1f2315	-0.15540726
38	0xbe2deef1	-0.1698568
39	0xbe04328e	-0.1290991
40	0xbe1a8f89	-0.15093817
41	0xbdaf408a	-0.08557232
42	0xbd64bae6	-0.055842303
43	0xbdd9b855	-0.10630862
44	0xbdc7add6	-0.097499534
45	0xbdcd89f7	-0.1003608
46	0xbdab14a1	-0.08353544
47	0xbe1ce6c6	-0.15322408
48	0xbe6efda8	-0.2333895
49	0xbd45561b	-0.04817782
50	0xbd911165	-0.07083396
51	0x3eda93d3	0.42690906
52	0x3e406279	0.18787564
53	0xbda7340b	-0.08164223
54	0x3e445dec	0.19176453
55	0xbd96838c	-0.07349309
56	0xbdc2e43e	-0.0951619
57	0x3c736880	0.014856458
58	0x3d9e5472	0.077309504
59	0xbcf610c0	-0.030037284
60	0xbd99b29a	-0.07504769
61	0xbe6f7228	-0.23383391
62	0xbc38e63a	-0.011285359
63	0x3d56eb05	0.052470226

model.dwc2.norm.weight f4 [1, 64, 1, 1]
0	0x3fa4bc4d	1.2869965
1	0x3f803f3a	1.0019295
2	0x3f924961	1.1428643
3	0x3fae0ac7	1.3597039
4	0x3f92e168	1.1475039
5	0x3f77e0ff	0.9682769
6	0x3f87b40f	1.0601825
7	0x3f7fa81f	0.9986591
8	0x3f6eeeed	0.9333332
9	0x3f4bab82	0.79558575
10	0x3f77bc22	0.9677144
11	0x3f75ce2f	0.96017736
12	0x3f7ea673	0.9947273
13	0x3f799638	0.9749484
14	0x3f7887bd	0.9708212
15	0x3f8d6307	1.1045846
16	0x3f97a836	1.1848209
17	0x3f7e8bb5	0.99431926
18	0x3f991b4e	1.1961458
19	0x3f7aea03	0.98013324
20	0x3f8c6a25	1.0969893
21	0x3f9f41df	1.2441977
22	0x3f7089fc	0.9396055
23	0x3f645b8d	0.89202195
24	0x3fa01474	1.2506242
25	0x3f80634c	1.0030303
26	0x3f68d2e1	0.90946776
27	0x3f77f741	0.96861655
28	0x3f89720a	1.0737927
29	0x3f3ce665	0.73789054
30	0x3f77829f	0.96683687
31	0x3f75c1c5	0.95998794
32	0x3f854603	1.0411991
33	0x3fb1bf23	1.3886455
34	0x3f753b02	0.95793164
35	0x3f767780	0.9627609
36	0x3f8072b8	1.0035009
37	0x3f75d8e6	0.96034086
38	0x3faaf060	1.3354607
39	0x3f838aab	1.0276693
40	0x3fa17fac	1.2617087
41	0x3f75f5e4	0.96078324
42	0x3f7745d9	0.96590954
43	0x3f741d12	0.9535686
44	0x3f79ba68	0.9755006
45	0x3f87ce2a	1.0609791
46	0x3f61a442	0.8814126
47	0x3f848b8c	1.0355086
48	0x3fb6a0a4	1.4267774
49	0x3f741769	0.9534822
50	0x3f76bddb	0.96383446
51	0x3f7a861d	0.9786089
52	0x3f917d90	1.1366444
53	0x3f750399	0.95708615
54	0x3f807b65	1.0037657
55	0x3f75f041	0.96069723
56	0x3f839cc1	1.0282212
57	0x3f7f0c07	0.9962773
58	0x3f7b19a5	0.98086005
59	0x3f787a54	0.9706166
60	0x3f73088a	0.94934905
61	0x3f931d42	1.1493304
62	0x3f8de07c	1.1084132
63	0x3f825a53	1.0183815

model.dwc2.conv.weight f4 [64, 1, 21, 1]
0	0x3dd861dc	0.1056554
1	0x3d8d7aed	0.06908212
2	0x3da71329	0.081579514
3	0x3d6fa362	0.058505423
4	0x3da3c5b5	0.07996694
5	0x3d83276d	0.06404004
6	0x3cc26d23	0.023733681
7	0xbb188a0d	-0.0023275644
8	0x3d76c536	0.06024667
9	0x3d8536d1	0.06504596
10	0x3d922da1	0.07137609
11	0xbb8451b0	-0.004038058
12	0x3cc7e353	0.024400389
13	0x3a1a0921	0.0005875994
14	0x3db99723	0.0906203
15	0x3d82e7e9	0.063918896
16	0xbbf8f04f	-0.0075970064
17	0x3d99c48e	0.07508193
18	0x3d891af9	0.06694598
19	0x3d8d532c	0.069006294
20	0x3da4b2ac	0.080418915
21	0x3c3cbba7	0.011519349
22	0xbc3cb8f4	-0.011518706
23	0x3d88c224	0.066776544
24	0x3bec25de	0.0072066626
25	0x3daf4f37	0.08560031
26	0x3d7c48dc	0.06159292
27	0x3d48d500	0.049031258
28	0xbc957f02	-0.018249039
29	0x3c788c54	0.015170176
30	0xbd32dab0	-0.043665588
31	0x3b86955c	0.0041071605
32	0xbd236e30	-0.039900005
33	0x3d52ad21	0.05143464
34	0x3d425b80	0.047450542
35	0x3d77dd3a	0.060513712
36	0xbd287b6c	-0.04113333
37	0x3d9bf458	0.07614964
38	0x3d8c2306	0.06842618
39	0x3d65efea	0.056137003
40	0x3d22675f	0.039649364
41	0xbd2442d3	-0.04010279
42	0x3d38b35e	0.045092933
43	0x3c763184	0.015026454
44	0x3d04c796	0.032416902
45	0x3d272f9a	0.04081688
46	0x3d3857aa	0.045005478
47	0xbacd38c1	-0.0015657173
48	0xbd204987	-0.03913262
49	0xbd0e28c5	-0.03470685
50	0xbdab7c7d	-0.08373354
51	0xbc8bb09d	-0.01705199
52	0xbdbb07a9	-0.091323204
53	0xbd173b6e	-0.03692191
54	0xbc811e53	-0.01576153
55	0x3c71a778	0.0147494
56	0x3b3c1a10	0.0028702058
57	0x3d3cf1c4	0.046129003
58	0x3c8554e7	0.016275836
59	0x3d676bba	0.05649922
60	0x3d3835d0	0.044973195
61	0x3d16db17	0.036830034
62	0x3ce9c374	0.028535582
63	0x3db8ad71	0.09017456
64	0x3de58034	0.112060934
65	0x3d7f9205	0.062395114
66	0x3db48bcd	0.088157274
67	0x3d82ec7d	0.06392763
68	0x3d64b69c	0.055838212
69	0x3d1134d2	0.035450764
70	0x3c83a22d	0.016068542
71	0x3c8b067d	0.016970867
72	0xbc3e83fa	-0.011628145
73	0xbceac093	-0.02865628
74	0xbc2b2a2f	-0.010447069
75	0x3be1327b	0.006872473
76	0xbcaf9504	-0.02143336
77	0x3d15f501	0.036610607
78	0x3cdfc839	0.027317153
79	0x3d57b8c5	0.052666444
80	0x3d9c8241	0.076420315
81	0x3d02a6c0	0.031897306
82	0x3d400004	0.046875015
83	0x3ddc4cb8	0.107568204
84	0x3db7fd43	0.08983853
85	0x3d2ea778	0.04264018
86	0x3dbb333a	0.0914063
87	0x3d152316	0.036410414
88	0xbc9accf4	-0.018896557
89	0x3d092985	0.03348686
90	0x3d87a518	0.06623286
91	0x3cb67e76	0.022277098
92	0x3d27f24a	0.04100255
93	0x3d7c02c0	0.06152606
94	0xba06edd5	-0.0005147134
95	0xbc44287c	-0.011972543
96	0x3bfd344a	0.0077271806
97	0x3d3d4453	0.046207737
98	0xbb446ec9	-0.002997326
99	0x3c8da484	0.017290361
100	0x3dcb3611	0.09922422
101	0x3d2c2198	0.042024225
102	0x3cd1c14d	0.025604868
103	0x3d2970be	0.041367285
104	0x3d8cec66	0.06881027
105	0xbd06e577	-0.03293368
106	0x3c17bebd	0.009261784
107	0x3cf523c1	0.029924275
108	0x3d1f917b	0.0389571
109	0x3bb3ec35	0.0054908046
110	0xbcc3304d	-0.023826743
111	0xbc5527a9	-0.013009944
112	0xbd40bfcf	-0.047057923
113	0xbc7f19cc	-0.015570115
114	0xbccfa718	-0.025348231
115	0xbbb530e5	-0.0055295103
116	0xbd0418fc	-0.03225039
117	0xbcaf0c53	-0.021368181
118	0x3d16d30d	0.036822367
119	0xbd20a2e6	-0.039217852
120	0xbd6290ae	-0.05531376
121	0x3ccbd544	0.024881966
122	0x3c0698ee	0.008215172
123	0xbcf0653b	-0.029345145
124	0x3a9b0abb	0.001182876
125	0x3cc4e06a	0.02403279
126	0x3cdd62cf	0.027024655
127	0x3c24e0bd	0.010063347
128	0xbc88c225	-0.016694138
129	0x3b9ed9df	0.0048477496
130	0x3dbc8b28	0.092062294
131	0x3ce0a428	0.027422026
132	0x3c7663dc	0.015038457
133	0x3d6232af	0.055224117
134	0x3dca94ea	0.09891684
135	0x3db25690	0.08707917
136	0xbac53774	-0.0015046434
137	0x3d31896a	0.04334394
138	0x3da9a068	0.08282548
139	0x3d419dfd	0.04726981
140	0x3d122112	0.03567607
141	0x3c8324f6	0.016008835
142	0x3c75e932	0.015009211
143	0x3d4778f5	0.048699338
144	0x3d0fd156	0.035111748
145	0xbc5f4c7b	-0.013629074
146	0x3cc04826	0.023471903
147	0xbd0d1532	-0.03444404
148	0x3d83b85d	0.06431649
149	0xbcd2035e	-0.025636371
150	0xbcdf7a28	-0.027279928
151	0xbc700da8	-0.014651693
152	0xbb7b264f	-0.0038322394
153	0x3b19116b	0.002335633
154	0x3d2562bd	0.040377367
155	0x3d710c61	0.058849696
156	0xbd4a8b26	-0.04944911
157	0x3c334600	0.010941982
158	0xbd4e2e39	-0.05033705
159	0x3c9356fb	0.017985811
160	0xbd47e858	-0.048805565
161	0xbc778d25	-0.015109335
162	0x3b124460	0.0022318587
163	0xbd487f31	-0.048949424
164	0x3cb4d82e	0.022075739
165	0x3c94cd45	0.018164286
166	0x3c02054c	0.007935833
167	0x3d0e118c	0.034684703
168	0x3b2e1ffc	0.0026569357
169	0xbd04c423	-0.032413613
170	0x3c9bd0a4	0.019020386
171	0x3bde076d	0.0067757876
172	0x3b5bfcda	0.003356746
173	0xbd2ac7a7	-0.04169431
174	0xbc1ae848	-0.009454794
175	0x3c5d8f4f	0.013522937
176	0xbba2a68c	-0.0049637016
177	0x3b2d1460	0.002640985
178	0xbd1b1e12	-0.037870474
179	0xbce54bdd	-0.027990276
180	0xbcbbb745	-0.022914538
181	0xbb882fa2	-0.004156069
182	0xbc541ac1	-0.012945832
183	0xbd112ffc	-0.035446152
184	0x3c3c34c4	0.01148719
185	0xbc0ed491	-0.008717672
186	0xbcbb228a	-0.022843618
187	0xbca0d592	-0.019633088
188	0xbd1190bf	-0.03553843
189	0x39d374d7	0.0004033211
190	0xbd229dbe	-0.039701216
191	0xbc7cf951	-0.015440301
192	0xbba080ed	-0.0048981817
193	0xbd1d905d	-0.038467754
194	0xbd4f2cc1	-0.05057979
195	0x3a234379	0.0006228011
196	0xbb9385ea	-0.004502048
197	0x3c20ebbf	0.009821831
198	0x3b095772	0.0020956662
199	0x3cba603e	0.02275097
200	0x3c90edaf	0.017691461
201	0xbb88cede	-0.004175051
202	0x3c9c5c22	0.019086901
203	0x3d2dcdd9	0.04243264
204	0xbd637a57	-0.055536594
205	0xbcfd60b6	-0.030929904
206	0xbd3da79c	-0.046302423
207	0x3d003cab	0.031307857
208	0x3b16ab0b	0.0022990133
209	0xbd6825ec	-0.05667679
210	0x3d5698b8	0.052391738
211	0xbd990431	-0.074715026
212	0x3ca8334e	0.020532276
213	0x3d760869	0.060066614
214	0x3abad7a6	0.0014254942
215	0xbd91edde	-0.07125448
216	0xbcb44bba	-0.022008765
217	0x3addd5d8	0.0016924692
218	0x3d1c1214	0.03810318
219	0x3d56d703	0.052451145
220	0xbd6d02a6	-0.057863854
221	0xbca69d3d	-0.020338649
222	0x3d8a8323	0.067632936
223	0x3d245e08	0.040128738
224	0xbceed084	-0.029152162
225	0x3d616644	0.05502917
226	0xbcc22036	-0.023697
227	0xbd1e516f	-0.03865188
228	0x3d1db445	0.038501997
229	0xbcbebb0f	-0.023282556
230	0x3c239174	0.009983409
231	0xbd25aa76	-0.040445767
232	0xbca6934f	-0.020333914
233	0xbd12352d	-0.035695244
234	0x3cebfc1d	0.02880674
235	0xbd59b768	-0.053153425
236	0x3cccea93	0.025014197
237	0xbcfba68a	-0.03071906
238	0x3c39807d	0.011322138
239	0xbc5f6a91	-0.013636247
240	0xbbd37dc7	-0.006454203
241	0x3d20173c	0.039084658
242	0x3ce54a79	0.027989613
243	0xbc6b92be	-0.014378248
244	0xbd477216	-0.048692785
245	0x3abe7e92	0.001453357
246	0xbd7c58c4	-0.06160809
247	0xbc7d3d60	-0.0154565275
248	0xbcc11de9	-0.023573833
249	0x3c476fd0	0.012172654
250	0x3d19e358	0.037570328
251	0xbd47a503	-0.04874135
252	0xbd079d9a	-0.033109285
253	0x3c925f81	0.017867805
254	0x3da82970	0.082110286
255	0xbd2114ba	-0.039326407

model.output.weight f4 [5, 192, 1, 1]
0	0x3e251133	0.16119842
1	0xbea16a5c	-0.31526458
2	0xbdb2e069	-0.08734209
3	0x3c8f3ed1	0.017486008
4	0xbd92f9c6	-0.07176547
5	0xbebcac41	-0.3685017
6	0xbdecacf0	-0.11556423
7	0xbee9c173	-0.45655403
8	0xbf009191	-0.50222117
9	0xbe625acc	-0.22104949
10	0xbdc52edb	-0.096280776
11	0x3e18c2ff	0.14918135
12	0xbe9c3c76	-0.30514878
13	0xbe88f1ac	-0.2674688
14	0xbf19d71f	-0.60093874
15	0x3e71a772	0.23599032
16	0xbee8ffbd	-0.45507613
17	0xbe056dae	-0.1303012
18	0xbd7e5474	-0.06209226
19	0xbda11a06	-0.07866292
20	0x3e3054a7	0.17219792
21	0x3e1b244a	0.15150562
22	0xbe8a3467	-0.26993105
23	0xbe04e6f9	-0.12978734
24	0xbeada126	-0.3391201
25	0x3eaa69ab	0.33283743
26	0xbf3e7731	-0.7440062
27	0xbe3ec7e6	-0.18630943
28	0xbcea6be3	-0.028615898
29	0xbe8e5000	-0.2779541
30	0xbeb61686	-0.3556406
31	0x3e948731	0.29009393
32	0xbe107baa	-0.14109674
33	0x3d523580	0.051320553
34	0xbecc5e0e	-0.39915508
35	0xbe9683e5	-0.29397503
36	0x3e5ebb94	0.21751243
37	0xbd018fc9	-0.031631265
38	0xbe5f6693	-0.21816473
39	0xbe048aa1	-0.12943508
40	0xbe28a6ec	-0.16469926
41	0xbda93cdf	-0.08263563
42	0xbe4ca555	-0.19984944
43	0xbe8aa506	-0.27079028
44	0xbe888550	-0.2666421
45	0xbe527ba2	-0.20554975
46	0xbea1ed27	-0.31626245
47	0xbe85833d	-0.2607669
48	0xbe624efe	-0.22100446
49	0x3e8b26f0	0.27178144
50	0xbe87d4b7	-0.26529476
51	0xbebf29cc	-0.37336576
52	0xbe0572b1	-0.13032033
53	0x3e168d22	0.14702275
54	0x3e40efd5	0.18841489
55	0xbe34a28a	-0.17640129
56	0xbebeeebb	-0.37291512
57	0x3e891b04	0.26778424
58	0xbef228ea	-0.4729684
59	0x3c9c3eb9	0.019072877
60	0x3dd7b67d	0.10532854
61	0xbe92d033	-0.28674468
62	0x3eb5c82d	0.35504285
63	0xbf08089c	-0.53138137
64	0x3dfe628f	0.12421142
65	0x3d8706d9	0.06593103
66	0x3de1f6ec	0.11033425
67	0xbda49a44	-0.08037236
68	0xbe993da8	-0.29929852
69	0x3c6eb9cb	0.014570664
70	0xbed10347	-0.40822813
71	0x3ddef1f6	0.10885994
72	0x3d807b60	0.06273532
73	0xbd71d054	-0.059036568
74	0xbe35941d	-0.17732282
75	0xbf1b2f3c	-0.6061895
76	0xbe7a52b7	-0.24445616
77	0xbe4c0568	-0.19923937
78	0xbeb38c0f	-0.35067794
79	0x3e008c8b	0.12553613
80	0xbe55a94c	-0.20865363
81	0xbd02464b	-0.031805318
82	0xbea9af3c	-0.33141506
83	0x3dcc8705	0.099866904
84	0xbc406d8f	-0.011744871
85	0xbce2fb5c	-0.027707748
86	0x3d0eee06	0.034894966
87	0x3d1e35f7	0.038625684
88	0x3dc7cbcf	0.0975567
89	0xbe492bbd	-0.19645591
90	0xbe4d0389	-0.2002088
91	0xbdf50012	-0.11962904
92	0xbe212cc3	-0.15739731
93	0x3e3e5b00	0.18589401
94	0xbe146335	-0.1449097
95	0xbdf8d950	-0.12150824
96	0xbe070f78	-0.13189495
97	0x3d52bc17	0.051448908
98	0x3dad0e11	0.084499486
99	0xbe8148bb	-0.252508
100	0xbc7276eb	-0.01479886
101	0xbd500bfa	-0.05079267
102	0xbdbb15d6	-0.09135024
103	0x3c874dae	0.016516533
104	0xbdce5651	-0.10075057
105	0xbf2f30c9	-0.68433815
106	0xbe864f3e	-0.26232332
107	0xbe622263	-0.2208343
108	0xbd8fed66	-0.07027702
109	0x3b9c4308	0.004768733
110	0xbda5dd58	-0.080988586
111	0x3d20c648	0.039251596
112	0xbdc05c2e	-0.09392582
113	0xbe5e5e30	-0.21715617
114	0x3c4e6fea	0.012599925
115	0xbd6c02fe	-0.05762004
116	0x3bc12c79	0.005895194
117	0xbdf24d59	-0.11831159
118	0xbdf1dd90	-0.11809838
119	0x3e1e2f9d	0.1544785
120	0x3e52148b	0.20515649
121	0xbdd640d9	-0.104615875
122	0x3da3b716	0.07993905
123	0xbe6ff90a	-0.23434845
124	0x3d20bf6e	0.03924506
125	0xbda0f566	-0.07859306
126	0x3e7a7276	0.24457726
127	0xbc317021	-0.010829956
128	0x3e8de660	0.27714825
129	0xbdf09ce8	-0.117486775
130	0x3dc93164	0.09823874
131	0x3cb07f64	0.02154512
132	0xbd97d91a	-0.07414456
133	0x3c517b27	0.012785709
134	0x3d887bb0	0.066642165
135	0x3d37d36f	0.044879373
136	0xbe02953e	-0.12752244
137	0xbe7a43f0	-0.24439979
138	0xbd9e46f9	-0.07728381
139	0x3d92d3f6	0.071693346
140	0xbdd4f5a5	-0.103984155
141	0xbc1c9d8d	-0.009559047
142	0xbc570e50	-0.013125971
143	0x3e497001	0.19671632
144	0xbe57d4d1	-0.21077277
145	0x3df36e85	0.11886314
146	0xbe55a830	-0.2086494
147	0x3d6e1992	0.058129855
148	0xbe9be535	-0.3044831
149	0xbddeed2b	-0.1088508
150	0x3d1bd922	0.03804887
151	0xbe839ad2	-0.25704056
152	0x3e0a9bc8	0.13535988
153	0x3eb89ead	0.3605856
154	0xbdf16dfb	-0.11788555
155	0x3d4231bf	0.047410723
156	0x3d1f8a0f	0.038950022
157	0xbd597c0a	-0.05309681
158	0x3e120332	0.14259031
159	0x3cacec2d	0.021108711
160	0xbea15fea	-0.3151849
161	0xbe1b43de	-0.15162608
162	0x3c843454	0.016138233
163	0x3c9c157f	0.019053219
164	0xbd3613b6	-0.04445239
165	0x3e04d8c1	0.1297331
166	0xbeb96ff0	-0.36218214
167	0xbdddfa21	-0.10838724
168	0xbe41a866	-0.18911895
169	0x3df0a19e	0.11749576
170	0xbdfa2ed7	-0.12215965
171	0x3ddad4be	0.106851086
172	0xbe137c40	-0.14402866
173	0xbe81ee78	-0.2537725
174	0xbe3960f6	-0.18103394
175	0xbe725455	-0.23664983
176	0xbdae8f0f	-0.0852338
177	0xbe3b8ebf	-0.18316172
178	0x3e06c074	0.13159353
179	0x3df1df15	0.11810128
180	0x3d4ee533	0.05051155
181	0x3ddb462b	0.10706743
182	0xbe0f3d35	-0.13988192
183	0xbd822c49	-0.06356103
184	0xbeaf43f7	-0.3423154
185	0x3dade1e9	0.084903546
186	0x3e4a9e51	0.19786955
187	0xbd3e5b1e	-0.046473615
188	0x3d539d07	0.051663425
189	0xbe892fd0	-0.2679429
190	0x3e803b7d	0.25045386
191	0x3e6aa61a	0.22914925
192	0xbe9fbff3	-0.31201133
193	0xbe8ee8d1	-0.27912
194	0xbe2d6ecd	-0.16936798
195	0xbbbcb013	-0.0057582944
196	0xbec138ea	-0.37738734
197	0x3e0e9e4e	0.13927576
198	0x3ea5125a	0.32240564
199	0xbe21147a	-0.15730467
200	0x3e488086	0.19580278
201	0xbd67130c	-0.05641465
202	0x3d67205e	0.056427352
203	0x3db4fb77	0.088370256
204	0x3cdb3304	0.026757725
205	0xbf030c17	-0.5119032
206	0x3e5dc87a	0.21658507
207	0xbea1d5c6	-0.3160841
208	0x3daf43d3	0.08557858
209	0x3e4050f9	0.18780889
210	0x3e238225	0.15967615
211	0x3d71b083	0.059006225
212	0x3bd23dd0	0.00641606
213	0xbe79522f	-0.24347757
214	0xbe1e5730	-0.15462947
215	0xbcfa1b6d	-0.030530656
216	0xbead4903	-0.33844766
217	0xbe169e91	-0.14708926
218	0xbeab1824	-0.33416855
219	0xbed1944d	-0.40933457
220	0x3c29e84f	0.010370328
221	0x3e6d5f43	0.2318087
222	0x3e3cb611	0.18428828
223	0xbeb24551	-0.3481851
224	0x3e55de67	0.20885621
225	0xbeaeceaa	-0.34142047
226	0xbe846340	-0.25856972
227	0x3d3c5c8c	0.045986697
228	0xbe4009df	-0.18753766
229	0xbe55990c	-0.20859164
230	0x3cac0c2e	0.021001901
231	0xbe985a50	-0.29756403
232	0xbe4b4c0e	-0.19853231
233	0xbea5fb6e	-0.32418388
234	0x3d3abb6e	0.045588903
235	0xbf06e158	-0.526876
236	0x39e0b3d7	0.000428586
237	0xbdec591a	-0.11540432
238	0xbdfdb8bd	-0.12388752
239	0xbe896ff4	-0.26843226
240	0xbcdcd7e8	-0.02695842
241	0xbe838ee4	-0.25694954
242	0xbea5828a	-0.32326156
243	0x3dfe50ea	0.12417777
244	0xbe1cbd8c	-0.15306681
245	0xbe7e6f56	-0.24847159
246	0xbe105edb	-0.14098684
247	0x3dbd5e3b	0.09246489
248	0x3daa1b6f	0.08306014
249	0x3de89446	0.11356406
250	0x3e087ead	0.13329573
251	0xbdb144be	-0.0865569
252	0x3cefb376	0.029260378
253	0xbf0b4ee1	-0.54417235
254	0x3d86180a	0.06547554
255	0x3e262eb0	0.16228747

model.output.bias f4 [5]
0	0xbd33f986	-0.043939136
1	0x3dc3f39e	0.09567951
2	0xbdfbef80	-0.123015404
3	0xbded48e9	-0.11586172
4	0x3e136d6e	0.14397213
