tmbed/models/cnn/cv_1.pt (torch, 281007 bytes, 12 tensors)

filter_kernel f4 [7]
0.004433048 0.054005582 0.24203622 0.39905027 0.24203622 0.054005582 0.004433048
00000000: 1a43 913b f534 5d3d 58d8 773e 5150 cc3e
00000010: 58d8 773e f534 5d3d 1a43 913b

model.input.norm.bias f4 [1, 64, 1, 1]
-0.15624432 0.1387168 -0.25746128 -0.06378102 -0.0003154486 -0.1909298 -0.108027294 0.09621832
-0.14458302 -0.0005473536 0.032578938 -0.16972409 0.10389175 -0.078491114 -0.05555781 -0.22665244
0.13773914 0.04280809 -0.20506662 -0.19715776 -0.2541672 0.091599785 -0.0141495215 -0.6174916
0.1499339 -0.09597381 -0.06963429 -0.1187755 0.024677854 -0.06195664 -0.21975285 -0.1029169
-0.22704217 -0.3216176 -0.0036108652 -0.09259381 -0.32303625 0.022198956 -0.07793634 0.14339502
0.1194979 0.07567856 0.051848944 -0.05598655 0.03990829 -0.067575574 -0.085896514 -0.19754492
0.03842648 -0.15464889 -0.18565583 -0.13853543 0.13029583 0.07226158 -0.3371025 -0.1814693
0.115464956 -0.10048276 0.05007294 0.025610918 -0.43121225 0.04277093 -0.13267803 -0.18894237
00000000: 83fe 1fbe c70b 0e3e f7d1 83be a09f 82bd
00000010: cb62 a5b9 1a83 43be 6a3d ddbd 1c0e c53d
00000020: 920d 14be 477c 0fba 7e71 053d 27cc 2dbe
00000030: 33c5 d43d f3bf a0bd 9690 63bd 9417 68be
00000040: 7d0b 0d3e 8957 2f3d fcfc 51be b9e3 49be
00000050: 3422 82be ab98 bb3d 65d3 67bc ee13 1ebf
00000060: 4688 193e eb8d c4bd 6c9c 8ebd 9240 f3bd
00000070: 3629 ca3c 3fc6 7dbd e406 61be 18c6 d2bd
00000080: be7d 68be 10ab a4be 44a4 6cbb d3a1 bdbd
00000090: 0265 a5be 96da b53c 169d 9fbd 25d6 123e
000000a0: 51bb f43d 5cfd 9a3d 8f5f 543d 2752 65bd
000000b0: e076 233d 1065 8abd 83ea afbd 3749 4abe
000000c0: 1665 1d3d 475c 1ebe 901c 3ebe 3bdc 0dbe
000000d0: 456c 053e e1fd 933d b398 acbe 17d3 39be
000000e0: e478 ec3d e8c9 cdbd 4819 4d3d fdcd d13c
000000f0: dac7 dcbe 9230 2f3d c0dc 07be 1c7a 41be

model.input.norm.weight f4 [1, 64, 1, 1]
0.95463735 1.0186621 1.082001 1.1024936 0.835345 1.035539 1.022669 1.1410072
0.93588793 0.9408638 1.0379308 1.3015715 1.0564464 1.0850017 1.1227168 1.1594079
0.9783573 1.0104403 1.1390634 1.0945066 1.1542888 1.0195837 1.2027973 2.2185717
1.1771169 0.82748765 1.2051773 0.7312168 1.0600387 1.1260564 0.719598 1.120589
0.9292667 1.2188634 1.1043009 1.2373643 1.1860939 0.87167925 1.0542101 1.2173091
1.0060692 0.99022627 0.95978904 1.1368021 1.0879241 1.3633868 1.3665512 1.0670722
0.88206506 1.0297612 0.89760643 0.9037778 0.97565246 1.1027575 1.2553207 1.1180154
1.0620022 1.041613 0.9226295 0.904204 0.9935261 1.1301459 0.8637995 0.9930682
00000000: 1d63 743f 8563 823f 027f 8a3f 831e 8d3f
00000010: 2bd9 553f 8b8c 843f d1e6 823f 860c 923f
00000020: 5a96 6f3f 73dc 703f ebda 843f e599 a63f
00000030: a339 873f 56e1 8a3f 2fb5 8f3f 7a67 943f
00000040: a075 7a3f 1c56 813f d4cc 913f cb18 8c3f
00000050: bcbf 933f b881 823f 43f5 993f 14fd 0d40
00000060: c4ab 963f 3bd6 533f 4043 9a3f 0631 3b3f
00000070: 59af 873f 9e22 903f 9337 383f 766f 8f3f
00000080: 6ce4 6d3f b703 9c3f bb59 8d3f f461 9e3f
00000090: edd1 973f 5f26 5f3f 5bf0 863f c9d0 9b3f
000000a0: e0c6 803f 787f 7d3f bcb4 753f bb82 913f
000000b0: 1941 8b3f 7583 ae3f 26eb ae3f d295 883f
000000c0: 04cf 613f 37cf 833f 89c9 653f fb5d 673f
000000d0: 5cc4 793f 2827 8d3f 59ae a03f 211b 8f3f
000000e0: b0ef 873f 9353 853f 7231 6c3f ea79 673f
000000f0: ba57 7e3f 9fa8 903f f721 5d3f b839 7e3f

model.input.conv.weight f4 [64, 1024, 1, 1]
-0.017417515 -0.09474821 -0.02665403 -0.1232875 -0.0788196 -0.16627397 -0.11753349 0.009023467
-0.043444954 -0.08388315 -0.031128725 -0.00420459 -0.096469834 0.1372943 -0.13598981 0.07265785
0.13202333 -0.08254226 -0.044386506 -0.1474238 -0.022207972 0.027421288 -0.0032849081 0.20063706
0.016519675 0.013545471 0.14043255 0.09201612 0.019081851 0.044879586 -0.0060102134 -0.04138397
-0.048644327 -0.060840942 -0.032443453 0.034803744 -0.057568137 0.10942099 -0.06066051 -0.056457773
-0.115164235 0.032245323 -0.030333724 0.040153604 -0.07702141 0.11273653 -0.17617354 0.03433486
0.06774436 -0.044448804 0.02199657 0.09184653 0.014732914 0.024657672 -0.10250171 -0.12433043
0.16646977 -0.08480841 -0.17218193 -0.057486016 0.06887453 -0.030170687 0.056662187 -0.04580035
0.05385667 -0.013007008 -0.03614128 0.11778933 -0.031323045 -0.010218459 -0.0026181052 -0.0025327087
0.05288354 -0.15746577 -0.14754185 -0.13496074 0.12948176 0.053562872 -0.005204756 0.030311612
0.021374889 -0.08093822 0.055462446 0.01511124 0.25162852 -0.039004963 -0.035059854 -0.12507544
0.056485157 0.12444881 -0.14844859 -0.053967867 -0.016968435 0.16877237 0.007965278 -0.05883066
0.12150456 0.015302007 0.057516564 -0.054513376 0.058787018 0.13823731 0.13410056 0.1980122
-0.09601581 -0.11110454 0.06729705 -0.081705466 -0.044476986 0.020186113 0.013077935 0.04145853
0.061019994 -0.051543687 -0.17027092 -0.1470748 -0.085398756 -0.07543449 -0.0445662 -0.11462235
-0.05035442 -0.024277875 0.1311481 0.03422661 -0.041023996 0.056822356 0.05458012 -0.09699928
-0.060742974 0.09400838 -0.18015991 -0.05381132 0.06288601 -0.06427264 0.0656114 0.11878884
0.0063153603 0.09844709 0.10241492 0.07864811 -0.11240684 0.1401354 0.03999286 -0.17198041
0.0075482577 0.0823582 0.03561928 -0.122482754 -0.07534255 0.06489599 -0.15809046 -0.01056158
0.0029607145 0.105503984 0.039028782 -0.112736836 -0.06892749 0.0152877625 0.017748822 -0.13287333
0.034690164 -0.095115274 0.14322256 -0.10967589 -0.009859291 0.0031386197 -0.044418447 -0.007356482
-0.114223234 0.07530046 -0.076280735 0.02581561 -0.08169198 0.008780257 0.07374365 0.106841646
-0.09250759 -0.12581737 0.070134185 0.017657038 -0.028774505 -0.011516499 0.0523569 -0.082110934
-0.03287056 0.12266672 -0.025601108 0.024370389 0.0223044 0.061826367 0.12880339 -0.04724319
0.09144878 0.03754869 0.15787233 0.064594 -0.056028705 0.11626132 -0.015192186 0.10354553
0.033870876 0.0007207646 0.031420115 0.052080948 -0.08466658 -0.16991019 0.026650576 -0.058251128
0.053545617 -0.05139947 0.08772791 -0.063745536 0.01518566 -0.09900632 -0.008701448 -0.0019394057
-0.05596711 -0.096602075 -0.007756176 0.008277273 0.016487129 -0.1129401 -0.018887557 -0.028619267
-0.061345365 0.048815843 -0.013960567 0.0033810404 0.08992206 -0.096251674 0.09102117 0.0056988834
0.1537183 -0.10589038 0.04244569 -0.055303544 -0.10763481 -0.02606326 0.005754122 -0.13332206
-0.1259706 0.010701674 0.010279514 -0.032920264 0.075244084 0.011623217 0.07257442 -0.21578842
0.1542883 0.093926564 -0.04672613 0.013250474 0.060903642 0.14904815 -0.11820833 0.11267729
00000000: 2daf 8ebc 590b c2bd 8d59 dabc 287e fcbd
00000010: 2c6c a1bd b943 2abe 66b5 f0bd 2ad7 133c
00000020: 56f3 31bd eeca abbd ab01 ffbc a8c6 89bb
00000030: fa91 c5bd e196 0c3e ea40 0bbe a4cd 943d
00000040: 2031 073e eb0b a9bd a0ce 35bd 44f6 16be
00000050: 7eed b5bc 9ca2 e03c 9d47 57bb cd73 4d3e
00000060: 4554 873c d3ed 5d3c 8dcd 0f3e f372 bc3d
00000070: 8b51 9c3c a8d3 373d 53f1 c4bb 3d82 29bd
00000080: 463f 47bd 5a34 79bd 6de3 04bd 5f8e 0e3d
00000090: 91cc 6bbd 1d18 e03d 2877 78bd 4440 67bd
000000a0: 3adb ebbd ac13 043d 6e7e f8bc 1b78 243d
000000b0: 67bd 9dbd 69e2 e63d d666 34be b6a2 0c3d
000000c0: 8ebd 8a3d f30f 36bd 2732 b43c 091a bc3d
000000d0: 5262 713c e3fe c93c 6bec d1bd f4a0 febd
000000e0: 0d77 2a3e 08b0 adbd 7650 30be 7576 6bbd
000000f0: 170e 8d3d 8428 f7bc 9c16 683d 2699 3bbd
00000100: d098 5c3d 581b 55bc e108 14bd 883b f13d
00000110: 984c 00bd 536b 27bc 8494 2bbb cdfb 25bb
00000120: 699c 583d b53e 21be 3615 17be 2633 0abe
00000130: de96 043e be64 5b3d a88c aabb 0f50 f83c
00000140: 641a af3c f0c2 a5bd 972c 633d 2295 773c
00000150: 74d5 803e abc3 1fbd ec9a 0fbd c713 00be
00000160: fb5c 673d 05df fe3d e802 18be 690d 5dbd
00000170: 6301 8bbc aad2 2c3e cc80 023c 6bf8 70bd
00000180: 62d7 f83d 45b5 7a3c 7d96 6b3d 6b49 5fbd
00000190: a8ca 703d 158e 0d3e a851 093e b6c3 4a3e
000001a0: f0a3 c4bd c78a e3bd 09d3 893d 3255 a7bd
000001b0: 802d 36bd 595d a53c d644 563c 6bd0 293d
000001c0: 1af0 793d 791f 53bd 805b 2ebe c79a 16be
000001d0: 8be5 aebd 667d 9abd 0c8b 36bd 1fbf eabd
000001e0: 7040 4ebd 65e2 c6bc b04b 063e 3431 0c3d
000001f0: c708 28bd 8fbe 683d 678f 5f3d 8fa7 c6bd
00000200: a0cd 78bd 7787 c03d d77b 38be 4269 5cbd
00000210: 61ca 803d 60a1 83bd 455f 863d 9047 f33d
00000220: 15f1 ce3b a19e c93d eabe d13d 4312 a13d
00000230: 8f35 e6bd a87f 0f3e 8ecf 233d a21b 30be
00000240: 6057 f73b 6aab a83d 86e5 113d 3dd8 fabd
00000250: 324d 9abd 30e8 843d 77e2 21be 7a0a 2dbc
00000260: 8c08 423b 7912 d83d a5dc 1f3d 92e2 e6bd
00000270: db29 8dbd 8679 7a3c fa65 913c f20f 08be
00000280: 4617 0e3d cccb c2bd efa8 123e c19d e0bd
00000290: dd88 21bc 4db1 4d3b 1ef0 35bd a50e f1bb
000002a0: dfed e9bd 2137 9a3d 1339 9cbd 427b d33c
000002b0: 204e a7bd 11db 0f3c e906 973d cbcf da3d
000002c0: 9f74 bdbd 45d6 00be 83a2 8f3d 7ea5 903c
000002d0: 83b8 ebbc b3af 3cbc 3074 563d c729 a8bd
000002e0: 48a3 06bd b038 fb3d 6ab9 d1bc 69a4 c73c
000002f0: b8b7 b63c a53d 7d3d 09e5 033e 1382 41bd
00000300: 7f49 bb3d a8cc 193d 49a9 213e dc49 843d
00000310: 5b7e 65bd 6a1a ee3d a6e8 78bc ae0f d43d
00000320: 30bc 0a3d b2f1 3c3a 61b2 003d d552 553d
00000330: ac65 adbd f0fc 2dbe 4f52 da3c bc98 6ebd
00000340: a652 5b3d 4088 52bd b1aa b33d 058d 82bd
00000350: 46cd 783c d3c3 cabd 8590 0ebc a833 feba
00000360: c53d 65bd 4fd7 c5bd 8527 febb 669d 073c
00000370: 0410 873c 244d e7bd 14ba 9abc f472 eabc
00000380: 4745 7bbd 1ff3 473d ddba 64bc 7294 5d3b
00000390: 0f29 b83d 991f c5bd 4f69 ba3d b3bd ba3b
000003a0: 5468 1d3e 0edd d8bd 88db 2d3d f885 62bd
000003b0: a46f dcbd 9e82 d5bc 138d bc3b 9485 08be
000003c0: 70fe 00be 1356 2f3c 686b 283c 66d7 06bd
000003d0: 9219 9a3d 4e6f 3e3c e6a1 943d a4f7 5cbe
000003e0: c1fd 1d3e 925c c03d e663 3fbd 8418 593c
000003f0: 1976 793d 14a0 183e 3517 f2bd 5ac3 e63d

model.dwc1.norm.bias f4 [1, 64, 1, 1]
0.5604566 -0.28905612 -0.08616254 -0.20243126 -0.3341695 0.44034734 -0.25514767 -0.06405844
-0.121493526 -0.36114737 -0.1460812 -0.1533797 -0.18148032 -0.1706057 -0.060343597 -0.25447893
-0.20683627 -0.23428214 -0.16383831 0.5508778 -0.060240384 -0.2835759 0.6059174 -0.08791637
-0.1706609 -0.34147888 -0.028860766 -0.55339104 -0.23362081 0.60261256 -0.41077313 -0.06974168
-0.13727432 -0.060608007 -0.05175054 0.37417284 -0.060472604 -0.39070317 -0.070586525 -0.48309812
-0.26132077 -0.32217756 -0.2769827 -0.112414114 -0.056566924 -0.040097885 -0.11163001 -0.058541905
-0.053305164 -0.056508396 -0.05994451 -0.25804406 -0.30218467 -0.063468486 -0.044328384 -0.1877698
-0.41181314 -0.048879825 -0.26274028 -0.37636998 -0.19655976 -0.40909642 -0.17918466 -0.042051435
00000000: 157a 0f3f 2aff 93be fc75 b0bd 244a 4fbe
00000010: 4418 abbe 3575 e13e b7a2 82be 1231 83bd
00000020: 99d1 f8bd 4fe8 b8be 4f96 15be 910f 1dbe
00000030: fad5 39be 43b3 2ebe d92a 77bd 104b 82be
00000040: e3cc 53be a8e7 6fbe 3bc5 27be 5406 0d3f
00000050: 9fbe 76bd dc30 91be 671d 1b3f 7f0d b4bd
00000060: bbc1 2ebe 52d6 aebe 6a6d ecbc 09ab 0dbf
00000070: 4b3a 6fbe d144 1a3f db50 d2be bad4 8ebd
00000080: a491 0cbe 1a40 78bd 60f8 53bd 9593 bf3e
00000090: 1fb2 77bd 3f0a c8be ab8f 90bd a358 f7be
000000a0: d6cb 85be 75f4 a4be add0 8dbe 5f39 e6bd
000000b0: b8b2 67bd ae3d 24bd 469e e4bd a3c9 6fbd
000000c0: 8456 5abd 5975 67bd 6088 75bd 5a1e 84be
000000d0: f3b7 9abe c4fb 81bd ae91 35bd ba46 40be
000000e0: 2cd9 d2be 3636 48bd e585 86be 91b3 c0be
000000f0: f646 49be 1675 d1be 2f7c 37be 203e 2cbd

model.dwc1.norm.weight f4 [1, 64, 1, 1]
1.3964393 1.0167661 1.3056728 1.7476248 1.5316821 1.3086318 1.0438776 0.9343193
0.9181587 1.0764714 0.93746084 0.8902435 0.97981155 0.9607383 0.94883096 0.89216983
1.4717578 1.0858475 1.187209 1.6736867 0.93992907 1.3631222 1.9906427 0.9746833
0.86184907 0.9957572 0.94220454 0.8841078 1.3282309 1.9170285 0.9260571 0.9380886
1.2221248 0.9395966 0.9401659 1.1032989 0.9395295 1.5866342 1.2617341 1.1397705
1.593582 1.299241 1.2684331 0.94125724 0.93919486 0.90491825 0.8709606 0.9394326
0.9472986 0.9400815 0.9398421 1.0089092 1.325816 0.839479 1.1850196 1.3036462
0.9623292 0.94267774 1.0139743 1.0047613 0.9572889 1.1177222 0.9335975 0.9398139
00000000: 86be b23f 6425 823f 4920 a73f 2bb2 df3f
00000010: 290e c43f 3f81 a73f c89d 853f 8d2f 6f3f
00000020: 730c 6b3f d1c9 893f 6ffd 6f3f ffe6 633f
00000030: eed4 7a3f f2f2 753f 96e6 723f 3e65 643f
00000040: 8f62 bc3f 0dfd 8a3f 77f6 973f 5e3b d63f
00000050: 319f 703f ca7a ae3f 61cd fe3f d884 793f
00000060: 24a2 5c3f f2e9 7e3f 5134 713f e454 623f
00000070: 7803 aa3f 3161 f53f 1412 6d3f 9326 703f
00000080: 966e 9c3f 6789 703f b6ae 703f e638 8d3f
00000090: 0185 703f d416 cb3f 8180 a13f 00e4 913f
000000a0: 7ffa cb3f 874d a63f 045c a23f 3cf6 703f
000000b0: 136f 703f b9a8 673f 46f7 5e3f a87e 703f
000000c0: 2982 723f 2ea9 703f 7e99 703f f023 813f
000000d0: 57b4 a93f 19e8 563f b9ae 973f e1dd a63f
000000e0: 355b 763f 5453 713f e9c9 813f 059c 803f
000000f0: e310 753f 8511 8f3f 3f00 6f3f a597 703f

model.dwc1.conv.weight f4 [64, 1, 9, 1]
-0.04782876 -0.0402351 -0.047992967 -0.036718044 -0.039189704 -0.040238563 -0.04495305 -0.043974675
-0.06270195 0.022771982 0.024365464 0.035569634 0.045444768 0.055785622 0.046155427 0.030773537
0.019600444 0.023116473 0.13508046 0.08271711 0.06931682 0.06799287 0.0798189 0.036145646
0.086878456 0.09720393 0.13750964 0.1090193 0.070785165 0.059306473 0.054446056 0.038727053
0.03855573 0.066598 0.07344166 0.10880188 0.07617822 0.0665297 0.06543024 0.051619235
0.061361715 0.049112167 0.06582115 0.058288842 0.095537275 0.119287126 0.063927196 0.05619845
0.020478187 0.0023267912 0.00956062 0.045533095 0.06613182 0.11475974 0.04223278 0.029336935
0.02797454 0.042069487 0.027550103 0.017973818 0.002903592 -0.0050617876 -0.0014110736 0.0033315008
-0.002328412 0.007288412 -0.0031678646 -0.005694897 -0.017370725 0.011017778 -0.011266256 -0.00089610205
0.0057029915 0.003296261 0.0027144486 0.0032299955 0.0048228684 0.0025456515 0.0071805515 0.0001256651
0.005728592 0.057518873 0.021222105 0.06648854 0.06979981 0.10654633 0.066998534 0.031178413
0.059712913 0.026836997 -0.007814791 -0.0071553034 -0.009696899 -0.0037024855 0.0147776855 0.008657825
0.009458552 -0.009179075 -0.008222234 0.00076769746 -0.00423971 0.005087324 -0.004179747 -0.00533221
0.020529397 -0.0031323584 -0.0011304626 -0.0046989224 -0.0037539315 0.013064505 0.0037744935 -0.010089942
-0.011284119 -0.0045662704 -0.008676858 0.0055592316 -0.0010742175 -0.013968611 0.011862874 0.010217176
-0.022573737 0.018151611 -0.009820973 0.005482692 -0.015450421 -0.012791741 0.0061099883 -0.0055230693
-0.0073752585 -0.0069432664 0.012338114 0.010451822 0.00035400962 -0.009767488 -0.0156157315 -0.01139728
0.0018546169 -0.0031424537 -0.0039558257 0.0060993778 -0.0013218364 -0.018729793 -0.011731609 -0.021769522
0.084074765 0.074282385 0.068818115 0.04931239 0.053205404 0.05387626 0.04907589 0.06458013
0.08339087 0.012545848 0.0105586145 -0.006835596 0.003648934 -0.026939936 0.007144096 -0.0043046055
-0.001944329 -0.006475599 0.13903368 0.15014705 0.141889 0.094263166 0.06253666 0.07422411
0.09260145 0.06629289 0.024536438 -0.115430325 -0.088737614 -0.08430291 -0.052004796 -0.028419053
-0.04289848 -0.060456578 -0.071883544 -0.07655209 -0.008188717 -0.014850573 0.0047967606 0.0061390097
-0.008371189 0.0010252233 0.0050827446 -0.0046058157 -0.0064252103 0.08081598 0.052502472 0.037122592
0.050165612 0.04072393 0.03497818 0.045594566 0.05244659 0.08492228 -0.15705176 -0.16032577
-0.17736888 -0.18725899 -0.18650638 -0.15092273 -0.11467112 -0.1462684 -0.14019506 -0.5406471
-0.5411455 -0.55363613 -0.54196525 -0.538263 -0.5621909 -0.5676847 -0.5627342 -0.5333787
0.004647763 -0.007839306 -0.008033865 -0.00076609035 -0.003950004 0.008423467 -0.0023311588 -0.0051718773
-0.0042963726 -0.024077002 -0.01080083 -0.031466972 -0.02701576 -0.033155855 -0.033557296 -0.028966032
-0.03707628 -0.024072956 -0.001819796 -0.0012895431 0.013279443 0.010915284 0.006511958 -0.004767335
0.0093395645 -0.008975326 0.010514961 -0.01933818 -0.036666118 -0.00079982524 0.009041026 -0.01322775
-0.0013505217 -0.016703237 -0.025790682 -0.014687418 0.07863875 0.06231039 0.055923045 0.056936786
00000000: 17e8 43bd 8fcd 24bd 4694 44bd a965 16bd
00000010: 6285 20bd 31d1 24bd b020 38bd ca1e 34bd
00000020: e169 80bd 4f8c ba3c 159a c73c 77b1 113d
00000030: 4b24 3a3d 777f 643d 790d 3d3d c918 fc3c
00000040: 1c91 a03c c25e bd3c 8852 0a3e 9767 a93d
00000050: faf5 8d3d d93f 8b3d 1778 a33d 750d 143d
00000060: 55ed b13d db12 c73d 54cf 0c3e 8345 df3d
00000070: d0f7 903d 58eb 723d d402 5f3d 42a0 1e3d
00000080: 9dec 1d3d 8864 883d 9568 963d 85d3 de3d
00000090: 5403 9c3d b940 883d 4a00 863d b16e 533d
000000a0: 6c56 7b3d d729 493d 3dcd 863d 48c0 6e3d
000000b0: 0ca9 c33d cf4c f43d 43ec 823d 5930 663d
000000c0: dfc1 a73c 147d 183b 26a4 1c3c e980 3a3d
000000d0: 1f70 873d 2807 eb3d 48fc 2c3d 0354 f03c
000000e0: dd2a e53c 0e51 2c3d c1b0 e13c d43d 933c
000000f0: 314a 3e3b 5add a5bb c6f3 b8ba 4f55 5a3b
00000100: 4598 18bb a2d3 ee3b f39b 4fbb 429c babb
00000110: 0d4d 8ebc e983 343c 1a96 38bc 64e8 6aba
00000120: 29e0 ba3b 1506 583b e4e4 313b 55ae 533b
00000130: 2709 9e3b f2d4 263b d54a eb3b f8c4 0339
00000140: eab6 bb3b e998 6b3d fbd9 ad3c 252b 883d
00000150: 34f3 8e3d f634 da3d 8736 893d df69 ff3c
00000160: 8795 743d 43d9 db3c 9c09 00bc 0977 eabb
00000170: bedf 1ebc 66a5 72bb 1b1e 723c 8dd9 0d3c
00000180: 0bf8 1a3c d563 16bc 8db6 06bc 4e3f 493a
00000190: 44ed 8abb 91b3 a63b 42f6 88bb d2b9 aebb
000001a0: 442d a83c 4148 4dbb 082c 94ba 6bf9 99bb
000001b0: 8504 76bb 810c 563c 7e5d 773b 4950 25bc
000001c0: 07e1 38bc a7a0 95bb 6129 0ebc 372a b63b
000001d0: c2cc 8cba 9adc 64bc 805c 423c f165 273c
000001e0: 8fec b8bc b0b2 943c 25e8 20bc 27a8 b33b
000001f0: c323 7dbc 7394 51bc 4c36 c83b ddfa b4bb
00000200: 27ac f1bb 5784 e3bb cd25 4a3c 1e3e 2b3c
00000210: 5e9a b939 d007 20bc 20d9 7fbc a8bb 3abc
00000220: 9e16 f33a a0f1 4dbb df9f 81bb 4add c73b
00000230: 7841 adba 396f 99bc ef35 40bc ff55 b2bc
00000240: 642f ac3d 5d21 983d 83f0 8c3d cafb 493d
00000250: e9ed 593d 5aad 5c3d cd03 493d 9642 843d
00000260: d5c8 aa3d 1a8d 4d3c 0afe 2c3c 23fd dfbb
00000270: f422 6f3b 24b1 dcbc 0519 ea3b a60d 8dbb
00000280: dbd8 feba 4331 d4bb d85e 0e3e 26c0 193e
00000290: 5a4b 113e 0c0d c13d 3813 803d cf02 983d
000002a0: d4a5 bd3d 91c4 873d a400 c93c bc66 ecbd
000002b0: 11bc b5bd 01a7 acbd fb02 55bd 13cf e8bc
000002c0: 51b6 2fbd 51a1 77bd ae37 93bd 58c7 9cbd
000002d0: f829 06bc d14f 73bc 252e 9d3b bf29 c93b
000002e0: 5027 09bc c960 863a 278d a63b 62ec 96bb
000002f0: 928a d2bb d982 a53d d50c 573d dc0d 183d
00000300: 757a 4d3d 23ce 263d 4845 0f3d 5ec1 3a3d
00000310: 3cd2 563d bbeb ad3d 2dd2 20be 702c 24be
00000320: 30a0 35be d2c0 3fbe 87fb 3ebe 7d8b 1abe
00000330: b1d8 eabd 62c7 15be 4b8f 0fbe d967 0abf
00000340: 8388 0abf 19bb 0dbf 3cbe 0abf 9bcb 09bf
00000350: beeb 0fbf c953 11bf 590f 10bf 828b 08bf
00000360: 434c 983b 6f70 00bc 79a0 03bc 74d3 48ba
00000370: 096f 81bb 9502 0a3c 5bc6 18bb da78 a9bb
00000380: 96c8 8cbb 223d c5bc f7f5 30bc 83e3 00bd
00000390: 2850 ddbc 6fce 07bd 6073 09bd 2c4a edbc
000003a0: 4cdd 17bd a634 c5bc 3986 eeba e305 a9ba
000003b0: 0592 593c 05d6 323c 4362 d53b 4e37 9cbb
000003c0: f904 193c 3f0d 13bc f146 2c3c 1a6b 9ebc
000003d0: 362f 16bd 5dab 51ba d020 143c 34b9 58bc
000003e0: fd03 b1ba 3ad5 88bc fb46 d3bc 7fa3 70bc
000003f0: 5a0d a13d 2e39 7f3d 900f 653d 8c36 693d

model.dwc2.norm.bias f4 [1, 64, 1, 1]
-0.29177222 -0.06469877 -0.060649432 -0.2008867 -0.16197951 -0.06736768 -0.0599856 -0.18244615
-0.048177406 -0.14175028 -0.08840826 -0.060186237 -0.03937517 -0.060209874 -0.045416787 -0.060204457
-0.29660544 -0.06067786 -0.027289525 -0.0596596 -0.06044196 -0.11900102 0.120209895 -0.14784299
-0.24791178 -0.24403583 -0.32214186 -0.12897629 -0.059241813 -0.085107155 0.0017979363 -0.20504682
-0.16193329 -0.055284012 -0.0601147 0.13702837 -0.06102937 -0.3327927 -0.20549628 -0.07005861
-0.19534911 -0.06516056 -0.06363735 -0.06105313 -0.18110399 0.0933713 0.051835116 -0.046162255
-0.2106047 -0.1402666 -0.09690607 -0.060801014 -0.09644844 -0.35445705 -0.057404254 -0.06024729
-0.28734666 -0.06122139 -0.3442481 -0.06136987 -0.0723059 -0.054527417 -0.058368616 -0.033677563
00000000: 2b63 95be ca80 84bd 8a6b 78bd 3eb5 4dbe
00000010: f5dd 25be 11f8 89bd 76b3 75bd 2ad3 3abe
00000020: ac55 45bd fc26 11be 640f b5bd d885 76bd
00000030: dc47 21bd a19e 76bd f406 3abd f398 76bd
00000040: abdc 97be 5989 78bd 488e dfbc a05d 74bd
00000050: fd91 77bd cfb6 f3bd 9b30 f63d 2764 17be
00000060: 96dc 7dbe 87e4 79be c7ef a4be 5c12 04be
00000070: 8ba7 72bd a94c aebd bba8 eb3a cbf7 51be
00000080: d7d1 25be 7d71 62bd d53a 76bd 2a51 0c3e
00000090: eff9 79bd ce63 aabe 9e6d 52be e37a 8fbd
000000a0: 9909 48be e672 85bd 4d54 82bd d912 7abd
000000b0: 5373 39be 7439 bf3d 0f51 543d a214 3dbd
000000c0: c2a8 57be 0ca2 0fbe b176 c6bd 7c0a 79bd
000000d0: c286 c5bd 657b b5be b920 6bbd ddc5 76bd
000000e0: 1a1f 93be 48c3 7abd 4941 b0be f95e 7bbd
000000f0: 1e15 94bd 2458 5fbd ee13 6fbd 7cf1 09bd

model.dwc2.norm.weight f4 [1, 64, 1, 1]
1.0566263 0.99062574 0.9400059 1.7815686 0.94459033 0.9390251 0.94005364 0.7167468
1.0498691 0.97140247 0.93395084 0.9398777 0.9436456 0.93983686 0.94405824 0.93989474
1.1987802 0.93974966 1.1084143 0.9400303 0.9398088 1.4193351 1.0288154 0.20124096
1.0934441 0.921881 0.94897413 0.9212489 0.9404025 0.5668209 0.90102035 1.4582372
0.8596509 0.942287 0.9399248 0.9317935 0.9397303 1.386792 1.5653739 0.9270826
1.5982883 0.937622 0.93917054 0.9395577 1.5462586 1.0886258 1.2714065 1.848199
1.6717424 1.0995862 0.9900593 0.93971574 1.1607412 1.075658 0.94066423 0.9398681
0.7577611 0.939669 0.7094513 0.9395188 0.9358838 1.2300134 0.94027054 0.9640489
00000000: 883f 873f a699 7d3f 3aa4 703f 710a e43f
00000010: acd0 713f f363 703f 5ba7 703f b87c 373f
00000020: 1c62 863f d5ad 783f 6717 6f3f d39b 703f
00000030: c292 713f 2699 703f cdad 713f f19c 703f
00000040: a171 993f 6f93 703f 85e0 8d3f d3a5 703f
00000050: 4f97 703f c6ac b53f 39b0 833f 1c12 4e3e
00000060: faf5 8b3f 6500 6c3f f8ef 723f f8d6 6b3f
00000070: 38be 703f 2d1b 113f 45a9 663f 84a7 ba3f
00000080: 1512 5c3f b939 713f e99e 703f 058a 6e3f
00000090: 2a92 703f 6682 b13f 2c5e c83f 4955 6d3f
000000a0: b694 cc3f ff07 703f 7b6d 703f da86 703f
000000b0: cdeb c53f 1758 8b3f 73bd a23f c991 ec3f
000000c0: a8fb d53f 3ebf 8c3f 8774 7d3f 3691 703f
000000d0: 2b93 943f 29af 893f 5fcf 703f 329b 703f
000000e0: a2fc 413f 268e 703f 9a9e 353f 4e84 703f
000000f0: 1596 6f3f 1471 9d3f 92b5 703f e9cb 763f

model.dwc2.conv.weight f4 [64, 1, 21, 1]
-0.028939547 -0.038635176 -0.03648479 -0.04148129 -0.03504962 -0.03527435 -0.038698643 -0.03855019
-0.019997686 -0.014650606 -0.014256623 -0.02902158 -0.03266151 -0.04585034 -0.026414407 -0.035624664
-0.0552565 -0.033544496 -0.03417392 -0.03549194 -0.03315281 -0.017158723 -0.020540185 -0.0024173427
-0.018773276 0.0008869118 -0.00044376342 -0.0006413998 -0.014071532 -0.0021395208 -0.012031739 0.00082365575
-0.012419956 0.0033447514 -0.00037294134 -2.756087e-05 -0.0240015 0.00070828956 -0.0039977278 -0.007095021
-0.010483613 -0.027047532 -0.032237586 -0.040865052 -0.03543876 -0.029448552 -0.022294747 -0.029013133
-0.031653576 -0.024963802 -0.028504116 -0.015134719 -0.029313171 -0.025006458 -0.025874607 -0.023936048
-0.027803732 -0.019469095 -0.025885299 -0.019518713 -0.022833874 -0.028015573 -0.031915694 0.11515655
0.08780783 0.06804509 0.0715175 0.059940986 0.049933102 0.03420784 0.031191628 0.03044324
0.023231613 0.019352606 0.020303339 0.035898626 0.03174983 0.041305337 0.049635958 0.05984329
0.069038905 0.06370632 0.073599696 0.10407784 -0.011593116 -0.020389335 -0.006276435 -0.01974963
-0.032250848 -0.016578041 -0.0056259343 -0.014639655 -0.010414329 -0.0063696364 -0.023043955 -0.02754256
-0.024060965 -0.015566864 -0.028466346 -0.02518043 -0.006471575 -0.02365733 -0.030014196 -0.028978413
-0.022725599 -0.0026671046 0.0043750345 0.008952272 0.0107806865 0.004272316 -0.0013765601 0.0004135511
-0.004480963 0.0008713082 -0.0015720684 0.0021446047 -0.001694788 -0.00013037329 0.010532781 -0.0029799738
-0.0051355218 0.008044059 0.004815377 -0.0012015976 0.0034873534 0.007993821 -0.007975414 -0.011559049
-0.011817398 -0.010728413 -0.00019923596 -0.012451459 -0.011178461 -0.008273622 -0.0021795894 0.000498623
-0.011998022 -0.0068020774 -0.0011162865 -0.0062697586 -0.006697688 -0.010476228 -0.011315673 -0.0049101557
-0.006358474 -0.01371206 -0.009867622 -0.013693026 -0.00086941983 -0.011709053 -0.012685055 -0.009091404
-0.0053883884 -0.004776039 0.0051200003 0.004990204 -0.009571487 -0.0018896873 -0.006489147 -0.0006103584
-0.01048147 -0.005710038 -0.0043070945 -0.015792595 -0.008132255 -0.011622176 -0.012878514 -0.008862764
0.08188329 0.08947692 0.08693871 0.10969261 0.12425627 0.13619839 0.122058064 0.1305089
0.1393578 0.10969163 0.11472413 0.12645432 0.13897426 0.10670472 0.07931331 0.071813814
0.041727163 0.032405853 0.039759725 0.04868495 0.06822813 -0.002087432 -0.012453702 -0.007231323
-0.007104728 -0.017086405 -0.018226195 -0.010641294 -0.013109774 -0.012329778 -0.01562528 -0.009324472
-0.0070638172 -0.012851939 -0.00557065 0.002019084 -0.021942096 -0.01386462 -0.019893972 -0.0002826711
-0.006745285 -0.022911215 0.00051228027 -0.028113158 -0.0060043484 0.0009186171 -0.011465989 -0.028221432
-0.017139396 -0.012856983 -0.00487192 -0.002238408 -0.027901137 -0.018900417 0.0015623255 -0.0036604945
-0.019923309 -0.00061908434 -0.018721372 -0.022958357 -0.0047723725 -0.019332409 -0.011123378 -0.025991695
-0.019333173 -0.022363218 -0.0043250215 -0.025289522 -0.0050214333 -0.017865242 -0.007059232 -0.013454199
-0.011999388 -4.4007076e-05 -0.0031931337 -0.014308862 -0.023861106 -0.010403219 -0.027015157 -0.01710446
-0.01915852 -0.009553012 -0.0034675056 -0.028988427 -0.01902038 -0.0066872514 0.0072843092 -0.019519234
00000000: a112 edbc eb3f 1ebd 1371 15bd 49e8 29bd
00000010: 3190 0fbd d67b 10bd 7882 1ebd cee6 1dbd
00000020: 30d2 a3bc 1809 70bc 9c94 69bc aabe edbc
00000030: 13c8 05bd 91cd 3bbd 0763 d8bc 2beb 11bd
00000040: a454 62bd f465 09bd f4f9 0bbd ff5f 11bd
00000050: 3ecb 07bd 7390 8cbc e443 a8bc 486c 1ebb
00000060: 6aca 99bc a57f 683a eba8 e8b9 9d23 28ba
00000070: 488c 66bc 3437 0cbb c520 45bc 9aea 573a
00000080: 127d 4bbc 9e33 5b3b 5787 c3b9 8532 e7b7
00000090: cb9e c4bc 82ac 393a 5fff 82bb 5a7d e8bb
000000a0: 76c3 2bbc c992 ddbc 8f0b 04bd 1d62 27bd
000000b0: 3c28 11bd 173e f1bc 79a3 b6bc f3ac edbc
000000c0: 2ea7 01bd e380 ccbc 7781 e9bc 9df7 77bc
000000d0: 2d22 f0bc 58da ccbc fcf6 d3bc 8815 c4bc
000000e0: a7c4 e3bc a77d 9fbc 680d d4bc b5e5 9fbc
000000f0: 1b0e bbbc ea80 e5bc 08ba 02bd 33d7 eb3d
00000100: 97d4 b33d 395b 8b3d c477 923d ae84 753d
00000110: a786 4c3d 851d 0c3d 9685 ff3c 1a64 f93c
00000120: 3950 be3c 5b89 9e3c 3053 a63c 700a 133d
00000130: 1c0c 023d c92f 293d 134f 4b3d 3d1e 753d
00000140: 4564 8d3d 7678 823d 70bb 963d c326 d53d
00000150: 0ef1 3dbc 8907 a7bc 8eaa cdbb fac9 a1bc
00000160: 7719 04bd acce 87bc c259 b8bb 2adb 6fbc
00000170: dda0 2abc 62b8 d0bb adc6 bcbc efa0 e1bc
00000180: 801b c5bc 290c 7fbc 4132 e9bc 3047 cebc
00000190: 810f d4bb 04cd c1bc 55e0 f5bc 2364 edbc
000001a0: 092b babc 97ca 2ebb 735c 8f3b 8dac 123c
000001b0: 7aa1 303c c9fe 8b3b b16d b4ba e4d1 d839
000001c0: 0bd5 92bb 8168 643a dd0d ceba 7f8c 0c3b
000001d0: a623 deba d0b4 08b9 af91 2c3c aa4b 43bb
000001e0: e147 a8bb 3bcb 033c 4fca 9d3b ed7e 9dba
000001f0: 158c 643b 84f8 023c 50ab 02bc 2a62 3dbc
00000200: c29d 41bc 3ac6 2fbc ffe9 50b9 3401 4cbc
00000210: dd25 37bc 168e 07bc 71d7 0ebb 06b6 023a
00000220: 5a93 44bc f6e3 debb 5c50 92ba 8c72 cdbb
00000230: 4778 dbbb 7ca4 2bbc 5f65 39bc 5fe5 a0bb
00000240: bf5a d0bb 8ca8 60bc ceab 21bc b758 60bc
00000250: c7e9 63ba 54d7 3fbc fad4 4fbc 1df4 14bc
00000260: 1491 b0bb 5280 9cbb adc5 a73b dd84 a33b
00000270: bad1 1cbc 62af f7ba e9a2 d4bb 7500 20ba
00000280: 79ba 2bbc 451b bbbb 8722 8dbb 795f 81bc
00000290: 263d 05bc f06a 3ebc 6700 53bc 2035 11bc
000002a0: 6db2 a73d ad3f b73d ec0c b23d 85a6 e03d
000002b0: 127a fe3d 9777 0b3e 94f9 f93d 20a4 053e
000002c0: d0b3 0e3e 01a6 e03d 7cf4 ea3d 3e7d 013e
000002d0: 454f 0e3e 0188 da3d 046f a23d 1f13 933d
000002e0: 1aea 2a3d 00bc 043d 18db 223d df69 473d
000002f0: 31bb 8b3d 4ccd 08bb 9d0a 4cbc bcf4 ecbb
00000300: c7ce e8bb caf8 8bbc 1a4f 95bc d258 2ebc
00000310: 61ca 56bc d602 4abc 9600 80bc acc5 18bc
00000320: 9877 e7bb f090 52bc 008a b6bb 9c52 043b
00000330: e9bf b3bc 6e28 63bc aff8 a2bc 7933 94b9
00000340: 8d07 ddbb 4db0 bbbc 8c4a 063a 914d e6bc
00000350: 20c0 c4bb 5acf 703a d8db 3bbc a230 e7bc
00000360: eb67 8cbc 18a6 52bc a1a4 9fbb 41b2 12bb
00000370: ed90 e4bc 0cd5 9abc f2c6 cc3a e8e4 6fbb
00000380: 3536 a3bc 0c4a 22ba 905d 99bc 2a13 bcbc
00000390: 9061 9cbb 005f 9ebc d43e 36bc 89ec d4bc
000003a0: 9a60 9ebc 1133 b7bc e9b8 8dbb f92b cfbc
000003b0: d68a a4bb 215a 92bc 2151 e7bb 006f 5cbc
000003c0: 1599 44bc 3d94 38b8 e543 51bb b86f 6abc
000003d0: 5e78 c3bc 4372 2abc e44e ddbc a71e 8cbc
000003e0: 54f2 9cbc 3d84 1cbc 173f 63bb 2379 edbc
000003f0: a1d0 9bbc bb20 dbbb 37b1 ee3b cde6 9fbc

model.output.weight f4 [5, 192, 1, 1]
0.1651257 -0.28724828 -0.1476573 -0.17395183 -0.19501941 -0.16520041 -0.28167617 -0.5161072
-0.43114913 -0.22146879 -0.19691305 -0.21269241 -0.3978023 -0.1714246 -0.53681 0.25339815
-0.5037587 -0.31024313 0.24955 -0.24421193 0.06472607 -0.04981508 -0.18663336 -0.015411617
-0.412842 0.26009768 -0.27161685 -0.19670077 -0.2083613 -0.2832395 -0.15087943 0.16728656
-0.24730222 0.10791153 -0.4845962 -0.20421423 0.2893519 -0.12212071 -0.2691987 0.02398199
-0.19816972 -0.16122241 -0.22122607 -0.1894196 -0.49108404 -0.30566216 -0.33972502 0.19742039
-0.17602731 0.009199537 -0.023657305 -0.17763244 -0.40166092 0.110211864 0.26331174 0.103106745
-0.29532653 0.17531331 -0.46518344 -0.039239276 -0.32583618 -0.27774754 -0.14969523 -0.29754704
-0.52327293 -0.077498995 0.014255929 -0.22917691 -0.22182345 0.057950716 -0.1416281 0.020227918
-0.027435023 -0.4029181 -0.03782577 -0.07853842 -0.07854956 -0.03102464 -0.045610532 0.012224947
-0.18429488 -0.005962029 0.116517626 0.09918018 0.0002471573 -0.21091534 0.26741973 -0.0015819853
-0.024141906 0.0010076233 -0.038981542 -0.23858559 -0.08536326 0.110463105 -0.019553162 -0.035428498
-0.5045915 0.0011092668 0.011341211 0.0072972523 0.00027517104 -0.07877015 -0.057484787 0.0062934617
-0.12806143 -0.11692141 -0.15169068 -0.045545124 -0.006877404 -0.0104908645 -0.025050327 -0.007841754
-0.00019209067 -0.0027833567 -0.0030789303 -0.0038320683 -0.081382945 -0.016120706 0.20993833 0.11109562
-0.21174134 -0.027300233 -0.42705315 -0.11327606 -0.30606228 -0.24596438 0.005022675 0.013529485
0.13077773 -0.19520326 -0.0015465631 -0.0716195 -0.032006655 -0.0047255484 0.0028497907 -0.053546246
-0.69628066 -0.049054425 -0.035933424 0.009993623 -0.030444002 -0.0089724725 -0.009519775 0.0075581265
-0.06654345 0.019363232 0.11296761 0.007695716 -0.01871593 -0.0646657 0.013676127 -0.0963712
-0.13004707 0.06663101 -0.06384112 -0.0053796596 -0.0107383365 -0.60924417 -0.008703082 0.18470103
-0.09680914 -0.0008871832 -0.0021071166 -0.117039174 0.0017841002 -0.1136986 -0.089829996 -0.022876892
-0.1602729 0.02102175 -0.036125332 0.018154394 -0.2378396 -0.20749941 -0.3011386 -0.06498843
-0.21672457 -0.06743296 0.09072362 -0.01232272 -0.026597543 -0.0401441 -0.034323018 -0.023217864
-0.08960155 0.01491051 -0.09186145 -0.01798057 0.005679645 -0.21270567 0.016089264 -0.01952891
-0.3774988 -0.4003889 -0.16313641 -0.11597833 -0.13774252 0.070144795 -0.406743 -0.3073476
0.123204224 0.10663573 -0.22099653 0.085221834 -0.009075833 -0.5544595 0.15106767 -0.38288888
0.05455243 0.014840622 0.12932754 0.086610615 0.12790698 -0.20998247 -0.22778668 0.0020057661
-0.4388401 0.17272078 -0.41263625 -0.267037 -0.004134215 0.14456727 0.071063824 -0.36545837
0.2544576 -0.3728964 -0.2693132 -0.03797666 -0.18388683 -0.29224482 0.055934217 -0.34829336
-0.30001372 -0.32925087 0.13390744 -0.5528463 0.10389354 -0.41069067 -0.4518224 -0.21021979
-0.14823736 0.010310435 -0.26544374 0.092296876 -0.10338894 -0.22922312 -0.3303724 0.09605937
-0.26714754 0.19215998 0.1965795 -0.4322946 0.18214732 -0.43970582 -0.053301983 -0.24129075
00000000: b616 293e 3512 93be 7a33 17be 6e20 32be
00000010: 2bb3 47be 4c2a 29be dc37 90be 9a1f 04bf
00000020: 94bf dcbe b7c8 62be 93a3 49be 0acc 59be
00000030: beac cbbe ee89 2fbe 616c 09bf 67bd 813e
00000040: 55f6 00bf 30d8 9ebe 098a 7f3e b112 7abe
00000050: 1a8f 843d e60a 4cbd d11c 3fbe 0281 7cbc
00000060: 0760 d3be 862b 853e 5d11 8bbe ed6b 49be
00000070: aa5c 55be c504 91be 2380 1abe 2b4d 2b3e
00000080: cb3c 7dbe b800 dd3d fe1c f8be 891d 51be
00000090: ef25 943e 6c1a fabd 69d4 89be e175 c43c
000000a0: 01ed 4abe 7d17 25be 1689 62be 36f7 41be
000000b0: 5e6f fbbe c07f 9cbe 70f0 adbe 9228 4a3e
000000c0: 8140 34be a8b9 163c f7cc c1bc 47e5 35be
000000d0: 80a6 cdbe c2b6 e13d ccd0 863e a129 d33d
000000e0: 0a35 97be 5585 333e 862c eebe 5db9 20bd
000000f0: 00d4 a6be ed34 8ebe b549 19be 1658 98be
00000100: 37f5 05bf cbb7 9ebd b391 693c 5aad 6abe
00000110: b025 63be bb5d 6d3d f506 11be 05b5 a53c
00000120: 6abf e0bc 484b cebe 32ef 1abd c0d8 a0bd
00000130: 97de a0bd 6327 febc 1cd2 3abd 254b 483c
00000140: ccb7 3cbe 205d c3bb cba0 ee3d fa1e cb3d
00000150: e494 8139 31fa 57be 3deb 883e 9e5a cfba
00000160: 3fc5 c5bc 3a12 843a 1cab 1fbd c84f 74be
00000170: efd2 aebd 7b3a e23d f42d a0bc 791d 11bd
00000180: e92c 01bf d164 913a 7dd0 393c ca1d ef3b
00000190: d544 9039 3f52 a1bd 2b75 6bbd 6239 ce3b
000001a0: 8922 03be 7e74 efbd cd54 1bbe 868d 3abd
000001b0: d95b e1bb e0e1 2bbc 5836 cdbc b37a 00bc
000001c0: f26b 49b9 fa68 36bb e1c7 49bb 7023 7bbb
000001d0: 1aac a6bd 920f 84bc 13fa 563e 1a86 e33d
000001e0: b9d2 58be bda4 dfbc b6a6 dabe 47fd e7bd
000001f0: 32b4 9cbe 16de 7bbe 4095 a43b c6aa 5d3c
00000200: 99ea 053e 5de3 47be 0cb6 caba 3fad 92bd
00000210: 6919 03bd c6d8 9abb 8ec3 3a3b 4f53 5bbd
00000220: 733f 32bf 4bed 48bd ed2e 13bd 4bbc 233c
00000230: b365 f9bc 4701 13bc d5f8 1bbc 29aa f73b
00000240: ef47 88bd a49f 9e3c 905b e73d 582c fc3b
00000250: 2652 99bc 736f 84bd d611 603c 445e c5bd
00000260: 0f2b 05be d775 883d 22bf 82bd db47 b0bb
00000270: d9ef 2fbc 6df7 1bbf 5f97 0ebc 4422 3d3e
00000280: df43 c6bd db91 68ba 8d17 0abb 3cb2 efbd
00000290: 78d8 e93a d0da e8bd caf8 b7bd 5268 bbbc
000002a0: 941e 24be ce35 ac3c 28f8 13bd 86b8 943c
000002b0: 398c 73be ba7a 54be d72e 9abe a718 85bd
000002c0: 0ced 5dbe 4b1a 8abd 4ecd b93d 3ce5 49bc
000002d0: 17e3 d9bc 246e 24bd 4b96 0cbd 6433 bebc
000002e0: 0481 b7bd 364b 743c db21 bcbd fd4b 93bc
000002f0: 511c ba3b 84cf 59be a2cd 833c 18fb 9fbc
00000300: 8647 c1be c6ff ccbe 3b0d 27be 0c86 edbd
00000310: 600c 0dbe 13a8 8f3d 9e40 d0be aa5c 9dbe
00000320: 7f52 fc3d d563 da3d ea4c 62be c988 ae3d
00000330: cdb2 14bc 0ff1 0dbf 7cb1 1a3e 030a c4be
00000340: 5e72 5f3d 1526 733c 706e 043e e860 b13d
00000350: 0cfa 023e a505 57be e940 69be 2c73 033b
00000360: a6af e0be b7dd 303e 0f45 d3be 13b9 88be
00000370: 4f78 87bb 7109 143e e989 913d 5c1d bbbe
00000380: 4448 823e 47ec bebe 6be3 89be 6a8d 1bbd
00000390: d44c 3cbe 1da1 95be 471b 653d 8253 b2be
000003a0: 669b 99be 9293 a8be 081f 093e 5687 0dbf
000003b0: 23c6 d43d 0c46 d2be 4455 e7be db43 57be
000003c0: 89cb 17be 19ed 283c 3ee8 87be 2506 bd3d
000003d0: 95bd d3bd 77b9 6abe 9226 a9be c6ba c43d
000003e0: 90c7 88be 96c5 443e 234c 493e b855 ddbe
000003f0: d484 3a3e 1f21 e1be 2e53 5abd ec14 77be

model.output.bias f4 [5]
-0.14329715 0.2366641 -0.27105543 -0.44493288 0.5351022
00000000: 7dbc 12be 1358 723e c7c7 8abe 3ece e3be
00000010: 75fc 083f
