tmbed/models/cnn/cv_2.pt (torch, 281007 bytes, 12 tensors)

filter_kernel f4 [7]
00000000: 1a43 913b f534 5d3d 58d8 773e 5150 cc3e
00000010: 58d8 773e f534 5d3d 1a43 913b
0.004433048 0.054005582 0.24203622 0.39905027 0.24203622 0.054005582 0.004433048

model.input.norm.bias f4 [1, 64, 1, 1]
00000000: f589 95bd 02bf 84bd e988 68be 93fa 44bd
00000010: 7aa3 c2bc 63e9 06be 794f 29be bb12 87bb
00000020: b231 5fbe bcd2 ce3b 3765 f33c e9d9 0fbe
00000030: 148e 0fbd d70f 103c f1a7 ffbc 80c0 07be
00000040: c123 663b a089 74bc b769 01bd bb82 f4bd
00000050: 7b46 28be fa90 5ebb 4dad b7bc 27a7 aebe
00000060: c127 78bd 10b9 f8bd 2238 5abe 6d2e 7cbd
00000070: 063e d2bc b31c 12be e816 fb3c e088 32bd
00000080: ff76 18be 0108 72be 0cc7 043a 375e 79bc
00000090: 969f 01be 8e5f 8cbd 0b7e 14bd f40c ed3c
000000a0: 5d0e 97bc f12e b9bc 925f b23c 4b18 1cbd
000000b0: 2ec0 d83c 4d52 78bd 86e6 823b b03b 11be
000000c0: 3690 90bd 35b0 f2bc f242 48be 954b 96bd
000000d0: 89fd be39 9d72 03bc 52ea 66be 49b7 34be
000000e0: 590a 2cbc 4011 debd e77e 81bd 6678 cebc
000000f0: 2a4a b3be 4b96 bb3c e95f babd edfe e2bd
-0.07301704 -0.06481744 -0.22708477 -0.04809053 -0.023759592 -0.13174967 -0.16534223 -0.004122106
-0.21796301 0.0063117426 0.029711349 -0.1404797 -0.035047606 0.008792839 -0.03120801 -0.13257027
0.0035116526 -0.0149253905 -0.03159496 -0.11938997 -0.16433136 -0.0033960924 -0.022421503 -0.34111902
-0.060584787 -0.12144673 -0.21310475 -0.061567713 -0.02566434 -0.1426876 0.030650571 -0.043587565
-0.14889143 -0.23635866 0.00050650607 -0.0152202165 -0.12658533 -0.06854163 -0.036253016 0.02893684
-0.018439466 -0.022605391 0.021774087 -0.038109105 0.026458826 -0.060625363 0.0039947657 -0.14182925
-0.07058756 -0.029625038 -0.19556788 -0.07338635 0.00036428522 -0.008022931 -0.22550324 -0.17648043
-0.010500514 -0.10843134 -0.06323033 -0.025203895 -0.3501752 0.022898814 -0.09100325 -0.110837795

model.input.norm.weight f4 [1, 64, 1, 1]
00000000: d487 8b3f 8043 943f 40bf 673f da96 863f
00000010: 5da8 643f 6577 883f a959 663f 75a0 823f
00000020: 08d6 823f fba7 7b3f 7087 823f c284 8f3f
00000030: f987 7d3f fc9c 733f bd29 843f e4d3 7d3f
00000040: 96ce 833f ad5b 803f 2ae4 823f b7e0 8b3f
00000050: b5c5 893f 9d24 823f 632e 943f 1ba8 d03f
00000060: 809a 803f 4d8f 883f fa56 863f d63f 823f
00000070: dc24 763f 601d 863f e324 783f 3262 823f
00000080: 9e56 893f 0ee8 793f 46ce 7d3f b705 973f
00000090: 4afb 713f c876 933f c671 8c3f 3fef 873f
000000a0: 204f 823f 885d 783f 1811 6f3f 9446 853f
000000b0: 1a9d 853f a202 9b3f e692 783f 5ae2 823f
000000c0: 3075 833f 6f0b 823f fb5a 813f d4f7 6c3f
000000d0: 0eaf 703f fe9a 893f 9c7e 913f f813 8a3f
000000e0: a3b2 893f 5ed4 7a3f 75a3 7e3f e8de 623f
000000f0: 4daa a23f 6d9c 833f d8cb 773f 26b3 703f
1.0900826 1.1583099 0.905262 1.0514786 0.893194 1.0661436 0.8998056 1.0205218
1.0221567 0.9830319 1.0197582 1.121239 0.990356 0.95161414 1.0325238 0.99151444
1.029742 1.0027977 1.022588 1.0927953 1.076346 1.0167423 1.1576656 1.6301302
1.004715 1.0668732 1.0495293 1.0175731 0.9614999 1.0477715 0.96931285 1.0186217
1.0729558 0.9761971 0.99142873 1.1798619 0.9452406 1.1520624 1.0972221 1.0619887
1.0180397 0.9701772 0.9338546 1.0412164 1.0438569 1.2110178 0.9709915 1.0225327
1.0270138 1.0159739 1.010589 0.92565656 0.9401711 1.0750425 1.1366763 1.0787344
1.0757641 0.97980297 0.99468166 0.8862138 1.2708222 1.0282112 0.96795416 0.9402336

model.input.conv.weight f4 [64, 1024, 1, 1]
00000000: ec24 843d 43c4 3cbc 9528 023c d385 683c
00000010: 0e07 c9bc b734 0dbe f9cb 54bc 945d 80bd
00000020: 2592 92bd e389 00be 5623 703d 7ee6 82bd
00000030: 41c1 7fbc dc48 4e3d b791 03bd 8a9e f1bc
00000040: f4cb 933d 7a3a cdbd 26bc 2ebd 51ef 23be
00000050: 58fb 78be 81c8 613d 8102 40bd 78f3 43bd
00000060: 443e 213e 87ca c63d 44d0 e13c bafb 983c
00000070: 89c7 adbd ee16 3bbd ac0d 383d 8ce4 c3bc
00000080: fc9c 3cbd bdbd d6bc c62f 43bd 35cc 7dbb
00000090: 8a55 cd3d e653 fcbc c2f1 5d3d 4db9 b6bd
000000a0: ac12 ccbd 0642 403c ae41 58bd d81f 94bd
000000b0: 73e3 963c 67c7 83bd 442b 4c3d 5a4f 13be
000000c0: 5097 633d 7c5b 2fbd cc24 7a3d 3def c1bc
000000d0: c7fb b23d 57af 9b3d 76ec 24bb 4c9d 20bd
000000e0: a362 143d 038d 13be 3a5c 43bd 5e5c 77bd
000000f0: 1ba7 133e 55a1 f73d 52e8 ba3c a5ea 743d
00000100: 44e9 30bc f40e 4fbe e876 84bc c963 5fbd
00000110: 6b4c ef3d 8312 b53d dd01 663d 93e3 153e
00000120: 4129 e53b 810c 78bd c176 27bc a45b 93bd
00000130: 1157 d03d 88f1 713d 7780 fe3d 1f97 22ba
00000140: 0217 9dbd f4e3 90bd 9706 173e d632 1dbd
00000150: b352 97bd 1883 6ebd bb24 1d3d 57e6 063d
00000160: de3e 023e 7f4a 013d 3c8d c3bd 3d9d 483d
00000170: 19d7 f7bd b6d0 19bd 40ee 8abd 66bd 703c
00000180: 96de aebd 97ef 88bd d7be c23d 0c51 b83c
00000190: 4d90 0ebd 1dc9 3abd a2e6 32bc 8f3a e13d
000001a0: 78e7 44bc 7713 123a a42a 41bd fe22 d1bc
000001b0: 1c7e c83d e9c1 7dba 0358 81bb 0852 b33d
000001c0: 212a 49bd 93d1 39bd cc86 1dbe 73fe f1bc
000001d0: a953 cc3d 9244 153d 2d30 86bd 7563 e5bd
000001e0: 574c 01bd 9f83 cdbc 2bef 033e 6897 c3bd
000001f0: 2261 87bc da65 04be 31a3 b7bc c08f 19be
00000200: fccb a4bd 1b86 863d fd46 86bd 104a 713d
00000210: bf5a ecbd 62dc dbbd d0eb e3bc 8111 7cbd
00000220: b291 bbbc 1291 2f3e f4ae af3d 0d2f 823c
00000230: 4ed5 d1bd 3857 723d 88c2 c53d ba2a 7dbd
00000240: 7663 e3bc 4b40 4e3c 6a28 eeba d9b0 12be
00000250: 64cd 12bd 0da1 cd3c 3d3c 03bd 7d01 a7ba
00000260: 5497 e7bd fccc a1bd ca64 f7bc 271f fb3d
00000270: bd1e 0d3c 1ebb a5bb 3f3e 3b3c 76bc e9bd
00000280: 0250 753d 080c a7bc a159 ac3d a867 3ebe
00000290: 51b8 36bd 7940 fdbd c495 a5bb 9c17 373d
000002a0: 8b02 91bd ccc6 dfbd 7d0e 80bd 7406 79bc
000002b0: f7d7 3ebc c2d4 773d 25d4 ad3c a227 f73d
000002c0: 0387 f7ba d750 dfbd 683c 0abe d24e 113b
000002d0: 3bb4 fb3c 034c 00bd e9b9 9b3d d887 81bd
000002e0: 21fa c5bd b07e ad3d 981f 32bd c918 c03d
000002f0: 2d6e 683c 57c3 213d 06ad c3bc ed75 b3b9
00000300: 157a 63bd 24ce 953c 191f debb 42e7 fbbd
00000310: a7db 263d 5fc9 f73d c033 80bd 1a9d bebc
00000320: 8553 bb3d 6ef8 333d c761 18be c6f8 1a3d
00000330: b7c3 133e d71b aebd 18cf 193e dbae 673c
00000340: d612 8c3d e797 573d 913a 5bbc b7f7 72bd
00000350: 9cb8 c8bd 3224 8fbd 664e 4ebd cf4c 9c3d
00000360: e0ae 84bd 3f5c e3bc 0eed 82bd 8013 823d
00000370: 8c0c f43c ac58 b9bd dcc5 07bc ee44 6b3c
00000380: 3af1 acbd 8c3a a4bb 9573 a7bc ca0c 003c
00000390: dfca a7bc 372c c9bd 0c41 843c cf0a a2bc
000003a0: 1bba bd3d 1e28 1cbe 89b5 aa3d 86a3 a5bd
000003b0: 9924 013d 5cfb 523e 3b86 143d 3f7b 8ebd
000003c0: 1bb7 b1bd d02f 533d 5681 13bd a4f1 43bc
000003d0: 8c62 c2bc 6d47 043e fb19 ad3c 89d3 5dbd
000003e0: 171e a63c ded4 053e aa59 243d 9f88 573d
000003f0: 455c 2abc 4e76 da3c 2cb5 edbd b5cb 42bd
0.06452355 -0.011521402 0.007944246 0.014192062 -0.024539497 -0.1378964 -0.012988084 -0.062678486
-0.07156781 -0.125526 0.05862745 -0.06391619 -0.01561004 0.050362453 -0.032121386 -0.029494543
0.07216635 -0.10020919 -0.0426599 -0.1600926 -0.2431463 0.055122856 -0.046877388 -0.04783961
0.15746409 0.09706598 0.02756513 0.01867472 -0.08485324 -0.045676164 0.044934914 -0.02391269
-0.04604815 -0.026213521 -0.047652982 -0.0038726453 0.10026081 -0.030801725 0.054185636 -0.08922062
-0.09964499 0.011734491 -0.052797012 -0.07232636 0.018419003 -0.06434517 0.04984595 -0.14385739
0.055564225 -0.042811856 0.06107025 -0.023673648 0.08739429 0.07601803 -0.0025165356 -0.03921251
0.03622688 -0.1440926 -0.047695376 -0.060390823 0.14419214 0.120913185 0.022815857 0.059794087
-0.010797802 -0.20220548 -0.01616998 -0.054538522 0.116844974 0.088414215 0.05615412 0.14637594
0.0069934432 -0.0605588 -0.010221184 -0.071952134 0.101728566 0.059068233 0.124268465 -0.00062023284
-0.07670404 -0.070747286 0.14748608 -0.03837856 -0.073888205 -0.05823049 0.038365107 0.032934513
0.12719294 0.031565186 -0.09548423 0.04897808 -0.121015735 -0.037552558 -0.06783724 0.014693594
-0.08538549 -0.06686323 0.09509056 0.022499584 -0.034805585 -0.045601953 -0.010919245 0.10997497
-0.012018077 0.00055723585 -0.047159806 -0.02552938 0.097896785 -0.0009680079 -0.0039472594 0.087558806
-0.049112443 -0.04536588 -0.15383452 -0.029540276 0.099768944 0.036442347 -0.065521576 -0.112006105
-0.031566944 -0.025087176 0.12884204 -0.09550363 -0.016525809 -0.12929478 -0.022416683 -0.14996243
-0.080467194 0.06568547 -0.06556509 0.058908522 -0.11540746 -0.10735394 -0.027822405 -0.06154013
-0.022896621 0.17145184 0.085782915 0.015891576 -0.10245763 0.05916521 0.096562445 -0.061808325
-0.027757388 0.012588571 -0.0018170003 -0.14325275 -0.035840407 0.025101209 -0.03203987 -0.0012741532
-0.113081604 -0.07900426 -0.030199427 0.12261801 0.008613286 -0.0050577065 0.011428415 -0.11412899
0.059890755 -0.02039148 0.08415533 -0.18594229 -0.04460937 -0.12365813 -0.005053254 0.04470025
-0.07080563 -0.10926589 -0.062527634 -0.015199292 -0.01164817 0.060505636 0.021219322 0.12068106
-0.0018884841 -0.10904091 -0.13499606 0.0022172225 0.030725589 -0.03132249 0.07603819 -0.06324738
-0.09666849 0.08471429 -0.04348716 0.093797274 0.014186424 0.03949293 -0.023886215 -0.00034229402
-0.05553635 0.018286772 -0.0067786095 -0.12299968 0.04073682 0.12098955 -0.062598705 -0.023268271
0.091467895 0.043938093 -0.14881049 0.037834905 0.14430128 -0.08501404 0.15020406 0.01414081
0.0683953 0.0526351 -0.013380663 -0.05931827 -0.098008364 -0.069893256 -0.050367735 0.076318376
-0.06478667 -0.027753947 -0.06392871 0.063513756 0.029791139 -0.09050116 -0.008286919 0.014359696
-0.08444448 -0.005011862 -0.020440856 0.007815549 -0.020482479 -0.098228864 0.016144298 -0.019780545
0.092640124 -0.15249678 0.08335406 -0.0808783 0.031529043 0.20603698 0.036260825 -0.06957101
-0.08677503 0.05155927 -0.036012016 -0.011959467 -0.023728631 0.12917872 0.021130553 -0.054156814
0.02027802 0.13069484 0.040124573 0.052620526 -0.010397975 0.02666774 -0.116068214 -0.04755755

model.dwc1.norm.bias f4 [1, 64, 1, 1]
00000000: d36b 1ebe 969e 6e3e 3bb6 debd 9472 f8bd
00000010: e0c8 4dbe 7513 753e bfaf e1bd e36c 38bd
00000020: f975 0c3f 2fbe 97bd b39c 96bd 06ae 083f
00000030: 7024 13be 454f 2dbe 3301 41bd 6bec 1abe
00000040: e3d8 bcbd 0458 44be a79f 4dbe e4cc c03e
00000050: 451d 5e3e 3e75 8abe 325e 2d3e 2e09 59bd
00000060: a3c1 fb3e 24a7 b3bd 79a4 13bd 3930 113e
00000070: 493a 8abd 2e3f d83e ad59 81be b7df 71bd
00000080: 7257 d03e ac3e a23e 64a0 513e 4641 363e
00000090: 4b55 49bd 3d0f e9bd 99f7 a0bd 39d2 49be
000000a0: 1d00 54be 4b84 11be 3b43 67be 8143 aabd
000000b0: 05fd 453e a9ff 36be fc8a 6fbe 7ff0 c43e
000000c0: 7519 0cbd fb1a ab3e cb5b ad3e a277 18be
000000d0: b6f4 81be 71cf 8f3d 1d4e fb3e 4583 d2bd
000000e0: adba c8bd 5c70 fd3d 68d6 2bbe d0b2 6dbe
000000f0: a0ab 02be 7114 6dbe 983f 2abe fc09 e4bd
-0.15470819 0.23302683 -0.108746015 -0.12131229 -0.20096159 0.23933204 -0.11019849 -0.045025717
0.5486751 -0.074093215 -0.07354107 0.5339054 -0.14369369 -0.1692477 -0.047120284 -0.15129249
-0.09221055 -0.191742 -0.20080434 0.3765632 0.21690853 -0.27042574 0.16930464 -0.05298727
0.4917117 -0.08772114 -0.036045525 0.14178552 -0.06749398 0.42235702 -0.2526373 -0.05905124
0.40691715 0.3168844 0.2047134 0.17798337 -0.049153607 -0.113798596 -0.078597255 -0.197091
-0.20703168 -0.14210622 -0.2258424 -0.083136566 0.193348 -0.17870964 -0.23392862 0.38464734
-0.034203965 0.33419022 0.33859095 -0.14889386 -0.25382012 0.07021988 0.49083033 -0.10278944
-0.098012306 0.123749465 -0.16781008 -0.23212743 -0.12760782 -0.23152329 -0.16625822 -0.11134717

model.dwc1.norm.weight f4 [1, 64, 1, 1]
00000000: 9461 a63f fd6b 743f 0cc3 733f 3e2e b43f
00000010: 2e1a 8c3f 5cb1 853f 7545 8a3f 48ea 763f
00000020: d0f2 ae3f fab5 6d3f eaeb 823f 1caa 993f
00000030: 2d7e b23f 9fbb 953f 642e 823f bd1d 833f
00000040: 77a4 9e3f f5ea b23f 5362 a13f 18f8 843f
00000050: bdc3 753f fcd2 b53f f196 873f 8f99 7a3f
00000060: abf0 813f d199 8b3f 7993 8d3f 03b6 843f
00000070: ef16 823f 0fbf 983f 200d 8b3f 8f6a 743f
00000080: ce83 983f 54be 723f 9029 783f 316c 803f
00000090: 9c9a 763f 1a95 963f 9305 a63f 99ab 993f
000000a0: 9898 b53f f8cd a23f 30bf 913f de58 7e3f
000000b0: 3601 773f cd60 8b3f 77ce 803f 4b2b 813f
000000c0: 9844 7a3f c384 713f 5058 783f fb5e a23f
000000d0: a75c c53f b562 733f 08ad 963f 46cb 983f
000000e0: ca8e 743f f4cc 783f e923 803f b016 873f
000000f0: 3d44 583f e44c 8a3f 367c 873f 23a3 993f
1.2998528 0.9547728 0.9521949 1.4076612 1.094549 1.0444751 1.0802447 0.96451235
1.366785 0.928558 1.0228245 1.2005038 1.3944756 1.1697882 1.0170407 1.024345
1.2393941 1.3977953 1.2608131 1.0388212 0.960018 1.4205012 1.0592939 0.9789056
1.0151571 1.0906316 1.106063 1.0368046 1.0163249 1.1933306 1.086338 0.95475096
1.1915224 0.9482167 0.9693842 1.0033017 0.96329665 1.1764252 1.2970451 1.2005492
1.4187193 1.2719107 1.1386471 0.9935435 0.9648622 1.0888916 1.0063008 1.0091337
0.97760916 0.94343203 0.97009754 1.2685236 1.54189 0.9507249 1.1771555 1.1937034
0.9553038 0.97187734 1.0010959 1.0553799 0.84479123 1.0804715 1.0584781 1.200291

model.dwc1.conv.weight f4 [64, 1, 9, 1]
00000000: 10f2 613d eb77 8e3d 5516 193d 2d8a a43d
00000010: c745 4b3d 988a 173d 5393 8e3b 5315 8c3d
00000020: cb51 e03c f574 e93a a7c7 a7ba 793f 973a
00000030: 54cc 203c 7092 e5bb a637 bfbb 0ba7 3abc
00000040: bce5 bbbb 9c74 d83b d1c8 9cbc 671c 56bd
00000050: 8822 28bd 42bd c1bc 5c59 913c fecb 9bbd
00000060: 2262 e1bc 3100 28bd e9ca d6bc 40d0 893d
00000070: 5e9f 713d 663b e23c 9c8a 1b3d d916 9a3c
00000080: 695c 733c 2e92 4d3d 4385 5f3d 3361 8d3d
00000090: 83c8 e7bc ec9c d13c e847 ba3c a6d4 20bd
000000a0: d6f0 78bc 53b6 f9bc 19be b53c 67fd eabc
000000b0: ce73 80bc cdb3 bb3d a10e c13b fad9 e53c
000000c0: 9e13 9f3c 3f45 b33c 130d 7abc 15f6 ef3b
000000d0: 5a9a 1c3c 3fbc 853d 1efb 223d c9cb 043d
000000e0: 7212 1b3d 532f f23c 0a5a 3a3d fbfe e53c
000000f0: 8282 b43c 0312 083d b5ee 0f3d 0db1 923b
00000100: ebf1 63bb c289 8e3c 14cf 3ebc 761f 36bc
00000110: a409 1abd 0222 b53c ace4 a9bc 18a3 c33a
00000120: b374 afbd 1028 80bd c6ff 39bd 8e49 77bc
00000130: 1268 853b 6a07 a0bc 1abd 04bd 32a0 62bd
00000140: a1a0 92bd 7a3e 00bd 3e5f 2b3c a092 fbbc
00000150: 8693 afbc 4940 8dbc 9e59 80bc f8c8 c7bc
00000160: 3fb9 21bd e076 123c 009d c4bc a236 86bc
00000170: 47be e5bc c0f7 acbb e2d3 023d 3ec1 f43c
00000180: c21f be3c 5f80 56bc d79b 8bbc 4a3d acbd
00000190: b9db 9bbd d4d6 84bd cf55 6abd 60c2 28bd
000001a0: b905 06bd dc65 4bbd 7a4f 4ebd 32c5 8bbd
000001b0: b8fa 363d 8583 a33d 9df6 3d3d 43f4 42bb
000001c0: 2fe2 47bc 0c80 c93c 8017 c23c 4e06 943d
000001d0: a04f 803d bfec b2bc f54b 993c 8062 8c3c
000001e0: 232a ebbc 83e5 343d 25b9 72bc 1cd9 fe3b
000001f0: b0fa ddbc a13b a3bc f75b df3c d949 b43b
00000200: 672f e73b c179 133c c66a 563d 492b 3e3d
00000210: e122 ab3c 9e82 88ba 9ebf 60bc d61b b5bc
00000220: 159f 7e3d 2eb6 39bd 60d1 953d a32b 13bd
00000230: 7106 8a3d b132 d2bc 3f23 5f3d 867e dfbc
00000240: de22 623d 9def 783d dcfe 6a3d 3f87 cf3c
00000250: bf85 433d a29d 493d 6217 9f3b 1daf 193d
00000260: 807c 6c3d 6a0f a63d f637 8d3d b28d 183d
00000270: 5ff6 513d b37b df3a d37b 683d 46fb 1c3d
00000280: 7d18 373d 0f8f 3e3d 1d07 a43d c292 873d
00000290: 1fe3 7b3d 3c94 983c d19c 0d3d 779a 493c
000002a0: 1df2 533d d480 383d 5b89 053d b873 a9bc
000002b0: 7041 99bc 62bc e2bc f04d f8bc a46a 0fbd
000002c0: a243 e4bc b139 6abc a187 1abd 5ae6 4cbc
000002d0: fc55 a7bc 82a5 12bd 0481 f43b a144 383c
000002e0: 669d 93bc c274 e13a 024c ef3b ee48 4dbc
000002f0: 9ecc 82bc 01b2 993d f9a8 ac3d 6b4f 0f3c
00000300: 6863 3e3d 3bf0 c53b 3a8a 253c 01c7 b03d
00000310: f109 983c c48b b53d 04ac b0bd 1f7d afbd
00000320: 624b cebd 9d6c d3bd 3a73 aabd 3452 2bbd
00000330: 5b0d fbbc e2f1 a8bd 585e d5bd 2bb3 f5be
00000340: 74c3 fdbe dcea e7be a811 01bf 32b8 01bf
00000350: 5acf ffbe 0e1c 06bf 3515 05bf cde2 d6be
00000360: 08a0 7ebc c336 9bbc e560 a1bc aad4 85bc
00000370: 69ee 93bc 1718 44bc 69be 8abc bc96 a2bc
00000380: 926e acbc b389 973d a7c4 ef3d 0af4 7d3d
00000390: bd85 183d 5a36 a53c 6601 1f3d aeee 8f3d
000003a0: 16b1 7c3d ef3b aa3d d520 153d 614a 033d
000003b0: 623a 7d3d 5a8d 603d 3317 4c3d 0c05 de3c
000003c0: 5cf5 673d 2d4b ea3c fbaa 943d a12d 40bc
000003d0: 59e2 30bc 754a 7f3c 1c88 513c 9668 c5bc
000003e0: accf 7dba 975f 1e3d 9bbc 073d 962c 343d
000003f0: 8d2f da3c 708c 7c3a d1f1 8abc 9ea6 533c
0.05516249 0.06956466 0.037374813 0.080341674 0.04962709 0.036997408 0.0043510585 0.06840005
0.027382752 0.0017811345 -0.001280059 0.0011539302 0.009814341 -0.007005982 -0.005835491 -0.011392365
-0.0057341736 0.006605698 -0.019138725 -0.05227318 -0.041048557 -0.023649815 0.017742805 -0.07607268
-0.027512614 -0.041015808 -0.026219802 0.06729174 0.058989875 0.027616214 0.037973985 0.018809723
0.014853575 0.050188236 0.054570448 0.06903305 -0.028293854 0.025587521 0.022739366 -0.039265297
-0.0151941385 -0.030482447 0.022185372 -0.028685285 -0.01568022 0.09165154 0.0058916365 0.02805804
0.019418534 0.021883605 -0.015261906 0.0073230364 0.009558285 0.06530046 0.039790265 0.032420907
0.037859388 0.029563582 0.045496024 0.028075686 0.022034887 0.033220302 0.03513976 0.0044766725
-0.0034781646 0.017399672 -0.011646051 -0.011115899 -0.03760685 0.022110943 -0.020738922 0.0014925925
-0.085671805 -0.06257641 -0.04540994 -0.01509322 0.004071244 -0.019534785 -0.032406904 -0.055328555
-0.07159544 -0.031309582 0.010459719 -0.030709565 -0.02143265 -0.017242568 -0.015667733 -0.024387822
-0.039483305 0.008939475 -0.024000645 -0.016383473 -0.028044833 -0.0052785575 0.03194035 0.029877301
0.023208503 -0.0130921295 -0.017042084 -0.084101275 -0.07610268 -0.06486288 -0.05721074 -0.041200995
-0.0327203 -0.049657688 -0.050368764 -0.068247214 0.044672698 0.0798407 0.046377767 -0.0029747642
-0.012199922 0.02459719 0.023692846 0.07227765 0.06265187 -0.021841405 0.018712977 0.017136812
-0.028706616 0.044164192 -0.01481465 0.0077773463 -0.027097076 -0.019925894 0.027265532 0.0055019674
0.0070552113 0.009001196 0.05234792 0.046428 0.020890655 -0.0010414904 -0.01371756 -0.022108
0.06216343 -0.045339756 0.07315326 -0.035930287 0.0673951 -0.025658937 0.054476973 -0.02728201
0.055209033 0.060775388 0.05737196 0.025333045 0.047734972 0.049222596 0.0048550824 0.037520517
0.05773592 0.08108409 0.06895439 0.037244506 0.05126035 0.0017050415 0.056758713 0.03832557
0.04470109 0.04652315 0.08009169 0.06619789 0.061495896 0.018625371 0.03457338 0.012304894
0.05174457 0.045044735 0.032601696 -0.020685062 -0.01870796 -0.027677719 -0.030310601 -0.03501381
-0.027864281 -0.014295981 -0.037727002 -0.012506092 -0.020426743 -0.03580237 0.007461669 0.011246831
-0.01801939 0.0017200934 0.007302762 -0.012529595 -0.01596671 0.07504655 0.084306665 0.008746962
0.04648152 0.0060406006 0.010103757 0.08631707 0.018559428 0.08864549 -0.086265594 -0.08568787
-0.10072972 -0.10323451 -0.08322759 -0.041826442 -0.030646017 -0.082492605 -0.10418385 -0.47988257
-0.4956318 -0.4529637 -0.50417566 -0.50671685 -0.49962884 -0.5238656 -0.51985484 -0.4196991
-0.015541084 -0.01894701 -0.019699523 -0.016336758 -0.018058019 -0.011968634 -0.016936498 -0.019847266
-0.021048818 0.07399311 0.1170743 0.062000312 0.037236918 0.020167518 0.038819693 0.070279464
0.06169232 0.08312213 0.036408264 0.032053355 0.061823256 0.054822303 0.049826812 0.027102016
0.056630477 0.0286003 0.072591744 -0.011729629 -0.010796153 0.015581717 0.012788799 -0.024097722
-0.00096821296 0.03866538 0.033138853 0.043987833 0.026634002 0.0009633964 -0.01696101 0.012918143

model.dwc2.norm.bias f4 [1, 64, 1, 1]
00000000: fba7 9bbc 0ca6 223d cdd3 d6bc fe72 21be
00000010: e2b7 76bd 5e43 403e 1747 06bd 995c b33d
00000020: 9556 20be 3e9b 0bbe 1fd6 37bd e4a0 02bd
00000030: 8036 7cbc b94a dfbc f95f 24bd 867a 9e3d
00000040: 8bf9 d8bd b8dc 0cbd 5656 0b39 6e2e fdbc
00000050: 2468 e1bc c9eb 49bd c6bd b53d 1743 a8be
00000060: 93d4 02bd 5b0c ccbd 599d 08bd 9939 86bc
00000070: 86ea 02bd f340 cc3d e301 363c 19a5 c7bd
00000080: b2a7 b1bd 94ed 17be dbe1 05bd 9753 4e3d
00000090: 1d02 0abd 73ac 5b3d 1556 51bd 1841 623d
000000a0: d2d8 71bc 2872 13bd 63ee 22bd 0ab8 0bbd
000000b0: 4b9a 8bbd e004 98bb a6f5 ff3d b8e9 24bd
000000c0: 4e3f c7bd 4039 47bd e57b 23be 2344 03bd
000000d0: 69af a9bd 6474 09bc 4c01 f6bc 4bb6 03bd
000000e0: f344 18bd 5fb4 053b 5a47 80bd af9c 0fbd
000000f0: 0675 15be f86a 833d 4a16 a2bc ba70 8abc
-0.019000998 0.039709136 -0.026224041 -0.15766522 -0.060233958 0.18775699 -0.03278264 0.08757896
-0.15658028 -0.13633439 -0.044881936 -0.03189172 -0.015393853 -0.02725731 -0.04013059 0.07738213
-0.105944715 -0.03439018 0.00013288236 -0.030905928 -0.027515478 -0.049297128 0.08874087 -0.32863685
-0.031941008 -0.09963294 -0.033353183 -0.016384887 -0.03196194 0.099733256 0.011108848 -0.09748287
-0.086745635 -0.14836723 -0.032686096 0.050372686 -0.03369342 0.053631257 -0.051107485 0.05523786
-0.014761167 -0.03599754 -0.039778125 -0.03411106 -0.068165384 -0.004639253 0.124980256 -0.040261954
-0.09728871 -0.048638582 -0.15965231 -0.032047402 -0.0828541 -0.008389566 -0.030029915 -0.03215627
-0.03717513 0.00204017 -0.06263609 -0.035061534 -0.14595422 0.06416887 -0.019786019 -0.016899455

model.dwc2.norm.weight f4 [1, 64, 1, 1]
00000000: 1165 a13f 4243 793f c52e 783f e0c2 b33f
00000010: 6123 863f b18e 843f a0ea 773f afcf 823f
00000020: d0d8 4a3f 742b 6d3f 7a04 7b3f a4fd 773f
00000030: 78df 7b3f 5708 783f a9d3 863f 948a 7d3f
00000040: d544 933f dcd7 773f a2b1 803f e323 783f
00000050: 9c06 783f 2166 973f 16bb 8b3f ab33 303f
00000060: e6f7 773f af92 7c3f 4964 773f 013d 793f
00000070: 752a 783f a615 6e3f c40d 513f 352b 723f
00000080: 605f 843f 2405 853f 4b15 783f 4edf 7d3f
00000090: d9b5 773f c016 913f 98d7 b23f f016 733f
000000a0: 4585 9c3f c587 753f 117a 763f ec8a 773f
000000b0: 7003 733f bc96 8a3f fb0d 7c3f dca7 a73f
000000c0: 8595 c93f c882 a33f 640d 933f 33d8 773f
000000d0: 35ab 693f 4983 7d3f 2144 783f da04 783f
000000e0: 9ecb 783f cae4 783f 975c 753f 3177 773f
000000f0: f2dc 5f3f a3bb 833f b20b 793f a56f 813f
1.2608968 0.9736825 0.96946365 1.4043846 1.0479547 1.0356046 0.96842384 1.021963
0.7923708 0.9264443 0.98053706 0.968714 0.9838786 0.96887726 1.0533344 0.9903958
1.1505381 0.9681375 1.0054209 0.9692976 0.96885085 1.1828042 1.0916469 0.6882884
0.9686264 0.9866132 0.966374 0.9735871 0.96939784 0.9300178 0.8166163 0.9459718
1.0341606 1.0392194 0.9690749 0.9916886 0.9676185 1.1335068 1.3972044 0.94956875
1.2228171 0.9591029 0.9628001 0.9669635 0.9492712 1.082725 0.9845883 1.3098102
1.5748755 1.2774286 1.1488461 0.9681427 0.91276866 0.9902845 0.96978956 0.968824
0.97185695 0.97224104 0.95844406 0.96666247 0.8744651 1.0291637 0.9728347 1.0112196

model.dwc2.conv.weight f4 [64, 1, 21, 1]
00000000: ea5f 973d 4244 6a3d 1fc6 823d e248 663d
00000010: 0b29 7e3d 7201 723d fcee 683d 5b62 603d
00000020: 8963 923d 4be7 963d a79d a83d 57cd 483d
00000030: be27 473d 6d6f de3c f75f 7b3d ebd1 413d
00000040: e167 c33c 9c5f 693d 0961 433d 008f 1a3d
00000050: 4f54 473d 5f0d d1bb 9eac 82bc 6007 863c
00000060: bf89 07bc 2f52 da3c 28d4 663c 77b0 4c3c
00000070: 285e 36bc 48ba a83b fd9f a7bc cee2 f13a
00000080: 6e71 81bc e498 923c bca5 3d3c 7f7d 863c
00000090: 84bc d5bc 38cc a73c 6e57 503c 4705 213c
000000a0: 5a0d 2e3b 76ee 06bd b7ee d0bc 4ee9 7abd
000000b0: f7a3 54bd 8be1 1fbd 7908 b7bc 4c57 42bd
000000c0: 8dfc 72bd 0610 1cbd 3dc8 51bd f460 13bc
000000d0: 5a2a 54bd 7628 0cbd 80ac 0dbd bbc3 c3bc
000000e0: 3030 05bd 61af 04bc adf9 bebc 92a4 a2ba
000000f0: df53 f7bb 35a4 71bc f19a 9fbc 4759 b13d
00000100: 7d48 ad3d 3915 453d cb08 863d d61c 4e3d
00000110: d106 263d 7326 c23c 724f 813c a159 ac3c
00000120: f774 d2b9 3a39 99bc 652d 02bb 2f93 9e3c
00000130: e5cc db3b 8354 2c3d 1141 323d 282a 7a3d
00000140: b37c 983d b49c 593d ff08 8d3d 95ac ee3d
00000150: 9ec2 4a3d e589 e33c 302b 643d 9470 c53c
00000160: d106 44bb a57c e33c b9f4 4b3d 796b 073d
00000170: 31dd 343d f728 6b3d 030c ca3c db9c 8a3c
00000180: 6154 9c3c efbc 133d 237e 0a3c 5992 903c
00000190: d661 6e3d 630e e43c b1f0 743c 4669 a33c
000001a0: fd23 0e3d 1683 f43d b18d d33d 46df c53d
000001b0: 05f4 c33d 5508 a93d 41da 943d 3014 853d
000001c0: 7bc3 803d 081a 7d3d 2c4b ab3c 4da9 df3b
000001d0: d8e0 9a3c 3f0e 523d a77e a23d 9999 8f3d
000001e0: 23cf af3d 3933 be3d 5ecc b83d a485 c33d
000001f0: 48ca cc3d 9e37 ef3d b082 8d3b 237b b9bb
00000200: b60a 54bc 99cc 3abc 5d5f b13c d402 82bc
00000210: 5856 91bc e79f 60bb e531 823c 0cc3 af3c
00000220: e88e 88bc 195f 5e3b fcd0 963c a4dd 0b3b
00000230: 43b8 323b 84f5 04bc 3737 57bc e306 1a3c
00000240: 97d9 e93b 3bb8 84bc cdef a2ba 92a1 793c
00000250: 73b0 713d 7c05 153c f359 e83b 5c04 903c
00000260: d836 cc3c 1cc4 d13c 1c62 5e3d 778b a73d
00000270: a075 0f3d 371a a53d e07e 2e3d c67f 8c3d
00000280: 1471 8e3c a9d5 003d f8f8 163d e707 343b
00000290: 451e 0f3d be29 d53c ae91 9b3c d171 fd3c
000002a0: e0ad c23d 3d68 bf3d 9c3b e23d f6f1 e43d
000002b0: 403e fb3d 467f fb3d b9fe ff3d 0fa4 fd3d
000002c0: 4c62 eb3d 4f63 c13d 9050 b43d fb2f ca3d
000002d0: 04de ec3d 76c7 e23d e04d ca3d f3d6 b53d
000002e0: 8ce4 9f3d 6937 5f3d 43f1 6c3d a214 883d
000002f0: e43a 923d a902 6a3c f192 f9bb 67c1 723b
00000300: 9886 af3b 248e 57bc 2a41 43bc 2719 263b
00000310: 4c52 2db9 8402 413b 1f52 e7ba bee3 263c
00000320: 2ef0 543c cae7 95bb 04f1 e23b b0c9 b63c
00000330: 69ec e3bc 90c4 47bc 897c c8bc d565 6b3c
00000340: 9c9b 543b 0406 d6bc 427e be3c 50bb fcbc
00000350: a325 193c e1a7 c83c 3ae0 84ba 2cb8 02bd
00000360: a6ac 50bc ca5a 05bb 21e5 533c 6cf6 953c
00000370: 8254 efbc b6a0 54bc 1ed4 d83c fb0c 8a3c
00000380: 3a3f 76bc 6fe0 b53c 3193 50bc 5d87 9cbc
00000390: d5a5 693c 684e 40bc b217 283b c99e 27bc
000003a0: e1df 07bb ca7a 1dbc 9b91 a63c 9e1c 95bc
000003b0: 70d2 8f3c a880 14bc f597 333c 743b daba
000003c0: d8e7 993a 7d52 ca3c d024 9b3c 184f dfba
000003d0: d890 8bbc 9a1e df3b f671 b8bc 1be0 e5ba
000003e0: 87b8 a9bb ba86 3e3c 6851 cb3c e8f9 96bc
000003f0: b5c3 95bc dd6f 513b e70f ea3c 2b54 b8bc
0.07391341 0.057194002 0.06385445 0.05622185 0.06205086 0.05908341 0.05686854 0.0547813
0.07147891 0.073683344 0.08233195 0.049023952 0.048621885 0.027152741 0.061370816 0.047319334
0.023853244 0.056975946 0.04769996 0.03773403 0.048664387 -0.006379768 -0.01595145 0.016360939
-0.008272587 0.026650516 0.014088668 0.012493244 -0.011130847 0.0051491596 -0.02046203 0.0018454434
-0.015801158 0.01789517 0.011575159 0.016417263 -0.026090868 0.020483121 0.012716157 0.009827918
0.002655825 -0.032942258 -0.025504453 -0.061257653 -0.05191418 -0.039033454 -0.022342907 -0.047446534
-0.059322882 -0.03810122 -0.051216353 -0.008995283 -0.051798202 -0.034218274 -0.034588337 -0.023897042
-0.03251666 -0.008098454 -0.023312414 -0.0012408665 -0.00754784 -0.014748623 -0.019483062 0.086596064
0.08461092 0.048115943 0.06544646 0.05032047 0.040533844 0.023699975 0.015784953 0.021038832
-0.00040141467 -0.018704046 -0.0019863483 0.019357292 0.006707775 0.042072784 0.043519083 0.06107536
0.074456595 0.05312796 0.068864815 0.11654011 0.049502008 0.027775714 0.05570525 0.024101533
-0.002991129 0.027769396 0.049793933 0.03306148 0.044156257 0.057412114 0.02466393 0.016920498
0.019083204 0.036068853 0.008452925 0.017647909 0.058198772 0.027838891 0.014949963 0.01994766
0.03470229 0.11939065 0.1032976 0.09661727 0.095680274 0.08253542 0.07268191 0.06497991
0.06287285 0.061792403 0.020909868 0.006825602 0.018906042 0.051283117 0.07934313 0.07011718
0.0858443 0.09287114 0.09023355 0.09546974 0.099995196 0.1168053 0.0043185577 -0.005660431
-0.012942007 -0.011401319 0.021651918 -0.01587049 -0.017741367 -0.0034274997 0.015892932 0.02145531
-0.016669706 0.0033931194 0.018410198 0.0021341825 0.0027270473 -0.008115176 -0.013135723 0.009401056
0.0071365344 -0.01620113 -0.0012431085 0.015236275 0.059006166 0.009095546 0.007090801 0.017580204
0.024928495 0.025606208 0.054292783 0.08180898 0.035024285 0.08061641 0.042601466 0.06860308
0.017387904 0.031453762 0.03685853 0.002747053 0.034940977 0.02602088 0.018990364 0.030938061
0.0950582 0.09346054 0.11046526 0.11178963 0.122677326 0.12280135 0.12499756 0.12384807
0.11493358 0.0944277 0.088044286 0.09872433 0.115657836 0.110732004 0.09878135 0.08878889
0.07807264 0.054496203 0.057847273 0.066445604 0.07140139 0.014282861 -0.0076163937 0.0037041546
0.005356621 -0.013156448 -0.011917392 0.0025344582 -0.00016529224 0.0029450962 -0.0017648375 0.010186134
0.012996716 -0.0045747506 0.006925704 0.022312969 -0.02782269 -0.01219286 -0.024473445 0.01436754
0.0032441383 -0.026125915 0.023253564 -0.030851036 0.009347352 0.024494113 -0.0010137626 -0.03191392
-0.012736475 -0.0020348304 0.012933047 0.01830598 -0.029215101 -0.01297777 0.026468333 0.016851893
-0.015029723 0.022201745 -0.012730406 -0.019107515 0.014260729 -0.0117374435 0.002564889 -0.010230728
-0.0020732807 -0.009611795 0.020333102 -0.018202122 0.0175564 -0.009063877 0.010961522 -0.0016649798
0.0011742068 0.024697537 0.018938452 -0.0017037122 -0.01703684 0.006809068 -0.022515278 -0.0017538102
-0.005179468 0.011628801 0.024819091 -0.018429711 -0.018281797 0.0031957545 0.028572036 -0.022501072

model.output.weight f4 [5, 192, 1, 1]
00000000: 4969 963d 9730 a1be 045c 9ebd 4d97 25be
00000010: 521e 9c3b e697 0cbe dcfd f1bd 4d01 abbe
00000020: 2214 d4be 1ab4 21be 9260 56be 9fc5 7dbd
00000030: 4e94 b5be cebf 21be 3271 9fbe a63a 4f3e
00000040: 3053 97be 6d04 e6bd 2c96 fe3d ca33 59be
00000050: b1d1 dabc d028 2abd e6a4 20be a375 31bc
00000060: 2fdf 8abe 53de 4c3e cde5 b6be 0699 79bd
00000070: a2ff 07be 5174 20be b6f4 89be bb51 253e
00000080: f34a 3cbe b2f0 413e 1511 a2be 0256 79be
00000090: 6ec0 af3c 96b6 30be 2d4a 65be 5d8c 12be
000000a0: db26 dcbd 15af eabd 00d4 1cbe 74b8 8fbe
000000b0: ee4c d1be 3a44 a9be 576f adbe 12ff 66be
000000c0: d0a8 1bbe 2d89 25bd 9603 853d da0d 86be
000000d0: 7360 67be f6ab e83d 4cc2 503e 3837 22be
000000e0: 936a 88be 99c6 503e 5e6f cdbe 5acf 523c
000000f0: c189 e43d 74e4 b7bc 24b4 2ebe 1276 5ebe
00000100: b702 113e 734c 893c bfef 5e3d 8506 44be
00000110: 73ca febd 7614 9c3b 2c51 cbbd f639 7b3d
00000120: cf24 223d f1d3 5bbd 18f9 bcbd c65e 8dbd
00000130: 0aca bfbe 4397 dfbd b25d 0fbe 82bc 403e
00000140: 63dc 09be 04f7 6bbd 190c 11be 6edc 963d
00000150: a61b 183d 34eb d6be bd3d e1bd 86a4 cc3b
00000160: 5d28 be3d ab15 b73d 54db c9bd 6988 d3bd
00000170: 5943 98bd a1a6 ddbd 469b e1bd 569c 85bd
00000180: 9892 55bd 1a40 a23c 8643 463d 0c98 3dbe
00000190: 9c51 2a3c 0369 44be 2983 54bd 58c8 823c
000001a0: 9b55 0bbe 3bbf 9abe 00be 3cbe 141a ddbd
000001b0: 9cce 9e3a 19b9 4dbd bed4 90bd 1bbd 273b
000001c0: 7d93 4e3c 8147 863d 6e63 c53c 3936 2cbe
000001d0: 7e41 7dbd 4c38 42bd 50ea dbbc a004 c1bd
000001e0: 720b 4bbe 0747 d0bc 8b76 cfbd f8c6 38be
000001f0: 521b ac3c 1a12 14be 2e22 83bd cc37 83bd
00000200: 163c 293e bb5b bebd dfa0 163c 6b88 25bd
00000210: 2426 a3bd b655 593c 5b20 9f3c c76f 2bbd
00000220: 6421 d1be f005 ddbd 54d7 75bd aab8 103d
00000230: aec0 5bbd fc47 cfbb 1b49 2fbe 9031 e53d
00000240: 640b 07be 7122 633d 5961 0bbe c0f5 f83c
00000250: e847 e3bc 0673 03be b812 14bd 5447 cdbc
00000260: 1150 a6bd 55fa 143e 53f3 78bd bc7c b1bd
00000270: ceac 42bc 1c9b 03be 97ca 14be 4d1d 183c
00000280: 7409 babe 369d 7a3d c272 113c c823 1c3c
00000290: d4dd 8a3c 12c2 31be 9410 21be 1af9 94bd
000002a0: 35c8 2fbe c9c4 683d efb0 8bbd df10 583d
000002b0: 7cf1 a1bd 92e6 61be 5586 91be a055 14be
000002c0: b19a 8dbe 05f1 29be dd3a 0d3e b953 65bc
000002d0: 157d e9bd ee3b 263e 4fe1 7bbd 50fe 19bd
000002e0: 0c33 3d3d 337b 873d 3ae8 fbbd 3173 dcbc
000002f0: 0253 6b3d d97b d8bd f6f4 483d 78be 6bbd
00000300: 9313 c6be 874d a2be d898 11be 00ed 90bd
00000310: 5703 5ebe 151c 08be b52b 4bbe 54d7 54be
00000320: e805 a43d b9dc 46bd ed40 ae3d c11b 8b3d
00000330: 9aab 8a3d 737d d2be 0cb5 183e 2947 46be
00000340: 3b29 503c 896b 9d3d f339 f63d 75c8 4d3d
00000350: 9d87 103e b619 25be 1876 14be 914d 34bd
00000360: 19e7 a7be 53f5 f93d e598 71be fc09 abbe
00000370: dded 8abd 30bd 373e 2e89 023e 8667 93be
00000380: 8a9c 423e 030e 90be b953 a3bd 5222 223e
00000390: 4f68 92be 6507 a2be bb7f 67bd af78 8fbe
000003a0: 4fea 20be 77bf 16be aeed 923d c878 ccbe
000003b0: 5519 b63d 630b 9dbe e3b1 9bbe 5cc7 95be
000003c0: ad32 12bc 0cfc 59be 46a5 83bd fa83 9f3d
000003d0: 013c fcbd 6885 30be 1bac 07be b449 073e
000003e0: 8044 36be fc73 0c3e cebb 1f3e 2447 50be
000003f0: 5974 833d 181d c0be 092b b23d d2cd 73bc
0.073443 -0.31482384 -0.07732394 -0.16170998 0.0047643567 -0.1372982 -0.11815998 -0.3339943
-0.4142161 -0.1579136 -0.20935276 -0.061956044 -0.3546471 -0.15795824 -0.3114105 0.20237216
-0.29555655 -0.11231313 0.12430987 -0.21211162 -0.026711317 -0.041542828 -0.15687904 -0.010831269
-0.271234 0.20006685 -0.357222 -0.06093695 -0.1328111 -0.15669371 -0.26944512 0.16144459
-0.18387966 0.18939474 -0.31653658 -0.24349216 0.021454062 -0.17257151 -0.22391577 -0.14311357
-0.107495986 -0.114591755 -0.15315247 -0.28070414 -0.40879005 -0.33059865 -0.33874008 -0.22558239
-0.15201116 -0.040414024 0.064948246 -0.26182443 -0.22595386 0.11360924 0.20386618 -0.15841377
-0.2664381 0.20388259 -0.4012403 0.012866819 0.11159087 -0.022447802 -0.17060906 -0.21724728
0.14161192 0.016760087 0.05442786 -0.19143112 -0.12440958 0.0047631813 -0.09927592 0.061334573
0.039585885 -0.05366892 -0.09227198 -0.06902842 -0.3745883 -0.10917523 -0.14000586 0.1882191
-0.13462977 -0.05760862 -0.14164771 0.073662624 0.037135743 -0.4197632 -0.10998104 0.0062451987
0.092850424 0.0893968 -0.09856287 -0.103287525 -0.074347205 -0.108227976 -0.11015944 -0.06523959
-0.052141756 0.019805957 0.04840424 -0.18515033 0.010395434 -0.19180684 -0.051882897 0.015964672
-0.13606875 -0.30224022 -0.18431854 -0.1079599 0.0012116018 -0.05022535 -0.07071827 0.0025594893
0.012608406 0.06556607 0.024095263 -0.1681756 -0.061830036 -0.04741697 -0.026845127 -0.0942471
-0.19828585 -0.025424493 -0.10130032 -0.1804465 0.021009121 -0.1446003 -0.06403004 -0.06407127
0.16526827 -0.0929484 0.009193628 -0.0404133 -0.07966259 0.013265064 0.019424608 -0.041854646
-0.40845788 -0.10792148 -0.060019806 0.03533236 -0.05365055 -0.00632572 -0.17117731 0.11191094
-0.13187939 0.055452768 -0.13611354 0.03039062 -0.027744249 -0.12836847 -0.036150664 -0.025058426
-0.0812074 0.14548619 -0.060778927 -0.08666369 -0.01188202 -0.12852138 -0.14530407 0.00928433
-0.36335337 0.061185084 0.008877458 0.009530015 0.016951479 -0.17359188 -0.1572898 -0.07274075
-0.17166217 0.056828294 -0.06820857 0.052750465 -0.079073876 -0.22060612 -0.284228 -0.14485788
-0.27657083 -0.16595848 0.13791986 -0.013997012 -0.11400811 0.16233799 -0.061494168 -0.037596047
0.04619126 0.06615295 -0.12300153 -0.026910396 0.05745221 -0.10570497 0.049061738 -0.057554692
-0.3868681 -0.31699774 -0.14218462 -0.07076454 -0.21680962 -0.13291962 -0.19840892 -0.20785266
0.08008939 -0.04855034 0.08508477 0.06792403 0.06771012 -0.41111335 0.14912814 -0.19363083
0.012705143 0.07686526 0.12022772 0.05024 0.14114232 -0.16123089 -0.14498174 -0.044019286
-0.327935 0.12204995 -0.23593481 -0.33406055 -0.0678365 0.17943263 0.12747642 -0.2878992
0.19005027 -0.2813569 -0.07974953 0.15833405 -0.28595206 -0.31646267 -0.056518298 -0.28021762
-0.15714382 -0.14721476 0.0717424 -0.399359 0.088915505 -0.3067275 -0.30409154 -0.29253662
-0.008923215 -0.21287555 -0.06428008 0.077888444 -0.12316132 -0.1723839 -0.13249247 0.1321171
-0.17799568 0.1371612 0.15598986 -0.20339638 0.06418676 -0.37522197 0.086996146 -0.014880614

model.output.bias f4 [5]
00000000: 7855 00be dafc 543d 3cbf 9fbd 7883 4fbe
00000010: c4e8 863e
-0.12532604 0.05199895 -0.07800147 -0.20264995 0.2634946
