tmbed/models/cnn/cv_3.pt (torch, 281007 bytes, 12 tensors)

filter_kernel f4 [7]
0	0x3b91431a	0.004433048
1	0x3d5d34f5	0.054005582
2	0x3e77d858	0.24203622
3	0x3ecc5051	0.39905027
4	0x3e77d858	0.24203622
5	0x3d5d34f5	0.054005582
6	0x3b91431a	0.004433048

model.input.norm.bias f4 [1, 64, 1, 1]
0	0xbe63b582	-0.22237208
1	0xbde6278c	-0.11238012
2	0xbdcd707b	-0.100312196
3	0x3c921e6b	0.01783677
4	0xbe54630a	-0.20740905
5	0xbd07c6cd	-0.033148576
6	0xbde58837	-0.112076215
7	0x3d8d5b66	0.069021985
8	0xbee45f5f	-0.44604012
9	0x3d3006af	0.042975124
10	0xbd1fd1f3	-0.039018583
11	0xbe974361	-0.29543594
12	0xbcf34a6e	-0.029698577
13	0xbe4b6e6f	-0.19866346
14	0xbe6f89bd	-0.23392387
15	0xbe94c489	-0.29056194
16	0xbcf09617	-0.029368443
17	0x3bfc75e1	0.007704482
18	0xbe82662a	-0.2546857
19	0xbc575333	-0.013142395
20	0xbe0fea1b	-0.14054148
21	0xbd11a062	-0.035553344
22	0xbe11b20d	-0.14228077
23	0xbecd4f31	-0.4009948
24	0xbcf91907	-0.030407442
25	0xbe305416	-0.17219576
26	0xbe5b3416	-0.21406588
27	0xbed85bbb	-0.42257485
28	0xbdd276aa	-0.102765396
29	0xbe778f57	-0.24175774
30	0xbf047227	-0.5173668
31	0xbe66bc39	-0.22532739
32	0xbe8a9846	-0.270693
33	0xbeac75c0	-0.33683586
34	0x3d493260	0.049120307
35	0xbd9bdbb3	-0.07610264
36	0xbba777c4	-0.0051107127
37	0xbe40d044	-0.18829447
38	0xbcf4730e	-0.029840019
39	0xbda12c4a	-0.078697756
40	0xbe4936a9	-0.19649757
41	0xbd1583ec	-0.036502764
42	0x3c58693a	0.013208682
43	0xbb2165a6	-0.0024627238
44	0x3d8dd014	0.069244534
45	0xbd4730ef	-0.04863065
46	0xbe8ee310	-0.2790761
47	0xbeb24996	-0.34821767
48	0xbe28d182	-0.16486171
49	0xbe4d2443	-0.20033364
50	0xbebc8c65	-0.36825863
51	0xbe155bcf	-0.14585803
52	0xbdd4dfc9	-0.10394246
53	0xbeabe937	-0.33576366
54	0xbde56709	-0.11201293
55	0xbef5f39c	-0.48037422
56	0x3c4011e1	0.011723013
57	0xbe6559e5	-0.22397573
58	0xbd8cbe38	-0.06872219
59	0xbe117214	-0.14203674
60	0xbefef280	-0.49794388
61	0xbd400beb	-0.046886366
62	0xbe60f889	-0.21969809
63	0xbe568adf	-0.20951413

model.input.norm.weight f4 [1, 64, 1, 1]
0	0x3f94360b	1.1578993
1	0x3f9067c5	1.1281668
2	0x3f7eabe6	0.99481046
3	0x3f85286c	1.0402961
4	0x3f85c689	1.0451213
5	0x3f80b608	1.0055552
6	0x3f899767	1.0749329
7	0x3f86be85	1.0526892
8	0x3fc79af7	1.5594167
9	0x3f7b4a57	0.9816031
10	0x3f703a9a	0.9383942
11	0x3ffb006c	1.9609504
12	0x3f68e3f3	0.9097282
13	0x3f6ba520	0.92048836
14	0x3f94d8ac	1.1628623
15	0x3f8d2e6a	1.102979
16	0x3f89bce3	1.0760769
17	0x3f7776d0	0.9666567
18	0x3f814ef7	1.0102223
19	0x3f98353d	1.1891247
20	0x3f85d344	1.0455098
21	0x3f819d8f	1.0126208
22	0x3fb16819	1.3859893
23	0x3f68cd0a	0.90937865
24	0x3f869672	1.0514662
25	0x3f5f3c7e	0.8720168
26	0x3f618b28	0.8810296
27	0x3edb5ed5	0.4284579
28	0x3f7a6373	0.97808
29	0x3f903fa4	1.1269422
30	0x3f6d7e79	0.92771107
31	0x3f3cd896	0.73767984
32	0x3f4e4390	0.8057184
33	0x3f66cdd8	0.9015784
34	0x3f9821c3	1.1885303
35	0x3fa2d637	1.2721623
36	0x3f87579e	1.0573614
37	0x3f9681cb	1.175836
38	0x3f866b09	1.0501415
39	0x3fa979e5	1.3240324
40	0x3f6d200e	0.92627037
41	0x3f8c600e	1.0966814
42	0x3f990a23	1.1956218
43	0x3f73e1ba	0.95266306
44	0x3f810d53	1.0082191
45	0x3f9f5e22	1.2450602
46	0x3fa9309e	1.3217962
47	0x3f70ad61	0.94014555
48	0x3f7c27af	0.9849805
49	0x3f79a67f	0.9751968
50	0x3f705418	0.93878317
51	0x3f801008	1.0004892
52	0x3f7fcc0a	0.99920714
53	0x3f77d907	0.9681553
54	0x3f7a891b	0.97865456
55	0x3f70c1b8	0.9404559
56	0x3f83ddbd	1.0302044
57	0x3f717979	0.9432598
58	0x3f8269c5	1.0188528
59	0x3f5179a7	0.8182625
60	0x3f461105	0.7736972
61	0x3f82f996	1.0232418
62	0x3f4bb191	0.7956782
63	0x3f68c6d8	0.9092841

model.input.conv.weight f4 [64, 1024, 1, 1]
0	0xbce7e935	-0.028309444
1	0xbde91e34	-0.11382714
2	0xbe20ac8d	-0.15690823
3	0xbd3b1d6a	-0.04568235
4	0xbdbadfaa	-0.09124692
5	0xbd340233	-0.04394741
6	0xbe22f31a	-0.15913048
7	0xbdef0a31	-0.11671866
8	0x3e28c500	0.164814
9	0x3d697141	0.056992773
10	0xbd150345	-0.03638007
11	0x3cdc3533	0.026880836
12	0xbde2d8e0	-0.11076522
13	0x3df9ed78	0.12203497
14	0xbc89db14	-0.016828097
15	0x3e32a6d6	0.17446455
16	0xbc613639	-0.013745838
17	0xbd65e15d	-0.056123126
18	0xbc832b6b	-0.016011914
19	0xbdae276f	-0.08503615
20	0xbce28d7f	-0.027655361
21	0x3d14cf01	0.036330227
22	0xbd8bf988	-0.06834704
23	0xbce5030a	-0.02795555
24	0xbd9e7185	-0.07736496
25	0xbb9793d4	-0.004625777
26	0x3c8be64a	0.017077584
27	0x3d5c1e79	0.05374
28	0xbc6a6b30	-0.014307782
29	0x3d35de59	0.0444015
30	0xbc4208d1	-0.011842922
31	0x3c297cbe	0.010344682
32	0xbdabb549	-0.08384187
33	0xbcd67023	-0.026176518
34	0xbd8d8f64	-0.06912115
35	0xbd0745d2	-0.03302557
36	0xbce0c400	-0.02743721
37	0x3c0be088	0.008537419
38	0xbdd7c6d2	-0.10535969
39	0xbcd31706	-0.025767814
40	0xbdaa4aec	-0.083150715
41	0xbd1c6292	-0.03817994
42	0xbd554ccc	-0.052075192
43	0x3d3931ca	0.0452135
44	0xbcbb02b3	-0.022828436
45	0x3d388c7e	0.04505586
46	0xbbc08b12	-0.0058759535
47	0x3e123ed8	0.14281785
48	0xbc88e966	-0.016712856
49	0xbca7d3fd	-0.020486826
50	0x3d531678	0.0515351
51	0x3e3494d3	0.17634897
52	0x3c10a673	0.008828747
53	0xbce3ccde	-0.02780765
54	0xba9d2d7d	-0.0011991706
55	0xbccb0009	-0.02478029
56	0x3d902c37	0.07039683
57	0x3dbde5ee	0.09272371
58	0xbe02f7a0	-0.12789774
59	0x3d9272b2	0.07150783
60	0x3da22665	0.079174794
61	0xbd703326	-0.05864253
62	0x3ca1f089	0.019768016
63	0x3ce20c8f	0.027593879
64	0x3d934b39	0.07192082
65	0x3dd4f500	0.103982925
66	0x3c90361c	0.017603926
67	0x3e35f7f7	0.17770372
68	0xbd751c88	-0.059841663
69	0xbc13aa33	-0.009012747
70	0xbc02ae40	-0.007976115
71	0x3b8224bc	0.0039716642
72	0x3d261b4f	0.040553387
73	0xbe0af41a	-0.1356968
74	0x3e2e6129	0.17029251
75	0xbc9d3b50	-0.019193321
76	0x3dbb388f	0.09141647
77	0x3e1e56ea	0.15462843
78	0xbcb1482b	-0.021640858
79	0x3bfb956c	0.0076777246
80	0xbdc350d3	-0.095369
81	0xbd20279f	-0.039100286
82	0xbbf8b3b6	-0.0075897826
83	0xbdb18f23	-0.08669879
84	0x3e4a9a1f	0.19785355
85	0x3ccfa20b	0.025345823
86	0xbd1bb60f	-0.03801542
87	0xbdf3d88c	-0.119065374
88	0x3bd4bb33	0.0064920424
89	0x3c9f28c8	0.019428626
90	0xbdaf454e	-0.08558141
91	0xbd1ac699	-0.037787054
92	0xbcd956a3	-0.02653057
93	0x3d6b0619	0.057378862
94	0xbd7bec05	-0.061504383
95	0xbc7bca7d	-0.015368101
96	0x3bc65f90	0.0060538724
97	0x3de61c3f	0.11235856
98	0xbc501d32	-0.012702273
99	0xbd4dc739	-0.05023882
100	0x3d81ed49	0.06344087
101	0x3d39a1b4	0.045320228
102	0x3cf5d3b0	0.030008167
103	0x3e05def1	0.13073327
104	0xbd22ac74	-0.039715245
105	0xbdbbba5c	-0.091664046
106	0x3dada6fc	0.08479115
107	0xbd79fee5	-0.061034102
108	0xbd8b6810	-0.06806958
109	0xbd00c1ba	-0.031434752
110	0x3d9e0ce2	0.07717301
111	0x3d9a3b25	0.07530812
112	0xbdbf1b3a	-0.09331365
113	0xbdb9fb71	-0.09081162
114	0xbd831e65	-0.06402282
115	0x3d5ba7ce	0.053626828
116	0xbd91a87a	-0.071122125
117	0x3d2adea0	0.041716218
118	0xbd0585ea	-0.032598414
119	0xbce7d122	-0.028297964
120	0xbddf12e2	-0.108922735
121	0xbe02d3b3	-0.1277607
122	0x3e1a7c39	0.1508645
123	0x3d2ccfbb	0.042190295
124	0xbd72252e	-0.05911749
125	0x3c5e375d	0.013563004
126	0x3df9902c	0.12185702
127	0x3d155549	0.036458287
128	0xbd4212ac	-0.04738109
129	0x3d90ea87	0.070759825
130	0xbd8b5033	-0.06802406
131	0x3dc4ccac	0.096093506
132	0xbd112546	-0.035435937
133	0xbe0d2131	-0.13782193
134	0xbc7276ab	-0.0147988
135	0x3dcc9f14	0.09991279
136	0x3d2d1189	0.04225305
137	0x3d8e55b0	0.06949937
138	0xbccf5b0b	-0.025311967
139	0x3e26061e	0.16213271
140	0xbd8b4f64	-0.06802252
141	0x3d38c203	0.0451069
142	0x3c9d4b8a	0.019201059
143	0xbd54c649	-0.051946912
144	0xbd84dcb8	-0.06487411
145	0x3d3499ed	0.044092108
146	0xbdf158a8	-0.11784488
147	0xbdcafa46	-0.09911017
148	0xbddc2f3c	-0.10751197
149	0x3e33cdef	0.17559026
150	0xbe161f13	-0.14660291
151	0xbd193749	-0.03740624
152	0x3d423cc0	0.047421217
153	0x3db71b3e	0.08940743
154	0x3dd7049b	0.10498925
155	0xbe369d8d	-0.17833538
156	0xbda9fd20	-0.08300233
157	0x3b0447fe	0.0020184512
158	0x3d3a8d46	0.045544885
159	0x3cc00c86	0.023443472
160	0x3cb5728b	0.022149345
161	0x3c157f55	0.009124597
162	0x3e2c8f65	0.16851576
163	0x3b4d8d06	0.0031364574
164	0xbd442029	-0.047882233
165	0x3c9d8faa	0.019233543
166	0x3d3318f9	0.043724988
167	0xbce76734	-0.028247453
168	0xbd459cf2	-0.048245378
169	0x3e001534	0.12508088
170	0xbdd84871	-0.10560692
171	0x3c9f43bb	0.019441476
172	0x3d212da1	0.039350156
173	0x3d592d30	0.05302161
174	0x3dcbe0df	0.09955
175	0x3dd2ed16	0.10299127
176	0xbdad838e	-0.08472358
177	0xbe01bad0	-0.1266892
178	0x3cddee8b	0.027091285
179	0xbd5a3dad	-0.053281475
180	0xbbf8eab0	-0.0075963363
181	0x3c28533c	0.010273751
182	0x3cfd90d6	0.030952852
183	0xbdddae0a	-0.10824211
184	0xbdb917e1	-0.09037758
185	0x3ce39f90	0.027786046
186	0x3b084d41	0.0020798
187	0x3db8f568	0.090311825
188	0x3c819aae	0.015820827
189	0xbd037cd5	-0.03210147
190	0x3cf1c2f9	0.029511916
191	0x3d58c096	0.05291804
192	0x3e58f1a8	0.21185935
193	0x3e0f270c	0.13979739
194	0x3d9f5c99	0.077813335
195	0x3dbeff7a	0.09326072
196	0xbda65267	-0.08121186
197	0x3e22720c	0.15863818
198	0x3c18d06b	0.0093270345
199	0x3cce5dbd	0.025191182
200	0x3cf540cd	0.029938126
201	0xbdc26049	-0.09491021
202	0x3d172455	0.036899883
203	0xba7e435e	-0.00096993695
204	0x3d8da158	0.069155395
205	0xbe2d9a2f	-0.16953348
206	0x3d1177f1	0.035514776
207	0xbd8fbe49	-0.07018716
208	0xbd8f40d4	-0.06994787
209	0xbde2b498	-0.11069602
210	0x3ca72200	0.020401955
211	0xbc41eb35	-0.011835863
212	0x3af021f6	0.0018320668
213	0xbd56b3e5	-0.052417655
214	0x3c2a79f5	0.010405053
215	0x3ca99366	0.020700168
216	0xbd4a884c	-0.04944639
217	0xbd0ecd3c	-0.034863696
218	0x3cd22d92	0.025656495
219	0xbd2f8417	-0.04285058
220	0x3ddc7de5	0.107662
221	0xbe10f909	-0.141575
222	0xbd56f374	-0.05247827
223	0x3d7dacbd	0.061932314
224	0xbe0028ca	-0.1251556
225	0x3cba2bf4	0.022726037
226	0x3d4eeeb4	0.050520614
227	0x3e16ac56	0.14714178
228	0xbd62eab6	-0.05539962
229	0xbe072d88	-0.13200963
230	0x3cf6e65a	0.030139137
231	0x3e041732	0.12899473
232	0x3d8b7051	0.06808532
233	0xbe0f3de5	-0.13988455
234	0xbc6cd5e7	-0.014455295
235	0xbc4789b0	-0.012178823
236	0xbddac287	-0.106816344
237	0x3d084359	0.033267353
238	0xbc109e5a	-0.008826816
239	0xbc8952ee	-0.016763177
240	0x3c538d84	0.012912158
241	0x3d68f70b	0.056876224
242	0x3c94b269	0.018151479
243	0xbd47b224	-0.048753873
244	0x3d774f6d	0.06037848
245	0x3cf58216	0.029969256
246	0x3dc7d7d8	0.09757966
247	0xbdab66f3	-0.083692454
248	0x3dbb86f7	0.09156602
249	0x3b438c67	0.0029838325
250	0xbdb2244b	-0.086983286
251	0xbcc68b41	-0.024236323
252	0x3d71625c	0.058931693
253	0x3d4a780b	0.04943089
254	0xbd75472a	-0.05988232
255	0x3d089e28	0.033353955

model.dwc1.norm.bias f4 [1, 64, 1, 1]
0	0xbca55171	-0.020180436
1	0xbebcf068	-0.36902165
2	0xbe6293ec	-0.2212674
3	0xbea290d4	-0.3175112
4	0xbe561a8f	-0.20908569
5	0xbe469bf1	-0.19395424
6	0xbd57125a	-0.052507736
7	0xbdaac968	-0.083391964
8	0x3c09988d	0.008398187
9	0xbeb120e1	-0.34595397
10	0xbda22861	-0.07917858
11	0xbd5b4275	-0.053530175
12	0xbe1e22ee	-0.15443012
13	0x3e277864	0.16354519
14	0xbe518bf0	-0.20463538
15	0xbe3a593a	-0.181981
16	0xbe64b51e	-0.22334716
17	0xbe2c987c	-0.16855043
18	0xbcd64cca	-0.026159663
19	0xbd579c65	-0.052639384
20	0xbd777568	-0.0604147
21	0xbd84155d	-0.06449387
22	0x3eab6f75	0.33483472
23	0xbdcefef2	-0.10107221
24	0xbd75ce8b	-0.060011428
25	0xbd6e586b	-0.05818979
26	0xbe432537	-0.19057165
27	0x3ea7a53f	0.3274326
28	0xbe4318f4	-0.19052488
29	0x3e7c3757	0.24630485
30	0xbce095bc	-0.027415149
31	0xbd7234d5	-0.059132416
32	0xbd9a0b1e	-0.07521652
33	0xbd40dc66	-0.04708519
34	0xbd506bfa	-0.050884224
35	0x3e540f54	0.20708972
36	0xbd715ff7	-0.05892941
37	0x3ebb171a	0.36541063
38	0xbe6fb5f5	-0.23409255
39	0x3e0275d9	0.12740268
40	0xbe6b86ea	-0.23000684
41	0xbe825588	-0.2545588
42	0xbe9545cf	-0.29154822
43	0xbe6a2f6c	-0.22869653
44	0xbe545b5c	-0.20737976
45	0xbefcdf40	-0.49389076
46	0xbe4ca824	-0.19986016
47	0xbd7fd4bd	-0.062458742
48	0xbd44d17a	-0.048051335
49	0xbd7974b0	-0.060902297
50	0xbd80e2b9	-0.06293244
51	0xbd9c06e2	-0.076185
52	0xbe511adf	-0.20420407
53	0xbd94424c	-0.072392076
54	0x3c142791	0.0090426365
55	0xbd522f4c	-0.051314637
56	0xbd7e1e25	-0.062040467
57	0xbd6bfef0	-0.057616174
58	0xbe92a10e	-0.286385
59	0xbec78713	-0.3897024
60	0xbe10e7fe	-0.14150998
61	0xbe3ef12f	-0.18646692
62	0xbe483a10	-0.19553399
63	0xbd965f93	-0.07342448

model.dwc1.norm.weight f4 [1, 64, 1, 1]
0	0x3f92b644	1.1461873
1	0x3f709487	0.93976635
2	0x3f99ee37	1.2025822
3	0x3fb73c41	1.4315263
4	0x3f98bf96	1.1933467
5	0x3f7e1397	0.9924864
6	0x3f713768	0.9422517
7	0x3f6c5568	0.9231782
8	0x3f770c71	0.9650336
9	0x3f5bbb9f	0.8583316
10	0x3f6c61e5	0.92336875
11	0x3f71171f	0.94175905
12	0x3f65b446	0.897282
13	0x3f91dbac	1.1395164
14	0x3fa460b0	1.2842007
15	0x3f82cd33	1.0218872
16	0x3fb7aaa2	1.4348948
17	0x3f4bf96f	0.7967748
18	0x3f7b7156	0.9821981
19	0x3f6ecaca	0.9327818
20	0x3f709c4d	0.93988496
21	0x3f705912	0.9388591
22	0x3f1ae2a3	0.6050207
23	0x3f70751a	0.9392868
24	0x3f70d7bf	0.940792
25	0x3f70c927	0.94056934
26	0x3f8135d6	1.0094554
27	0x3f913a62	1.1345942
28	0x3f8a2364	1.079205
29	0x3f6a43a4	0.9150946
30	0x3f62df7f	0.8862228
31	0x3f709dde	0.93990886
32	0x3f968a7a	1.176101
33	0x3f71a53d	0.9439276
34	0x3f712bb8	0.94207335
35	0x3f5b4a4b	0.8566024
36	0x3f70abff	0.94012445
37	0x3f982c33	1.1888489
38	0x3fb344b7	1.4005345
39	0x3f32ed66	0.6989349
40	0x3f5557ef	0.833373
41	0x3fa21e60	1.266552
42	0x3fa3ec2a	1.2806447
43	0x3f9048d3	1.1272224
44	0x3f763e86	0.96189153
45	0x3f52c66c	0.8233402
46	0x3f4ed551	0.80794245
47	0x3f7072ca	0.93925154
48	0x3f7a1ab9	0.97697026
49	0x3f709907	0.939835
50	0x3f707dea	0.9394213
51	0x3f751097	0.9572844
52	0x3f5247d7	0.8214087
53	0x3f6ff3c8	0.93731356
54	0x3f902d7f	1.1263884
55	0x3f71bbef	0.9442739
56	0x3f70b41c	0.94024825
57	0x3f70c187	0.940453
58	0x3f479d91	0.779748
59	0x3f7c0074	0.9843819
60	0x3f661a24	0.8988364
61	0x3f4f4451	0.8096362
62	0x3f4cba34	0.79971623
63	0x3f72e2b1	0.94877154

model.dwc1.conv.weight f4 [64, 1, 9, 1]
0	0x3d3ab6dc	0.045584545
1	0x3d909ae7	0.07060795
2	0x3d8ebe94	0.06969944
3	0x3dad6c21	0.084678896
4	0x3d80b6a6	0.062848374
5	0x3d862d45	0.06551603
6	0x3d4d6430	0.050144374
7	0x3d6d8494	0.057987764
8	0x3cbc3c0b	0.02297785
9	0x3d91b90d	0.07115374
10	0x3d85054e	0.064951524
11	0x3d95af22	0.073087946
12	0x3dbf6b3c	0.09346625
13	0x3dd208c9	0.10255582
14	0x3db5ac97	0.088708095
15	0x3d854cc7	0.06508785
16	0x3d833cab	0.06408056
17	0x3d87857f	0.06617259
18	0x3dc733f5	0.09726707
19	0x3dba3918	0.09092921
20	0x3db389c2	0.087665096
21	0x3d829d3c	0.06377646
22	0x3d39879a	0.045295335
23	0x3d0a0840	0.033699274
24	0x3d95546b	0.07291492
25	0x3d93baf7	0.07213395
26	0x3d84e878	0.064896524
27	0x3dfaf79b	0.12254258
28	0x3db4878f	0.08814918
29	0x3d860ea8	0.06545764
30	0x3d7beb86	0.06150391
31	0x3d64fe59	0.055906627
32	0x3d52f6a4	0.051504746
33	0x3d86cbb2	0.065818205
34	0x3d9901b3	0.07471027
35	0x3dcb799a	0.09935303
36	0x3d9d97d6	0.07694976
37	0x3d9b6520	0.075876474
38	0x3dab64d3	0.0836884
39	0x3d98945e	0.07450174
40	0x3d98f8ff	0.07469367
41	0x3d886ee7	0.06661778
42	0x3daed083	0.08535864
43	0x3da28b6d	0.079367496
44	0x3dc034bd	0.09385059
45	0x3dafda8c	0.085866064
46	0xbcd329a4	-0.025776692
47	0x3d210f04	0.03932096
48	0x3d87c324	0.06629017
49	0x3df4c7a1	0.11952139
50	0x398a4bcf	0.00026377893
51	0xbcb340a7	-0.021881415
52	0xbd10b6b4	-0.03533049
53	0x3d03462b	0.03204934
54	0xbb6acabf	-0.0035826412
55	0xbb477185	-0.0030432653
56	0xbb0d695f	-0.0021577699
57	0xbaee3206	-0.0018172867
58	0x3927a8d4	0.00015989254
59	0xbb7f62fa	-0.0038968907
60	0xbb964c9e	-0.00458677
61	0x3aa88204	0.001285613
62	0x3a850314	0.0010148012
63	0x3bd4fb02	0.006499649
64	0xba4aa68f	-0.00077305076
65	0x3c22fc4c	0.009947848
66	0xbb1b1104	-0.0023661265
67	0xbbbf52dd	-0.0058387355
68	0xbca451db	-0.020058563
69	0x3c677d50	0.014128998
70	0xbc33b376	-0.01096808
71	0x3adb73a4	0.0016742838
72	0x3d57334c	0.052539155
73	0x3d63c76b	0.0556101
74	0x3c0e2533	0.008675861
75	0xbcb2a6d8	-0.021808073
76	0xbccc9e50	-0.024977833
77	0xbb1269e8	-0.0022340957
78	0x3cf218cf	0.029552845
79	0x3bf21de4	0.007388817
80	0xbbcdbc90	-0.006278582
81	0x3d05a05d	0.032623637
82	0x3d31b5a1	0.043386105
83	0x3d7c1bb2	0.06154985
84	0x3d766802	0.060157783
85	0x3d842a0b	0.064533316
86	0x3d5d03d8	0.053958744
87	0x3d31819a	0.04333649
88	0x3d1b5e16	0.037931524
89	0x3d184cd5	0.037182648
90	0xbd93d780	-0.07218838
91	0xbd8da124	-0.06915501
92	0xbd9275f0	-0.07151401
93	0xbd78eda2	-0.0607735
94	0xbd16ef3f	-0.036849257
95	0xbd2a3e45	-0.04156329
96	0xbd31054e	-0.04321795
97	0xbd8a9fc2	-0.06768753
98	0xbd8bdb57	-0.06828945
99	0xbedd3b93	-0.43209514
100	0xbee1ab21	-0.44075873
101	0xbedfaf73	-0.43688545
102	0xbee25600	-0.44206238
103	0xbee35a69	-0.44404915
104	0xbede10ff	-0.43372342
105	0xbef46ac0	-0.47737694
106	0xbef40792	-0.47662026
107	0xbef1f2c3	-0.47255525
108	0xbbb1496a	-0.005410363
109	0x3c2c58c3	0.010519209
110	0x3b38bc4d	0.0028188408
111	0xbc1dc5a7	-0.0096296435
112	0xbc65dc21	-0.014029534
113	0xbba14e3d	-0.004922657
114	0xbb8688a8	-0.004105646
115	0x3c203e5a	0.009780491
116	0x3b292390	0.002580855
117	0x3d0f8ed4	0.03504832
118	0x3d3f707a	0.046738125
119	0x3d3c2559	0.045934055
120	0x3cb4d563	0.022074407
121	0x3d2e2551	0.042516056
122	0x3c8fe6bd	0.01756608
123	0x3cf61a5b	0.030041864
124	0x3c87279e	0.016498383
125	0x3ca96e73	0.02068255
126	0x3da15291	0.078770764
127	0x3d72fca5	0.05932297
128	0x3d5792c2	0.052630194
129	0x3d1e35b5	0.038625438
130	0x3d1c51ad	0.03816383
131	0x3d2e1b88	0.042506725
132	0x3d42d503	0.047566425
133	0x3d68fc16	0.056881033
134	0x3d9ce023	0.07659938
135	0x3d1aa2f3	0.037753057
136	0x3d7d50f8	0.061844796
137	0x3cec6d16	0.02886061
138	0x3d52d515	0.051472742
139	0x3d2199fa	0.039453484
140	0x3d6a499c	0.057199106
141	0x3caed006	0.021339428
142	0x3d0aa7a0	0.033851266
143	0x3d04a750	0.032386124
144	0x3dd49144	0.1037927
145	0x3da2ef99	0.07955856
146	0x3d927609	0.0715142
147	0x3d4cca7d	0.049997795
148	0x3d5c1b02	0.053736694
149	0x3d7a62d7	0.061129417
150	0x3d719b8d	0.058986235
151	0x3da2c1dc	0.07947132
152	0x3dd8f011	0.10592664
153	0x3c10ea2e	0.008844895
154	0x3c2408b6	0.0100118425
155	0xbb9a4858	-0.004708331
156	0x3babd98a	0.0052444385
157	0xbca0d5bd	-0.019633168
158	0x3c0d10c0	0.008609951
159	0xbb58d833	-0.003308785
160	0xba9cda38	-0.001196689
161	0xbbf0a8eb	-0.0073443553
162	0xbb1af113	-0.0023642227
163	0x3c2480f6	0.010040512
164	0x3d244501	0.04010487
165	0x3cb42d5f	0.02199429
166	0x3ceb7dbe	0.028746482
167	0x3c5535a4	0.013013277
168	0x3cf8bbcf	0.030362992
169	0x3ca7a065	0.020462224
170	0x3ba322f1	0.0049785306
171	0x3b286e6c	0.0025700582
172	0x3bdfd235	0.0068304786
173	0x3b3ed3fa	0.0029118047
174	0xbb71ada4	-0.003687718
175	0xbc390c0d	-0.011294377
176	0xbbcad2d6	-0.0061896844
177	0x3c2aaa31	0.010416553
178	0xbc6ac8eb	-0.014330129
179	0x3be760f4	0.0070611183
180	0xbbb25302	-0.005442024
181	0xbc115161	-0.0088695
182	0x3b8fd08b	0.004388874
183	0x3bbe01ff	0.005798578
184	0xbba69263	-0.0050833686
185	0x3ad045df	0.0015889964
186	0x3b95ad02	0.0045677433
187	0xbb63cc76	-0.003475932
188	0xbb93d8df	-0.004511937
189	0xb9ddfa3d	-0.00042338847
190	0x3bb024df	0.005375489
191	0xbb39d9a0	-0.0028358474
192	0x3af1cfad	0.0018448733
193	0xbb299b40	-0.002587989
194	0xbb0ad79e	-0.0021185647
195	0x3bbc2ae6	0.0057424186
196	0xbaed1b25	-0.0018089755
197	0x3a32a695	0.0006814984
198	0x3d3f2bc7	0.04667261
199	0x3d149738	0.036277026
200	0x3c444f2b	0.011981766
201	0xbcdc3513	-0.026880777
202	0xbd168127	-0.036744263
203	0x3c0d14e8	0.0086109415
204	0x3d4452cb	0.04793052
205	0x3cfc66a3	0.03081066
206	0x3d035748	0.03206566
207	0xbd3dfcd8	-0.04638371
208	0xbd82fa90	-0.06395447
209	0xbcf158c7	-0.029461278
210	0xbd89d3e7	-0.0672987
211	0xbd8e28a8	-0.06941348
212	0xbcbcfa85	-0.023068676
213	0xbd94370e	-0.07237063
214	0xbd96659a	-0.07343598
215	0xbc5bb23a	-0.013409192
216	0xb7550a8d	-1.2698246e-05
217	0xbbbbc366	-0.0057300804
218	0xbbb5ee0b	-0.0055520586
219	0xbae1e206	-0.0017233498
220	0xbae11922	-0.0017173628
221	0x3b7962fa	0.003805338
222	0xbb3a1b5b	-0.0028397653
223	0xbb8bc5e5	-0.004265534
224	0xbb87f408	-0.004148964
225	0x3a664aea	0.0008784967
226	0x3b2b4269	0.0026132113
227	0xbb045727	-0.0020193548
228	0xbb00f9bc	-0.0019680103
229	0xba65fe56	-0.0008773556
230	0x3bc62c66	0.006047773
231	0xbb2977e0	-0.0025858805
232	0x3b504edd	0.0031785287
233	0xbb5d0234	-0.0033723237
234	0xbc800948	-0.015629426
235	0xbce16397	-0.027513308
236	0xb9824e1d	-0.0002485373
237	0xbc436ccc	-0.011927795
238	0xbce9bd29	-0.028532581
239	0xbd257212	-0.04039199
240	0xbbd749af	-0.006570063
241	0xbd411fd7	-0.047149505
242	0x3c3f7443	0.011685434
243	0xbcab942d	-0.02094468
244	0xbce08dc1	-0.027411344
245	0xbcfab461	-0.03060359
246	0xbce546ac	-0.0279878
247	0xbd17101b	-0.036880594
248	0xbd36aa9b	-0.044596296
249	0xbc8d81f8	-0.017273888
250	0xbd249ff8	-0.04019162
251	0xbd020111	-0.0317393
252	0x3c2f5f27	0.010703838
253	0xbbc21210	-0.0059225634
254	0xbc93f28f	-0.018059997
255	0xbc038241	-0.00802666

model.dwc2.norm.bias f4 [1, 64, 1, 1]
0	0xbcf54743	-0.029941207
1	0x3d4f03d9	0.05054078
2	0x3da09ff0	0.07843006
3	0xbe37b01c	-0.17938274
4	0xbd8ca7f3	-0.06867971
5	0x3e5f46b4	0.21804315
6	0xbdfba507	-0.12287336
7	0x3b9a8aaf	0.0047162394
8	0xbe67aaea	-0.22623792
9	0xbe6ece2c	-0.23320836
10	0xbdba97db	-0.091109954
11	0xbc76b777	-0.01505839
12	0xbc6a0b70	-0.0142849535
13	0x3d55a5e2	0.05216015
14	0xbd96af3a	-0.073576406
15	0x3bcc9799	0.006243658
16	0xbdc1127f	-0.09427356
17	0xbe031099	-0.127993
18	0x3df3ba88	0.119008124
19	0xbd198b29	-0.03748623
20	0xbdde2b23	-0.108480714
21	0xbdcbb71c	-0.09947035
22	0xbd8fb97a	-0.07017799
23	0xbd000576	-0.031255208
24	0xbd52761d	-0.051382173
25	0x3d2030ab	0.039108913
26	0xbce1fa22	-0.027585093
27	0xbcd228dc	-0.025654249
28	0xbd4e47f4	-0.05036159
29	0xbe17725b	-0.14789717
30	0xbcf844e8	-0.030306295
31	0xbd7fc05d	-0.06243931
32	0xbcf00e92	-0.029303823
33	0x3c79b280	0.015240312
34	0xbbb8c371	-0.005638533
35	0xba386c0d	-0.0007035144
36	0xbe195e7b	-0.14977448
37	0x3c84e143	0.016220694
38	0xbdf21a3a	-0.118214086
39	0xbb6d3186	-0.0036192848
40	0xbb628d9c	-0.003456927
41	0x3cfaab24	0.030599184
42	0xbe24d677	-0.16097437
43	0x3d8f8810	0.07008374
44	0xbdef2230	-0.116764426
45	0xbd08340d	-0.033252764
46	0xbda33496	-0.07969014
47	0xbddf9c27	-0.109184556
48	0xbd70f42c	-0.05882661
49	0xbdb441d2	-0.08801617
50	0xbdacabda	-0.084312156
51	0xbcddffc3	-0.027099496
52	0xbd838892	-0.06422533
53	0xbd0197d7	-0.031638946
54	0x3ba1c0e7	0.004936326
55	0x3cc679d3	0.024228012
56	0xbe512af0	-0.20426536
57	0xbd650f66	-0.05592289
58	0xbe412165	-0.18860395
59	0xbe440514	-0.19142562
60	0xbd1cb943	-0.038262617
61	0xbde1c917	-0.11024683
62	0xbc917c7b	-0.017759552
63	0xbdb54a80	-0.088521

model.dwc2.norm.weight f4 [1, 64, 1, 1]
0	0x3fa583b5	1.2930819
1	0x3f832116	1.0244472
2	0x3fba1c00	1.4539795
3	0x3fd1373e	1.6344984
4	0x3fcba393	1.5909294
5	0x3f8581ef	1.0430278
6	0x3f6977cb	0.91198415
7	0x3f8af7cf	1.0856875
8	0x3e5c4a2d	0.21512671
9	0x3f432513	0.76228446
10	0x3fb6cb65	1.4280821
11	0x3f92a97b	1.1457971
12	0x3f88830a	1.066499
13	0x3f98ba98	1.1931944
14	0x3f74ff7c	0.9570234
15	0x3f91186a	1.1335576
16	0x3fdbd036	1.7172916
17	0x3f6fe82b	0.93713635
18	0x3fb18ab1	1.387045
19	0x3f71090e	0.9415444
20	0x3f6cc3fb	0.9248654
21	0x3fd16c70	1.6361217
22	0x3f7633b0	0.9617262
23	0x3fbf4b16	1.494479
24	0x3f6f564b	0.9349105
25	0x40037863	2.0542228
26	0x3fbdaa32	1.4817564
27	0x4038d73d	2.888137
28	0x3f771f94	0.9653256
29	0x3f53294d	0.82484895
30	0x401a18d5	2.4077656
31	0x3f9e2fe5	1.2358366
32	0x3ffbd0dc	1.9673114
33	0x3fe7f7fb	1.8122553
34	0x3f85ab17	1.0442837
35	0x3f5b8c48	0.8576093
36	0x3f6ce2c3	0.9253351
37	0x3f8b34ba	1.0875466
38	0x3fe84c4b	1.8148283
39	0x3f5506a2	0.83213246
40	0x3fc8a82c	1.5676322
41	0x3f75ca10	0.9601145
42	0x3f6b09f9	0.9181209
43	0x3f8197c5	1.0124441
44	0x3f809ff5	1.0048815
45	0x3f5d28d7	0.8639044
46	0x3f7ab637	0.9793429
47	0x4004226d	2.0646012
48	0x3fc2a20b	1.5205702
49	0x3ff9f236	1.9527042
50	0x3ff7e416	1.9366481
51	0x3f738220	0.9512043
52	0x3f994bde	1.1976278
53	0x3fa2e5ad	1.2726341
54	0x3fa74f51	1.307108
55	0x3fff170e	1.9928911
56	0x3f827e65	1.0194823
57	0x3fb2b209	1.3960582
58	0x3f6c8c0d	0.924012
59	0x3f60ccdb	0.87812585
60	0x3ffe52e8	1.9869051
61	0x3fbed6f1	1.4909345
62	0x3fcfee91	1.624468
63	0x3fc47172	1.5347121

model.dwc2.conv.weight f4 [64, 1, 21, 1]
0	0xbd4d1763	-0.05007113
1	0xbd7d850b	-0.061894458
2	0xbd5de456	-0.054172836
3	0xbd7c0abe	-0.061533682
4	0xbd4fe39d	-0.05075418
5	0xbd680dbd	-0.056653727
6	0xbd96aa54	-0.07356706
7	0xbda1b0ba	-0.07895036
8	0xbd47fea9	-0.048826847
9	0xbd433e01	-0.047666553
10	0xbd516e5c	-0.051130638
11	0xbda5fd49	-0.08104951
12	0xbd8ecbb0	-0.06972444
13	0xbda0acfa	-0.07845493
14	0xbd1a3390	-0.03764683
15	0xbd350901	-0.04419804
16	0xbd9f1546	-0.077677295
17	0xbd0f39b5	-0.034967143
18	0xbd229f0a	-0.039702453
19	0xbd0f8632	-0.035040088
20	0xbd14ca93	-0.036326002
21	0x3da02b5a	0.07820769
22	0x3d9409df	0.07228445
23	0x3db7afa6	0.08969049
24	0x3da13b0c	0.078725904
25	0x3dcb0eeb	0.09914955
26	0x3dbf2fee	0.09335314
27	0x3db2fb9b	0.08739396
28	0x3d91f2c6	0.071263835
29	0x3d9ca287	0.07648187
30	0x3d653f73	0.055968713
31	0x3d72111a	0.05909834
32	0x3d4bc205	0.04974558
33	0x3d9646c2	0.07337715
34	0x3d95023e	0.07275818
35	0x3d99b7e9	0.07505781
36	0x3d5e0ffb	0.05421446
37	0x3da58849	0.08082635
38	0x3d9ecdff	0.077541344
39	0x3d961a57	0.07329243
40	0x3d8d26a3	0.06892135
41	0x3d58e22b	0.052950066
42	0xbcdec76a	-0.027194697
43	0xbd0fbf2f	-0.035094436
44	0xbc947f6d	-0.018127168
45	0xbcda065b	-0.026614359
46	0x3c1211a9	0.008915343
47	0xbd0f6ea0	-0.03501761
48	0x3c931c7b	0.017957916
49	0xbd2f9d30	-0.042874515
50	0x3ce19858	0.027538463
51	0xbd18702b	-0.037216347
52	0x3d260dde	0.04054057
53	0xbd207a9c	-0.03917943
54	0x3c77b3a0	0.0151185095
55	0xbd0eb360	-0.034839034
56	0xba7ec3fa	-0.0009718534
57	0xbcb0f224	-0.021599837
58	0xbca13e94	-0.01968316
59	0xbc7c343e	-0.015393315
60	0xbc6ac0b6	-0.014328172
61	0xbcaee69d	-0.0213502
62	0xbcd5365b	-0.026026895
63	0x3d9f908e	0.077912435
64	0x3d8fb617	0.07017153
65	0x3d66b509	0.056324992
66	0x3d75c9bd	0.060006846
67	0x3d56e6a8	0.052466065
68	0x3d3018c7	0.04299238
69	0x3cf8038f	0.030275134
70	0x3cc72d4e	0.024313595
71	0x3cc628d3	0.024189388
72	0x3c8ee0ef	0.017441241
73	0x3c4c1579	0.012456291
74	0x3c834be4	0.016027398
75	0x3c91639d	0.017747695
76	0x3c381797	0.011236093
77	0x3cb4e1b1	0.022080274
78	0x3cf3e8f2	0.029774163
79	0x3d2ee26d	0.042696405
80	0x3d4a8d55	0.04945119
81	0x3d319bdb	0.043361526
82	0x3d4ed21d	0.05049335
83	0x3d8b27b5	0.06794683
84	0x3bc696b8	0.0060604475
85	0xbb01b456	-0.0019791326
86	0x3c1ce657	0.009576402
87	0x3aa2abc6	0.0012410812
88	0xbbfdffc6	-0.007751438
89	0x3b3f6a87	0.0029207782
90	0x3c54f3a7	0.012997544
91	0x3c61d50c	0.0137837045
92	0x3cf55e3d	0.029952163
93	0x3d3674d3	0.044545006
94	0x3d27ac57	0.04093584
95	0x3cf027a9	0.029315786
96	0x3ccd2f89	0.02504708
97	0x3ce9767b	0.028498879
98	0x3cc1e9bd	0.023671025
99	0x3cf8e249	0.030381339
100	0x3d2dca28	0.04242912
101	0x3d0e138f	0.03468662
102	0x3d092009	0.033477817
103	0x3d00927a	0.03138969
104	0x3cfe9776	0.031078082
105	0xbc8eefeb	-0.017448386
106	0xbc03b09f	-0.008037715
107	0xbb4d4ec6	-0.003132747
108	0xbb2fdac9	-0.0026833287
109	0xbc4aa7a0	-0.0123690665
110	0xbc9cb660	-0.019129932
111	0xbc52f77f	-0.0128763905
112	0xbcb38286	-0.021912824
113	0xbc430a90	-0.011904374
114	0xbc0f5886	-0.008749133
115	0xbb2d6eda	-0.0026463778
116	0xbc700f90	-0.014652148
117	0xbc604b24	-0.01368979
118	0x3a0d0ec1	0.00053809216
119	0xbcb904ac	-0.022585236
120	0xbcf20277	-0.029542191
121	0xbbe081e3	-0.006851421
122	0xbc0dd5c2	-0.008656921
123	0xbc9528aa	-0.018207867
124	0xbbd25543	-0.0064188554
125	0x3af2f7e4	0.0018537012
126	0xbcbd05ec	-0.023074113
127	0xbd006a30	-0.03135127
128	0xbd1ea4e4	-0.03873147
129	0xbd1143f6	-0.035465203
130	0xbc42dece	-0.011893941
131	0xbd176eb8	-0.036970824
132	0xbd1eca9b	-0.03876744
133	0xbcd3d426	-0.025857996
134	0xbc5ac4da	-0.013352597
135	0xbc2d74ce	-0.01058693
136	0xbd0f8c65	-0.035046
137	0xbca9ea7f	-0.0207417
138	0xbc451f17	-0.012031338
139	0xbcac4fc4	-0.021034129
140	0xbcb4ac1d	-0.022054726
141	0xbcf21c03	-0.029554373
142	0xbd077fa8	-0.033080727
143	0xbc9e0ede	-0.019294199
144	0xbcaf6062	-0.021408264
145	0xbd24505f	-0.04011571
146	0xbce7a917	-0.02827887
147	0xbd243df4	-0.040098146
148	0xbc999dd8	-0.018752024
149	0xbd178970	-0.036996305
150	0xbd1372cf	-0.035998162
151	0xbd0980c4	-0.033570066
152	0xbcf103ae	-0.0294207
153	0xbced5b19	-0.028974103
154	0xbcaa3a3a	-0.020779718
155	0xbc83aece	-0.016074564
156	0xbd1a4133	-0.037659835
157	0xbcbcfc10	-0.023069412
158	0xbd0ff927	-0.03514972
159	0xbcad7229	-0.0211726
160	0xbd14f889	-0.036369834
161	0xbcf01693	-0.02930764
162	0xbccd9ddf	-0.025099693
163	0xbd18440b	-0.037174266
164	0xbcaef9a7	-0.021359278
165	0xbcc5df2e	-0.024154272
166	0xbcd29efb	-0.025710573
167	0xbcb14a84	-0.021641977
168	0x3ebce303	0.36891946
169	0x3ebe01e0	0.37110806
170	0x3eb8bc4e	0.36081165
171	0x3eb5349a	0.35391694
172	0x3eb44e5d	0.35216036
173	0x3eb0e96b	0.34553084
174	0x3ea96f2b	0.33092627
175	0x3ea474e3	0.32120427
176	0x3ea75a19	0.32685927
177	0x3e9c8257	0.3056819
178	0x3e9b1360	0.3028822
179	0x3e9d844c	0.30764997
180	0x3ea613f7	0.32437107
181	0x3ea6f7e3	0.32610998
182	0x3eaba3cd	0.33523408
183	0x3eac5352	0.33657318
184	0x3eaafb24	0.3339473
185	0x3eab77df	0.33489892
186	0x3ea98308	0.3310778
187	0x3ea8cc03	0.3296815
188	0x3ea829d0	0.328444
189	0x3bee7199	0.0072767255
190	0xba76036a	-0.0009384664
191	0x3b68cbe7	0.0035521926
192	0x3c10ab0d	0.008829844
193	0x3acf9fc7	0.0015840464
194	0x3bbef80c	0.0058279093
195	0x3c738845	0.014864032
196	0x3c6bb36a	0.014386037
197	0x3ca1857f	0.019716976
198	0x3ccef6e6	0.025264215
199	0x3cf68a3d	0.030095214
200	0x3ce9e642	0.028552178
201	0x3c8208a8	0.015873268
202	0x3c8e77a6	0.017391037
203	0x3c9a4e82	0.018836264
204	0xbae42b01	-0.0017407836
205	0x3a44fe99	0.00075147446
206	0xbb950529	-0.0045477343
207	0x3c3d0024	0.011535678
208	0x3be2c3db	0.0069203204
209	0xbbdb2c92	-0.006688663
210	0x3c2b7386	0.010464555
211	0xbcc2c41c	-0.023775153
212	0x38e65841	0.00010983693
213	0x3bb1a606	0.005421403
214	0xbbd7f7fc	-0.0065908413
215	0xbcd57846	-0.026058327
216	0xbc87b713	-0.016566789
217	0xbc1af6f5	-0.009458293
218	0xba8629d5	-0.0010235856
219	0x3bb60400	0.005554676
220	0xbc963566	-0.01833601
221	0xbc2608a4	-0.010133896
222	0x3bd0627e	0.0063593974
223	0x3adc7298	0.001681882
224	0xbca49fb0	-0.020095676
225	0x3b89d9dc	0.004206879
226	0xbc8b5b4d	-0.017011309
227	0xbca58ab3	-0.020207739
228	0xbadbc80a	-0.001676799
229	0xbc677f1e	-0.014129428
230	0xbad87984	-0.0016515707
231	0xbcb6e793	-0.02232722
232	0xbc56f0b8	-0.013118915
233	0xbc133035	-0.008983661
234	0x3c011888	0.007879384
235	0x3b60b014	0.0034284638
236	0x3cac3b38	0.021024331
237	0x3c9d176a	0.019176204
238	0x3ce35256	0.027749222
239	0x3cb758ba	0.022381175
240	0x3cab8087	0.02093531
241	0x3cc42b45	0.023946414
242	0x3c92b7dc	0.017909937
243	0x3c3f0c6a	0.011660675
244	0x3c3449ec	0.0110039525
245	0x3c4e4234	0.012589026
246	0x3bd4af08	0.006490592
247	0x3c814e53	0.015784418
248	0x3c9c669a	0.019091893
249	0x3cde0400	0.027101517
250	0x3d1a34e8	0.03764811
251	0x3d2c31b5	0.04203959
252	0xbd4bf2c9	-0.049792085
253	0xbd11dba0	-0.03560984
254	0xbca040d5	-0.019562164
255	0xbd4e2521	-0.050328378

model.output.weight f4 [5, 192, 1, 1]
0	0x3e7529c6	0.23941717
1	0xbeb7c3aa	-0.35891467
2	0x3e41c144	0.18921381
3	0xbe073496	-0.13203654
4	0xbe6f4066	-0.2336441
5	0xbee30277	-0.44337818
6	0xbea91e35	-0.3303086
7	0xbec06e4c	-0.3758415
8	0xbe3392cb	-0.17536466
9	0xbdb084ba	-0.086190656
10	0xbc044e8f	-0.00807537
11	0xbcb0b26d	-0.021569455
12	0xbe788d6c	-0.24272698
13	0xbe16fc19	-0.14744605
14	0xbea3d5ec	-0.31999147
15	0x3e66b847	0.22531234
16	0xbebd2f19	-0.36949995
17	0xbeb4ebda	-0.3533619
18	0x3e96dbd4	0.2946459
19	0xbe3d2c7a	-0.18473998
20	0xbea7e63d	-0.32792845
21	0xbc691c70	-0.014227971
22	0xbe15672b	-0.14590137
23	0x3d2cc8e1	0.04218376
24	0xbeafda02	-0.34346014
25	0x3d400f9d	0.04688989
26	0xbe78d238	-0.24298942
27	0xbd80dc0b	-0.0629197
28	0xbdeee8a7	-0.11665469
29	0xbe44a0da	-0.19201985
30	0xbe8dea16	-0.27717656
31	0xbe2ae33c	-0.16688246
32	0xbe339d88	-0.17540562
33	0xbe03d93c	-0.12875837
34	0xbefd0e13	-0.494248
35	0xbed7ac86	-0.42123812
36	0x3b7c0a87	0.0038458423
37	0xbe875179	-0.26429346
38	0xbde8840d	-0.11353312
39	0xbd07e472	-0.033176847
40	0xbed21db1	-0.41038278
41	0xbe304063	-0.17212062
42	0xbe9915fe	-0.2989959
43	0xbeb70683	-0.35747156
44	0xbe9483b7	-0.2900674
45	0xbe3875b7	-0.18013655
46	0xbecd02f3	-0.40041313
47	0xbe229798	-0.15878141
48	0xbe0e6eac	-0.13909405
49	0xbc462e50	-0.012096003
50	0x3ccb5b8e	0.02482393
51	0xbf13a0a1	-0.57666975
52	0xbecd8157	-0.4013774
53	0x3e6098fc	0.21933359
54	0x3e7c30d4	0.24628001
55	0xbee688cd	-0.45026246
56	0xbe9df99c	-0.308545
57	0x3e12b09f	0.14325188
58	0xbe9547a9	-0.29156235
59	0xbe9ad0bf	-0.30237386
60	0x3e8530c8	0.2601378
61	0xbe293381	-0.16523553
62	0xbd41d7fb	-0.047325116
63	0xbe1e6340	-0.15467548
64	0x3e7c037f	0.24610709
65	0xbeef5d04	-0.46750653
66	0x3dc6bbb4	0.0970377
67	0xbe4120df	-0.18860196
68	0xbe68803e	-0.2270517
69	0xbf598369	-0.8496614
70	0xbc77dc3d	-0.0151281925
71	0x3ca197ee	0.019725766
72	0xbdecf802	-0.11570741
73	0xbe457069	-0.19281162
74	0xbd312f3b	-0.043257933
75	0xbd4843ad	-0.048892666
76	0xbcc93fd0	-0.024566561
77	0x3b31a7b6	0.002710802
78	0xbec905fb	-0.39262375
79	0x3d80e1e5	0.06293086
80	0xbe250d72	-0.1611841
81	0x3ab3e790	0.0013725627
82	0x3ceff31e	0.029290732
83	0xbbed071f	-0.007233515
84	0x398f79cf	0.0002736584
85	0x3bfdc97c	0.007744966
86	0xbdc872b6	-0.097875044
87	0xb9f753de	-0.00047173997
88	0xbc50caf5	-0.012743701
89	0xbd161fcb	-0.036651414
90	0xbd9a98cb	-0.07548674
91	0x3de8ce0b	0.113674246
92	0xbd5c16cd	-0.053732682
93	0xbd89a9bc	-0.067218274
94	0xbe34b52b	-0.17647235
95	0xbd1934b4	-0.037403777
96	0xbea7b1f8	-0.32752967
97	0x3a81922d	0.0009885483
98	0x3c389f42	0.011268439
99	0xbe4788e5	-0.19485815
100	0xb8713431	-5.7507485e-05
101	0xbd31baf0	-0.043391168
102	0xbe5a224c	-0.21302146
103	0xbd82cb63	-0.06386449
104	0xbd098d06	-0.033581756
105	0xbe0994c5	-0.13435657
106	0xbe5ce5ef	-0.21572088
107	0xbda57922	-0.08079745
108	0xbdd7331a	-0.10507794
109	0xbd9c813b	-0.07641836
110	0xbd1e7e3a	-0.038694598
111	0xbbfecb56	-0.0077757044
112	0xb880866d	-6.1285544e-05
113	0xbb2d4606	-0.0026439442
114	0xbb4214c6	-0.0029614433
115	0x3c8a18dc	0.016857557
116	0xbbb1277a	-0.0054063173
117	0xbd2f1731	-0.042746726
118	0x3e5b16f0	0.21395469
119	0x3c3ae935	0.01140814
120	0xbd031472	-0.03200192
121	0xbcde9628	-0.02717121
122	0xbcf9e974	-0.030506827
123	0xbe0f37f8	-0.13986194
124	0x3cbc281d	0.022968346
125	0xbdb97e8d	-0.09057341
126	0xbc5fc8d9	-0.013658726
127	0x3c68c96f	0.014208182
128	0x3c90df57	0.017684622
129	0xbe0aebb2	-0.13566473
130	0x3c609eaa	0.013709703
131	0xbc6981d4	-0.014252145
132	0xbdb61844	-0.08891347
133	0x3d404464	0.046940222
134	0xbaadc466	-0.0013257384
135	0xbc585937	-0.013204864
136	0xbe7bb3bf	-0.24580286
137	0xbdfa2e95	-0.12215916
138	0xbdacb87e	-0.084336266
139	0xbbea3810	-0.0071477965
140	0xbdb44d7f	-0.08803844
141	0xbc94d013	-0.018165624
142	0xbc3f6442	-0.011681618
143	0xbd9ba853	-0.07600465
144	0xbddeac2a	-0.108726814
145	0x3c9ab73c	0.018886201
146	0xbda13d92	-0.07873072
147	0x3b97f3cc	0.004637217
148	0xbcb1f704	-0.021724232
149	0x3c4d4a80	0.012529969
150	0x3db75b9b	0.08953019
151	0x3dd1bfda	0.10241671
152	0xbd3261b2	-0.0435502
153	0xbd2797fc	-0.040916428
154	0xbdf5a37f	-0.11994075
155	0xbe2ad423	-0.16682486
156	0xbc66d455	-0.01408871
157	0xbf0a714c	-0.5407913
158	0xbd55ed4d	-0.05222826
159	0xbcfcf001	-0.030876162
160	0xbe029be8	-0.12754786
161	0xbe0e6e42	-0.13909248
162	0xbc65dd83	-0.014029863
163	0xbdb6eef7	-0.08932298
164	0xba874e98	-0.0010323105
165	0xbe34eac7	-0.17667685
166	0xbe1cc8f7	-0.15311037
167	0xbcebce64	-0.028784938
168	0xbd983ed8	-0.074338615
169	0x3cb7b4ec	0.022425137
170	0xbd3c4786	-0.045966648
171	0x3c277c1c	0.010222461
172	0xbd84adda	-0.06478472
173	0xbd32cbc6	-0.043651365
174	0xbe4db8da	-0.20090047
175	0x3d931932	0.0718254
176	0xbcd290d1	-0.02570382
177	0x3db02fad	0.086028434
178	0x3e295c1e	0.16539046
179	0xbc8160a3	-0.01579315
180	0x3c1b1c22	0.009467157
181	0xbccdf075	-0.025139073
182	0x3b7523c8	0.003740536
183	0xbbb43ec2	-0.0055006454
184	0xbe363906	-0.1779519
185	0x3e243475	0.16035636
186	0xbe0acb62	-0.13554147
187	0xbcac5b1a	-0.021039534
188	0x3e38ae81	0.18035318
189	0xbdae5bdf	-0.08513617
190	0xbc13508e	-0.008991374
191	0xbe46c08e	-0.19409391
192	0xbed14789	-0.4087489
193	0xbeb7572d	-0.35808697
194	0x3da91ba3	0.082572244
195	0xbb099c50	-0.002099771
196	0xbeaeef2c	-0.3416685
197	0x3e2e4194	0.17017204
198	0xbe9213c3	-0.28530702
199	0x3b87cd33	0.0041443347
200	0x3d2dbfc3	0.042419206
201	0xbe975ec6	-0.29564494
202	0xbe0c881d	-0.13723798
203	0x3c34a8e5	0.011026596
204	0xbdc0fd45	-0.09423307
205	0xbeb479bd	-0.3524913
206	0x3daaf3ad	0.08347259
207	0xbf082b38	-0.53190947
208	0x3d24c3c2	0.04022575
209	0x3df30854	0.11866823
210	0x3e12ff39	0.14355172
211	0xbe15fbc9	-0.1464683
212	0x3de592fa	0.11209674
213	0xbe9b92dc	-0.30385482
214	0xbe6148af	-0.22000383
215	0xbe917f97	-0.28417656
216	0xbee6d19e	-0.450818
217	0x3e6c14e5	0.23054846
218	0xbe87a036	-0.2648942
219	0xbca56ac2	-0.020192508
220	0xbe437f19	-0.19091453
221	0x3e8dd98b	0.27705035
222	0x3e8d0fd1	0.2755113
223	0xbeb670a1	-0.35632804
224	0x3e66c57b	0.2253627
225	0xbe020816	-0.12698397
226	0xbe97292e	-0.29523605
227	0x3e453dbb	0.1926183
228	0xbf03bf74	-0.5146401
229	0xbeb01130	-0.34388113
230	0xbcfa3b27	-0.030545784
231	0xbea23717	-0.31682655
232	0x3d3c97e1	0.04604328
233	0xbe549032	-0.20758131
234	0x3dd6c113	0.10486045
235	0xbf0838dc	-0.5321176
236	0xbde76983	-0.11299422
237	0xbe92cdd4	-0.2867266
238	0xbefce0b5	-0.49390188
239	0xbea98aac	-0.3311361
240	0xbcdfb9ed	-0.027310336
241	0xbe486f22	-0.19573644
242	0x3d7a5693	0.06111772
243	0x3dfb2e5d	0.122647025
244	0xbe2ab963	-0.16672282
245	0xbe9bb384	-0.30410397
246	0xbe8cc439	-0.27493456
247	0x3e036425	0.12831171
248	0xbdca8ff9	-0.09890742
249	0x3d84619f	0.06463932
250	0xbe651fc7	-0.22375403
251	0xbe75ef9d	-0.24017186
252	0x3e1c0eb0	0.15239978
253	0xbef5254a	-0.47880012
254	0xbdbb40f7	-0.091432504
255	0xbd9e84b7	-0.07740157

model.output.bias f4 [5]
0	0xbe2b4842	-0.16726783
1	0x3e58b905	0.2116433
2	0xbe8bf1f5	-0.27333036
3	0xbf0c43a7	-0.5479073
4	0x3f27ac20	0.65497017
