tmbed/models/cnn/cv_4.pt (torch, 281007 bytes, 12 tensors)

filter_kernel f4 [7]
0	0x3b91431a	0.004433048
1	0x3d5d34f5	0.054005582
2	0x3e77d858	0.24203622
3	0x3ecc5051	0.39905027
4	0x3e77d858	0.24203622
5	0x3d5d34f5	0.054005582
6	0x3b91431a	0.004433048

model.input.norm.bias f4 [1, 64, 1, 1]
0	0xbd58f697	-0.05296954
1	0xbc30207c	-0.010749932
2	0xbdeaddf6	-0.11468117
3	0xbdf77dfd	-0.12084577
4	0x3d00e7e0	0.031471133
5	0xbe80d3c8	-0.25161576
6	0xbe91e37b	-0.28493866
7	0xbd2a2f12	-0.041548796
8	0xbf0d40ff	-0.551773
9	0xbeb6939b	-0.3565949
10	0xbbd6c431	-0.0065541496
11	0xbda58b50	-0.080832124
12	0x3bb6a42e	0.005573771
13	0x3d738da3	0.059461247
14	0xbe28d3f0	-0.16487098
15	0x3c961cdf	0.018324314
16	0xbe141c89	-0.1446401
17	0xbd9be015	-0.076111
18	0xbebf5d1b	-0.3737572
19	0xbdefe7c8	-0.11714131
20	0xbe1038af	-0.14084123
21	0x3b30a92a	0.0026956298
22	0x3d9d443a	0.07679029
23	0xbf18bf67	-0.59667057
24	0xbd274b43	-0.04084326
25	0xbe83b45b	-0.25723538
26	0xbe14ea6a	-0.14542547
27	0xbdc84cea	-0.09780295
28	0xbdacac69	-0.08431322
29	0xbe5c252a	-0.21498552
30	0xbec085a0	-0.37601948
31	0xbd63da6d	-0.05562823
32	0xbecf33d4	-0.4046923
33	0xbe3579ba	-0.17722216
34	0xbd04bea4	-0.03240837
35	0xbd8732c0	-0.06601477
36	0xbdefe095	-0.117127575
37	0xbdf1dd3e	-0.11809777
38	0xbe1c8c47	-0.15287887
39	0xbdf8f66f	-0.121563785
40	0x3ca1f4f7	0.019770129
41	0xbd64342e	-0.055713825
42	0xbe8fe54e	-0.28104633
43	0x3da62fb3	0.08114567
44	0x3d5ea861	0.054359797
45	0x3d439e29	0.047758255
46	0xbd1be4bc	-0.038059935
47	0xbec1440b	-0.37747225
48	0xbe30ed55	-0.17278035
49	0xbe121dac	-0.14269131
50	0xbee06b24	-0.43831742
51	0xbe239994	-0.15976554
52	0xbe8e0ae0	-0.27742672
53	0xbe22ed96	-0.15910944
54	0xbe96aff5	-0.2943112
55	0xbe67fa7f	-0.2265415
56	0xbd9d880e	-0.07691966
57	0xbe5e96ef	-0.21737264
58	0xbcca0d59	-0.024664568
59	0xbda00e2e	-0.078152046
60	0xbf156716	-0.5836042
61	0x3df0b19a	0.11752625
62	0xbee5e826	-0.44903678
63	0xbdaed678	-0.085370004

model.input.norm.weight f4 [1, 64, 1, 1]
0	0x3f9ca58b	1.223802
1	0x3f840c0d	1.0316178
2	0x3f8f7930	1.1208858
3	0x3f80d73b	1.0065683
4	0x3f7ea2b8	0.9946704
5	0x3faf5cfb	1.370025
6	0x3f7d5cd1	0.9896975
7	0x3f82a290	1.020586
8	0x3f53484a	0.8253218
9	0x3f0faf56	0.56126916
10	0x3f616b3e	0.88054264
11	0x3f8c7d69	1.0975772
12	0x3f855e1b	1.0419344
13	0x3f9fdcb7	1.2489232
14	0x3f7ef16b	0.99587125
15	0x3f9c9924	1.2234235
16	0x3f840325	1.031346
17	0x3f77105b	0.9650933
18	0x3f9d2e31	1.2279721
19	0x3f9dba84	1.2322545
20	0x3f7de6d6	0.9918035
21	0x3f90875b	1.1291307
22	0x3f858c98	1.0433531
23	0x3fde6b49	1.7376491
24	0x3f882e80	1.0639191
25	0x3f7d4017	0.9892592
26	0x3f88f8e0	1.0700951
27	0x3f921db1	1.1415311
28	0x3f837d65	1.0272642
29	0x3fa4151a	1.281894
30	0x3f4855ab	0.7825572
31	0x3f7747cc	0.9659393
32	0x3f881777	1.0632161
33	0x3f77c0e8	0.96778727
34	0x3f85303b	1.0405344
35	0x3faedffb	1.3662103
36	0x3f8b4bff	1.0882567
37	0x3fb8e48b	1.4444746
38	0x3f71dead	0.944804
39	0x3fab97a0	1.3405647
40	0x3f8b047a	1.0860741
41	0x3f8834fc	1.064117
42	0x3f82c67d	1.0216824
43	0x3f907713	1.1286339
44	0x3f82b5be	1.0211713
45	0x3f8adb0b	1.0848097
46	0x3f7a93de	0.9788188
47	0x3f259dc3	0.6469385
48	0x3f74f104	0.9568026
49	0x3f6f29bf	0.93423074
50	0x3f6194da	0.88117754
51	0x3f855ffd	1.0419918
52	0x3f76dae2	0.9642774
53	0x3f87de03	1.0614628
54	0x3fa06d35	1.2533327
55	0x3f8bbec3	1.0917591
56	0x3f818db3	1.0121368
57	0x3f672e5c	0.90305114
58	0x3f79a9a3	0.9752447
59	0x3f9032cc	1.1265502
60	0x3f72ca9b	0.948404
61	0x3f9f2959	1.2434493
62	0x3f87e3f7	1.0616444
63	0x3f7fe7fd	0.9996336

model.input.conv.weight f4 [64, 1024, 1, 1]
0	0xbd14e115	-0.036347467
1	0x3cb4144b	0.021982333
2	0x3d138775	0.036017854
3	0x3d526e11	0.0513745
4	0x3d0cf97f	0.034417626
5	0xbc826cdb	-0.015921047
6	0xbd2b3215	-0.04179581
7	0xbdb7db2f	-0.08977353
8	0x3db1ced8	0.086820304
9	0xbc910e02	-0.017706875
10	0x3cf764ec	0.03019949
11	0x3d817723	0.06321552
12	0xbe1f1d40	-0.15538502
13	0x3c8f1210	0.017464668
14	0xbda3bb8a	-0.079947546
15	0x3dc84d2b	0.097803436
16	0xbdb71f66	-0.08941536
17	0xbdde757e	-0.108622536
18	0xbc8ebc1a	-0.017423678
19	0xbc18d627	-0.009328402
20	0xbd6b4233	-0.05743618
21	0xbc9608d4	-0.018314756
22	0xbd53a082	-0.051666744
23	0x3c4f29cd	0.012644243
24	0xbc5c70cb	-0.013454626
25	0x3d4832a8	0.048876435
26	0xbd0f5a8c	-0.03499846
27	0x3c56f624	0.013120208
28	0xbd2078b1	-0.0391776
29	0x3d94c6b4	0.07264462
30	0xbde4fbbf	-0.11180829
31	0xbd0a2d17	-0.033734407
32	0xbd91ae5d	-0.07113335
33	0xbd19f5bf	-0.037587877
34	0xbd95090a	-0.07277115
35	0x3ced70b4	0.028984405
36	0xbd976fef	-0.073943965
37	0xbd87a4d2	-0.06623234
38	0x3c95dcbf	0.018293737
39	0xbdd6f33a	-0.104956105
40	0xbd99f8af	-0.07518136
41	0xbdcc931b	-0.09988996
42	0xbdda38dd	-0.10655377
43	0x3c3c28e2	0.011484357
44	0xbd82dd96	-0.063899204
45	0x3dc85666	0.09782104
46	0xbdcea188	-0.100894034
47	0xbc61415f	-0.013748496
48	0xbd094810	-0.03351599
49	0xbc3095cb	-0.010777901
50	0x3d912f98	0.07089156
51	0x3d648ba6	0.05579724
52	0x3d462013	0.048370432
53	0xbcc3d903	-0.02390719
54	0x3dc132ea	0.09433539
55	0xbdcce93a	-0.10005422
56	0x3d909c12	0.07061018
57	0x3dd6cb78	0.10488027
58	0xbd98462b	-0.074352585
59	0xbcaeb733	-0.02132759
60	0xbda4ea07	-0.0805245
61	0xbe1cafc2	-0.15301421
62	0x3d8b4def	0.06801974
63	0xbcfb8513	-0.030703103
64	0xbdd5712c	-0.104219764
65	0xbb979c2d	-0.004626772
66	0xbd1911e1	-0.037370566
67	0x3da00c86	0.07814889
68	0xbdb40384	-0.08789733
69	0xbd8e6a4e	-0.0695387
70	0x3d866226	0.06561689
71	0xbe1b9bf5	-0.15196212
72	0xbd9b7acf	-0.07591783
73	0xbe05e53c	-0.13075727
74	0x3d72978c	0.059226558
75	0xbd20932f	-0.039202865
76	0x3cbef584	0.02331043
77	0xbd159749	-0.03652123
78	0xbd0cf05b	-0.03440891
79	0x3daf6396	0.085639164
80	0xbcf14281	-0.029450657
81	0xbdd3508a	-0.10318096
82	0x3dfc4a32	0.12318839
83	0xbc6f9ec8	-0.014625259
84	0x3d0f9a1e	0.035059087
85	0x3c43700c	0.0119285695
86	0xbb025992	-0.0019889814
87	0xbdbe25f3	-0.09284582
88	0xbbaea285	-0.0053294324
89	0xbd385db2	-0.04501123
90	0xbd246c19	-0.040142152
91	0x3e140428	0.1445471
92	0xbd238fa2	-0.0399319
93	0x3de572de	0.1120355
94	0xbd0b0e01	-0.033948902
95	0x3d25efa9	0.04051176
96	0x3d92de14	0.07171264
97	0x3d119dc6	0.035550855
98	0xbd5ffe3e	-0.054685824
99	0x3d8b1404	0.06790927
100	0xbc1c4225	-0.009537254
101	0x3dfb84e8	0.12281209
102	0x3d86cfa2	0.065825716
103	0x3c8201f6	0.015870076
104	0x3c08416b	0.008316378
105	0xbcd64f03	-0.026160723
106	0x3e1cbc29	0.15306152
107	0x3e00b36d	0.12568446
108	0x3cafac99	0.021444606
109	0x3dde0e77	0.10842603
110	0xbcd3d86a	-0.02586003
111	0xbd2b2789	-0.04178575
112	0xbe228b4a	-0.15873447
113	0xbdbb1bfe	-0.091361985
114	0xbdd8f5a0	-0.10593724
115	0xbd0ae65a	-0.033911087
116	0xbd3da02a	-0.046295322
117	0x3dce840c	0.1008378
118	0xbe18d269	-0.14924015
119	0xbd58fc09	-0.052974734
120	0xbd342dd3	-0.043989014
121	0xbc9a3558	-0.018824264
122	0x3d337773	0.043815088
123	0xbdaaa871	-0.08332909
124	0xbdd02674	-0.10163584
125	0xbd0f3f40	-0.03497243
126	0xbca7fadc	-0.020505361
127	0xbdbcef25	-0.09225301
128	0xbd3226bd	-0.043493975
129	0x3dd549fc	0.10414502
130	0xbda01716	-0.07816903
131	0x3d48ae55	0.04899438
132	0xbd9bbad1	-0.07603992
133	0x3d0f7050	0.03501922
134	0xbd967962	-0.07347371
135	0x3d9389c2	0.072040096
136	0x3de436b4	0.11143246
137	0x3d378fea	0.04481498
138	0x3cea885b	0.028629472
139	0x3e55e73e	0.20888993
140	0x3c486d97	0.0122331595
141	0x3deeb7fe	0.116561875
142	0x3d93df2e	0.072203025
143	0xbdefdd6b	-0.11712154
144	0xbc9d2eef	-0.019187419
145	0xbc0afda3	-0.008483323
146	0x3ca3b00d	0.019981408
147	0xbd97c723	-0.07411029
148	0xbd300859	-0.04297671
149	0x3e6bf1fc	0.23041528
150	0xbd940c2d	-0.07228885
151	0x3daec6f3	0.0853404
152	0x3d41ebca	0.047344007
153	0x3db51b63	0.08843114
154	0xbd64473c	-0.055731997
155	0xbd373773	-0.044730615
156	0xbd94b677	-0.07261365
157	0x3de6f727	0.11277609
158	0xbd00d788	-0.031455547
159	0x3c5b8b20	0.013399869
160	0x3d36cef2	0.044630952
161	0xbd3cd8ab	-0.04610507
162	0x3dd309b8	0.10304588
163	0xbe20a742	-0.15688804
164	0xbd565cc9	-0.05233458
165	0xba09802f	-0.0005245236
166	0xbd81718b	-0.06320485
167	0xbda57398	-0.080786884
168	0x3c63ec4f	0.013911321
169	0x3db2f75f	0.087385885
170	0xbc0d0c8c	-0.008608948
171	0xbd4ee52d	-0.050511528
172	0x3d9a2c74	0.0752801
173	0x3e67278c	0.2257368
174	0x3dc6a53e	0.09699486
175	0x3cf59288	0.029977098
176	0x3e293f96	0.16528162
177	0xbdbea914	-0.09309593
178	0x3d1948b5	0.037422854
179	0x3c964304	0.018342502
180	0x3dcdb1a9	0.100436516
181	0x3df7573a	0.12077184
182	0x3cc5da58	0.024151966
183	0x3c9c24b0	0.019060463
184	0xbd31b846	-0.043388627
185	0xbdd8ed8e	-0.10592185
186	0xbcb837bc	-0.022487514
187	0x3e053e43	0.13012032
188	0xbc82a29f	-0.015946684
189	0x3db32c75	0.08748714
190	0xbcd23869	-0.025661664
191	0x3cd4e581	0.025988342
192	0x3b7c773f	0.0038523225
193	0x3e07b4b8	0.13252532
194	0x3bb40819	0.0054941294
195	0x3d921303	0.071325324
196	0xb9f1dc3d	-0.00046131192
197	0x3dd80178	0.10547155
198	0xbdf463ea	-0.119331196
199	0x3c5d460f	0.013505473
200	0xbd85bd46	-0.06530242
201	0xbd3edf8e	-0.046599917
202	0xbd78ba5d	-0.060724605
203	0x3d34721f	0.044054147
204	0xbd864c06	-0.06557469
205	0xbdaa42ae	-0.083134994
206	0x3e5b00b0	0.21386981
207	0xbd8789dc	-0.066180915
208	0xbdb25680	-0.08707905
209	0xbdd26b05	-0.102743186
210	0x3da8319e	0.08212589
211	0xbc82da57	-0.015973253
212	0x3d2deb2a	0.042460598
213	0xbd15e049	-0.036590848
214	0xbd039b34	-0.032130435
215	0x3d4b203e	0.049591295
216	0xbb0ee02a	-0.0021801093
217	0xbe098c48	-0.1343242
218	0x3d0743b2	0.033023544
219	0x3d6eac55	0.058269817
220	0x3c9e8997	0.019352717
221	0x3d3eec8d	0.04661231
222	0xbdbae480	-0.09125614
223	0x3c50fb10	0.01275517
224	0xbd8358e6	-0.064134404
225	0xbd7c9115	-0.0616618
226	0xbdc56782	-0.09638883
227	0x3d5e4e87	0.05427411
228	0xbb4635ee	-0.0030244547
229	0xbd359f66	-0.044341467
230	0x3d96c8e1	0.07362533
231	0xbe070e6e	-0.13189098
232	0x3e015a0c	0.12632006
233	0xbe01ef25	-0.12688883
234	0x3e213efe	0.15746686
235	0xbdd9bc03	-0.106315635
236	0xbd15e8b5	-0.03659888
237	0x3e01d755	0.12679799
238	0xbc923186	-0.01784588
239	0xbd5abeff	-0.053404804
240	0x3cb9a75f	0.022662817
241	0x3e062993	0.13101797
242	0x3ae6196a	0.0017555181
243	0x3e0d2677	0.13784204
244	0xbd7bf40d	-0.06151204
245	0xbd438fd4	-0.047744587
246	0x3d28afed	0.0411834
247	0xbdc960e5	-0.09832934
248	0x3e4e346e	0.20137188
249	0x3d2dd486	0.042439006
250	0x3d2c5447	0.04207256
251	0x3c9a902b	0.018867573
252	0x3d2c561f	0.04207432
253	0x3d6f857e	0.058476917
254	0x3d1c9503	0.038228046
255	0xbd636c74	-0.05552335

model.dwc1.norm.bias f4 [1, 64, 1, 1]
0	0xbe1f3572	-0.15547732
1	0x3eccb876	0.39984483
2	0x3e4a1050	0.19732785
3	0xbe581c7e	-0.21104619
4	0xbe051129	-0.12994827
5	0xbe2780b9	-0.16357698
6	0xbc3367b5	-0.010950019
7	0xbe4c8aea	-0.19974867
8	0xbe1d0b89	-0.15336432
9	0xbde22abc	-0.11043307
10	0xbe032041	-0.12805273
11	0xbde4e8e6	-0.11177234
12	0xbe295a43	-0.16538338
13	0xbe2932cd	-0.16523285
14	0xbe433575	-0.19063361
15	0xbe2faf5c	-0.17156738
16	0xbe5f8121	-0.21826603
17	0xbe7b70e4	-0.24554783
18	0xbd33f39c	-0.043933496
19	0xbd806a69	-0.06270296
20	0xbdd732de	-0.10507749
21	0xbccdddc4	-0.02513016
22	0x3edcbf36	0.43114632
23	0xbe6abcdd	-0.22923608
24	0xbe4a351d	-0.19746824
25	0xbe105a86	-0.14097032
26	0xbde34a31	-0.11098135
27	0xbe96d93b	-0.2946261
28	0xbe90b4d0	-0.2826295
29	0xbe346e4a	-0.17620197
30	0xbd81d4db	-0.06339427
31	0xbdd6ab55	-0.10481898
32	0xbe38beae	-0.18041489
33	0xbd0ffb42	-0.035151727
34	0xbcea63bd	-0.028612012
35	0xbe0dfbcf	-0.13865589
36	0xbcac627e	-0.021043058
37	0xbdbdc6d0	-0.09266436
38	0xbdc051ef	-0.093906276
39	0xbde3c780	-0.11122036
40	0xbdb55174	-0.088534266
41	0xbd8da4b3	-0.069161795
42	0xbe491a7c	-0.19639009
43	0xbe3a1cf5	-0.18175109
44	0xbd8fd6c2	-0.07023384
45	0xbe479eb8	-0.1949414
46	0xbe75f8b3	-0.24020652
47	0xbdc9f2b4	-0.09860745
48	0xbe98a532	-0.29813534
49	0xbe330853	-0.17483644
50	0xbdcc2f3e	-0.09969948
51	0x3e64b8f3	0.22336178
52	0xbe0b0149	-0.13574709
53	0xbe28d50c	-0.16487521
54	0xbde85ce9	-0.11345846
55	0xbd863c76	-0.06554501
56	0x3d3ddb02	0.04635144
57	0xbd8b935f	-0.06815218
58	0x3e0968f3	0.13418941
59	0xbe964c0c	-0.29354894
60	0xbd781f3f	-0.060576674
61	0x3e843d14	0.2582785
62	0xbe44ef7b	-0.1923198
63	0x3dfc30f8	0.123140275

model.dwc1.norm.weight f4 [1, 64, 1, 1]
0	0x3f6b484c	0.9190719
1	0x3fbc13a4	1.4693494
2	0x3f85336c	1.0406318
3	0x3fb272f6	1.3941333
4	0x3f64e47b	0.89411134
5	0x3f8d59ff	1.104309
6	0x3f7e0a74	0.992347
7	0x3f8be38f	1.092882
8	0x3f767bfb	0.9628293
9	0x3fcb3929	1.5876819
10	0x3f75620e	0.95852745
11	0x3f7c7e81	0.9863053
12	0x3f83e174	1.0303178
13	0x3f921e3e	1.1415479
14	0x3f94d1fd	1.1626583
15	0x3f9ef959	1.2419845
16	0x3fade3fb	1.3585199
17	0x3fa1b577	1.2633504
18	0x3efb0440	0.4902668
19	0x3f702421	0.9380513
20	0x3f7215a6	0.9456428
21	0x3f8d7feb	1.1054662
22	0x3fc9ab33	1.5755371
23	0x3ff02f68	1.8764467
24	0x3f62f60a	0.88656676
25	0x3fe6dc38	1.8035955
26	0x3f706bc2	0.93914425
27	0x3f21f0f3	0.63258284
28	0x3faaa4b4	1.3331513
29	0x3f4fb74c	0.81139064
30	0x3fd04198	1.6270018
31	0x3f6f5668	0.9349122
32	0x3f912b70	1.1341381
33	0x3f7f97f9	0.99841267
34	0x3f6df40e	0.9295052
35	0x3f2adee2	0.6674634
36	0x3f87af65	1.0600401
37	0x3f51fe74	0.8202889
38	0x3f855fc4	1.041985
39	0x3f389b25	0.7211173
40	0x3f6c663d	0.92343503
41	0x3f84ac86	1.036515
42	0x3f948fc9	1.160638
43	0x3f76f3fa	0.9646603
44	0x3f86a2f8	1.0518484
45	0x3f8a8b84	1.0823827
46	0x3f914d0c	1.1351638
47	0x3fa4586a	1.2839482
48	0x3fb58b20	1.4183083
49	0x3f702eee	0.9382161
50	0x3f847f54	1.0351357
51	0x3f96a7d8	1.1769972
52	0x3f8fbb32	1.1229002
53	0x3f832d86	1.0248268
54	0x3fa2abcf	1.2708682
55	0x3f77f4a8	0.9685769
56	0x400c9322	2.1964803
57	0x3f8da19c	1.1064944
58	0x3fd44ae9	1.6585361
59	0x3f9f5823	1.2448772
60	0x3fe20045	1.7656332
61	0x3f806a57	1.0032452
62	0x3f9482e9	1.1602451
63	0x3f85c135	1.0449587

model.dwc1.conv.weight f4 [64, 1, 9, 1]
0	0xbd04f23c	-0.032457575
1	0x3cd7d817	0.026348157
2	0xbd10aca5	-0.035320897
3	0x3cf6d9a7	0.030133082
4	0xbd43cbcc	-0.047801778
5	0xbc35ffd5	-0.011108358
6	0xbd7e958e	-0.062154345
7	0x3c9775e4	0.018488832
8	0xbd71d8dd	-0.059044708
9	0xbd2ad90d	-0.041710902
10	0xbd2b4378	-0.04181239
11	0xbd591719	-0.053000543
12	0xbd2e55ac	-0.04256217
13	0xbd56169c	-0.052267656
14	0xbd4445d7	-0.047918167
15	0xbd1ee9cf	-0.038797196
16	0xbc8fef02	-0.017570022
17	0xbbdc839f	-0.0067295576
18	0xbcd7a05f	-0.026321588
19	0xbcfbc71d	-0.030734593
20	0xbd004fea	-0.031326212
21	0xbcdcff5c	-0.026977234
22	0xbc96e85d	-0.018421346
23	0xbd0c43d5	-0.034244377
24	0xbce00e7a	-0.027350653
25	0xbcfba299	-0.030717181
26	0xbcc6b916	-0.024258178
27	0x3db2fc47	0.08739524
28	0x3d852343	0.06500866
29	0x3d472e56	0.048628174
30	0x3d213d04	0.03936483
31	0x3cfcd6ae	0.030864086
32	0x3d07ff15	0.03320225
33	0x3d54d042	0.051956423
34	0x3d6e2ba9	0.058147106
35	0x3d8403dd	0.06446049
36	0xbd2b5ef3	-0.041838598
37	0xbc57253b	-0.013131435
38	0xbc6cbae4	-0.014448855
39	0xbd3fd4ab	-0.046833675
40	0xbd080fcc	-0.03321819
41	0xbd414b4e	-0.047190957
42	0xbc80b75c	-0.015712433
43	0xbd2fdb15	-0.042933542
44	0xbd19a03a	-0.03750632
45	0x3e8e4b2b	0.27791724
46	0x3e4391a6	0.19098529
47	0x3e37dc17	0.17955051
48	0x3e075839	0.13217248
49	0x3de1f111	0.11032308
50	0x3dcb0efc	0.099149674
51	0x3e1fe94d	0.15616341
52	0x3e3ba1bd	0.18323417
53	0x3e8b282f	0.27179095
54	0xbd486ac9	-0.048929963
55	0xbd4a7d95	-0.04943617
56	0xbd3fbc5f	-0.046810504
57	0xbd3fc7cd	-0.046821404
58	0xbcfdc8d2	-0.030979548
59	0xbd318ed2	-0.043349095
60	0xbd3276da	-0.043570377
61	0xbcd35a2f	-0.025799839
62	0xbcd43b84	-0.025907286
63	0x3c9f4faa	0.019447166
64	0x3c85a804	0.016315468
65	0x3cd89ba9	0.026441412
66	0x3c651478	0.013981931
67	0x3bcc82ca	0.006241177
68	0xba87b4d8	-0.0010353578
69	0x3ce0cd7e	0.027441736
70	0x3c491e96	0.012275359
71	0x3cc372e8	0.023858503
72	0x3dc616a4	0.09672287
73	0x3db329bd	0.08748195
74	0x3d8bb7f4	0.06822196
75	0x3ccbf6e5	0.024898002
76	0xbb235b17	-0.002492612
77	0x3c894c68	0.016760066
78	0x3d81a44c	0.06330165
79	0x3d683a59	0.05669627
80	0x3d3ab189	0.045579467
81	0xbd6acffa	-0.05732725
82	0xbcdb12f6	-0.02674244
83	0xbcd6e615	-0.026232759
84	0xbd10dad2	-0.035364933
85	0xbcd2739f	-0.025689898
86	0xbce85678	-0.028361544
87	0xbcf0abcb	-0.029378792
88	0xbd0d2b75	-0.034465272
89	0xbd07520f	-0.03303724
90	0xbd249482	-0.04018069
91	0xbd1dacf4	-0.03849502
92	0xbd2935aa	-0.041310944
93	0xbd028ae2	-0.03187073
94	0xbc39d106	-0.011341339
95	0xbc8d1235	-0.017220596
96	0xbca229ab	-0.01979526
97	0xbd1d47da	-0.0383986
98	0xbd198e7e	-0.037489407
99	0xbd6379de	-0.055536143
100	0xbd6f1640	-0.05837083
101	0xbd578e02	-0.052625664
102	0xbd63b665	-0.055593867
103	0xbd581db2	-0.052762695
104	0xbd1fef82	-0.03904677
105	0xbd71f4a7	-0.05907121
106	0xbd650aae	-0.055918388
107	0xbd7b2f77	-0.061324563
108	0xbd1b3468	-0.037891775
109	0xbc268fff	-0.010166167
110	0xbcb98e45	-0.022650847
111	0xbd364e29	-0.044508133
112	0xbd479f4a	-0.048735894
113	0xbd057444	-0.032581583
114	0xbd041940	-0.032250643
115	0xbc1f0713	-0.0097062765
116	0xbca0e579	-0.019640671
117	0xbc6d11bf	-0.014469563
118	0x3cbf2c5a	0.023336578
119	0x3d1eb9e8	0.038751513
120	0x3ce84d34	0.028357126
121	0x3d620a96	0.055185877
122	0x3caa48c2	0.020786647
123	0x3cc646e2	0.024203721
124	0xbb7d2669	-0.003862763
125	0xbc0431d5	-0.0080685215
126	0x3d4236ff	0.04741573
127	0x3d0f25b8	0.03494808
128	0x3cdc9ea0	0.026931107
129	0x3c691bcd	0.01422782
130	0x3ca97845	0.020687232
131	0x3cc15954	0.023602165
132	0x3ce4ad77	0.027914746
133	0x3d0ce5a9	0.03439871
134	0x3d333eee	0.043761186
135	0xbdb91d98	-0.09038848
136	0x3d442106	0.047883056
137	0xbdd0f5d2	-0.102031365
138	0x3d8b9f85	0.06817535
139	0xbd9cc152	-0.076540604
140	0x3d7933be	0.06084036
141	0xbd630e7b	-0.05543373
142	0x3cebcb62	0.028783504
143	0xbd844056	-0.064575836
144	0x3d929fc6	0.071593806
145	0x3d782013	0.060577463
146	0x3d47d5e4	0.048787966
147	0x3cdce318	0.026963755
148	0x3d034d73	0.032056283
149	0x3d2273ec	0.039661333
150	0x3d0daed1	0.034590546
151	0x3d4ffcdb	0.05077825
152	0x3d88d04b	0.06680354
153	0x3d411995	0.047143538
154	0x3d4067e8	0.046974093
155	0x3d1e3a1b	0.038629632
156	0x3d08b369	0.033374224
157	0xb8da114c	-0.00010398272
158	0x3c9d2f7c	0.019187681
159	0x3c9a7ebd	0.018859262
160	0x3ca93e95	0.020659724
161	0x3c85c2b7	0.016328199
162	0x3dd89757	0.10575741
163	0x3d9b97f7	0.07597344
164	0x3d81e2a6	0.06342058
165	0x3c5f0159	0.013611161
166	0x3b2afa8b	0.0026089277
167	0x3c18fd90	0.009337798
168	0x3d37326e	0.044725828
169	0x3cd9ee1b	0.026602795
170	0x3c724b09	0.014788398
171	0xbd4f4b21	-0.050608758
172	0xbd2c7ad2	-0.042109318
173	0xbd4a58ee	-0.049401216
174	0xbd6ba185	-0.057527084
175	0xbd9bae36	-0.076015875
176	0xbd7a0ab3	-0.06104536
177	0xbd2b880f	-0.041877802
178	0xbdb371fc	-0.08761975
179	0xbd430b1d	-0.04761802
180	0xbd665753	-0.056235623
181	0xbd91a115	-0.07110802
182	0xbce250e0	-0.027626455
183	0xbcc460f7	-0.023972018
184	0xbd38332e	-0.044970684
185	0xbcf2dcee	-0.029646363
186	0xbccd23b8	-0.025041446
187	0xbd21a904	-0.039467826
188	0xbd3b0d00	-0.045666695
189	0xbd221d34	-0.03957863
190	0xbd03b709	-0.032156978
191	0xbd2f5b3f	-0.04281163
192	0xbd1e5cff	-0.038662907
193	0xbd29cb40	-0.0414536
194	0xbd2f902e	-0.04286211
195	0xbd0d5b1b	-0.034510713
196	0xbd351e11	-0.044218127
197	0xbd254d0d	-0.040356684
198	0xbd8778a7	-0.066148095
199	0xbd428c79	-0.047497246
200	0xbd2909b6	-0.041269027
201	0xbca5cfc7	-0.020240678
202	0xbcaa3440	-0.020776868
203	0xbcd0f20d	-0.025506044
204	0xbd3e1edd	-0.046416152
205	0xbd70585f	-0.058678027
206	0xbd8d57d2	-0.06901516
207	0xbe85531c	-0.2603997
208	0xbe91cfc4	-0.28478825
209	0xbe73a120	-0.23791933
210	0xbe92c569	-0.28666237
211	0xbe94d1a9	-0.29066208
212	0xbe88f3ca	-0.26748496
213	0xbe99db96	-0.30050343
214	0xbe9bd083	-0.3043252
215	0xbe5f056b	-0.2177941
216	0xbc727ce6	-0.014800286
217	0xbd16280a	-0.036659278
218	0xbd1fab24	-0.03898157
219	0xbcc9ad31	-0.024618717
220	0xbcef4032	-0.029205415
221	0xbc2466b5	-0.010034253
222	0xbcf0c4d6	-0.029390734
223	0xbcfdd5a2	-0.030985657
224	0xbcfde336	-0.030992132
225	0xbd58d773	-0.052939843
226	0xbd1bb465	-0.038013835
227	0xbccc2f23	-0.02492482
228	0xbc8a1f22	-0.016860548
229	0xbc0d6b4d	-0.0086315395
230	0xbc8f1020	-0.017463744
231	0xbcd486da	-0.025943208
232	0xbc8e7e16	-0.017394107
233	0xbd29aedf	-0.041426536
234	0xbd55bf25	-0.052184243
235	0xbd453a28	-0.048151165
236	0xbd072245	-0.032991666
237	0xbd06dc67	-0.032925036
238	0xbd1ca5be	-0.038244
239	0xbd59abed	-0.053142477
240	0xbd2375b1	-0.03990716
241	0xbd81c129	-0.063356705
242	0xbd24c0e4	-0.040223017
243	0xbd3c361b	-0.045950036
244	0xbd220267	-0.039553072
245	0xbd18e6a1	-0.03732932
246	0xbcdf1852	-0.027233277
247	0xbce8d367	-0.028421117
248	0xbd0f812b	-0.035035294
249	0xbce8b323	-0.028405732
250	0xbd1daa37	-0.038492408
251	0xbd1a4def	-0.03767198
252	0x3d4379e3	0.047723662
253	0x3d0f50a5	0.034989018
254	0x3cd95cba	0.026533473
255	0x3cd96a0e	0.026539829

model.dwc2.norm.bias f4 [1, 64, 1, 1]
0	0xbe6da268	-0.23206484
1	0xbd00f2f2	-0.03148169
2	0x3e0bae15	0.13640626
3	0xbe856466	-0.2605316
4	0xbd6ca5fa	-0.057775475
5	0xbe4bd2ac	-0.19904584
6	0xbe0cd76d	-0.13754053
7	0xbdca14b4	-0.0986723
8	0xbe646d74	-0.22307378
9	0xbe198112	-0.14990643
10	0xbd339184	-0.043839946
11	0xbdc13943	-0.0943475
12	0x3f05183b	0.519901
13	0x3e29f5b4	0.16597635
14	0xbdd9fc05	-0.10643772
15	0xbe2fd40c	-0.17170733
16	0xbe8ed17f	-0.27894208
17	0xbd82f2b3	-0.063939475
18	0xbe0c379d	-0.1369309
19	0xbd99dd26	-0.07512884
20	0xbd8fad64	-0.070154935
21	0xbea0246f	-0.31277797
22	0xbd3dfe22	-0.046384938
23	0xbea4b490	-0.32169008
24	0x3e72568a	0.23665825
25	0xbe11f6cc	-0.14254302
26	0xbdcb73df	-0.0993421
27	0x3c289f90	0.010291949
28	0xbe5d6b00	-0.21622849
29	0xbdc5f57b	-0.09665962
30	0xbe3d3655	-0.18477757
31	0xbde35c8d	-0.11101637
32	0xbe579611	-0.2105334
33	0xbdd4fa9b	-0.10399362
34	0xbe3f93e0	-0.18708754
35	0xbdef4396	-0.11682813
36	0xbdcddb94	-0.10051647
37	0xbe22f02a	-0.15911928
38	0xbe6acb25	-0.22929056
39	0xbde16fdb	-0.11007663
40	0xbe55ef57	-0.20892082
41	0xbdb26439	-0.08710522
42	0xbdde56db	-0.1085641
43	0xbe1fde4b	-0.15612142
44	0xbd9816df	-0.07426237
45	0xbdefeb2f	-0.117147796
46	0xbe873f61	-0.26415542
47	0xbe799fbb	-0.24377339
48	0xbe932853	-0.28741702
49	0xbe785c33	-0.24253921
50	0xbe4891be	-0.19586846
51	0x3f098b10	0.5372782
52	0xbe7938d6	-0.24338087
53	0xbe89c306	-0.26906604
54	0xbe0209a9	-0.12698998
55	0xbe18ee9c	-0.14934772
56	0xbc973875	-0.018459538
57	0xbe13f028	-0.14447081
58	0xbe08fd7d	-0.13377948
59	0x3d799b4b	0.060939115
60	0xbe4ce87e	-0.20010564
61	0xbdf68278	-0.12036604
62	0xbe7e3f41	-0.24828817
63	0xbe168596	-0.14699396

model.dwc2.norm.weight f4 [1, 64, 1, 1]
0	0x3fa42fb8	1.2827063
1	0x3f7a4a99	0.97770077
2	0x3f8a7651	1.0817357
3	0x3fcff9c1	1.6248094
4	0x3f819e6b	1.012647
5	0x3f8f6db8	1.1205359
6	0x3f765dce	0.96236885
7	0x3fa602d8	1.2969618
8	0x4016feb2	2.3592954
9	0x3fe924d8	1.8214369
10	0x3fa2dc50	1.2723484
11	0x3f7581a9	0.9590097
12	0x3f977d8b	1.1835188
13	0x3f85745f	1.0426139
14	0x3f822db2	1.0170195
15	0x3f76921f	0.96316713
16	0x3fc5e382	1.5460055
17	0x3f83378e	1.0251329
18	0x3f1d12cd	0.6135681
19	0x3f709703	0.93980426
20	0x3fac44c8	1.345849
21	0x3fb108cd	1.3830811
22	0x3f86e5d4	1.0538888
23	0x40202dd4	2.5027971
24	0x3fb8d0c5	1.4438711
25	0x3ff6dd98	1.9286375
26	0x3f83d0b3	1.0298065
27	0x3f8db115	1.1069666
28	0x3f60971c	0.87730575
29	0x3f63be98	0.889627
30	0x4009fd83	2.1560981
31	0x3f83eb3b	1.0306162
32	0x3fa6d969	1.3035098
33	0x3fdb606e	1.7138803
34	0x3f9bf5f3	1.2184433
35	0x3f2e2d78	0.6803813
36	0x3f6c472b	0.92296094
37	0x3f41326d	0.7546757
38	0x3fe7e5b7	1.8116978
39	0x3f728b90	0.94744205
40	0x3fb23779	1.3923179
41	0x3f757ba5	0.9589179
42	0x3faf8cb4	1.3714814
43	0x3f6c9d73	0.9242775
44	0x3f85106c	1.0395637
45	0x3f920a04	1.1409307
46	0x3f8f1c68	1.1180544
47	0x3fb33a47	1.400216
48	0x3fc100c3	1.5078357
49	0x3fc83bd1	1.5643255
50	0x3f9ada53	1.2097877
51	0x3f86477f	1.0490569
52	0x3fde3cfb	1.736236
53	0x3f9fe159	1.2490646
54	0x3fb97686	1.4489295
55	0x3f6d627d	0.92728406
56	0x3f92f28a	1.1480267
57	0x3fec8156	1.847697
58	0x3f91a1b7	1.1377476
59	0x3f9bd94e	1.2175691
60	0x4012b228	2.2921238
61	0x3f822a00	1.0169067
62	0x3fd5811c	1.6680026
63	0x3f8ccb07	1.0999459

model.dwc2.conv.weight f4 [64, 1, 21, 1]
0	0x3c1ebbf7	0.009688369
1	0xbc02cb09	-0.007982978
2	0x3c49fdad	0.012328547
3	0xbc10ee4b	-0.008845876
4	0x3bbaaabb	0.005696622
5	0xbc1df9f8	-0.009642117
6	0xbb042939	-0.0020166172
7	0xbc4255e7	-0.011861301
8	0x3bed2ce4	0.0072380174
9	0x3c838661	0.016055288
10	0x3cb7e895	0.022449771
11	0x3bd8a3a1	0.006611303
12	0x390cc356	0.00013424209
13	0xbb9f8bab	-0.0048689446
14	0x3babe2e6	0.0052455543
15	0xbba24dd1	-0.004953124
16	0xbc4a9e2b	-0.012366812
17	0xbb08da84	-0.0020882199
18	0xba969dc6	-0.0011491112
19	0xbc1a786b	-0.009428124
20	0xbc3db9c9	-0.011579939
21	0xbce365f8	-0.027758583
22	0xbd0404dc	-0.032231197
23	0xbc856906	-0.01628543
24	0xbcc86f64	-0.024467178
25	0xbbe2979f	-0.0069150473
26	0xbc4aaf77	-0.012370936
27	0xbc6a888e	-0.014314784
28	0xbcc72496	-0.024309438
29	0xbc965280	-0.018349886
30	0xbcf6ebed	-0.030141795
31	0xbca58cc5	-0.020208726
32	0xbcdaa00c	-0.026687644
33	0xbc14ee9b	-0.009090091
34	0xbc510a15	-0.012758751
35	0xbc1fe111	-0.00975825
36	0xbcf7343c	-0.030176274
37	0xbbf5a54f	-0.007496513
38	0xbc3e6f32	-0.011623191
39	0xbc663b98	-0.014052294
40	0xbc902163	-0.017594045
41	0xbd11583c	-0.035484537
42	0xbcbf3c74	-0.023344256
43	0xbce6aa85	-0.028157482
44	0xbcc6bca0	-0.024259865
45	0xbc93292a	-0.017963964
46	0xbc605127	-0.013691223
47	0xbc9bfbb5	-0.019040922
48	0xbcbdf345	-0.023187289
49	0xbcb626d2	-0.022235308
50	0xbcc9e09c	-0.024643235
51	0xbc8e642b	-0.017381748
52	0xbccb4fc5	-0.02481831
53	0xbcad9d20	-0.021193087
54	0xbcb54b68	-0.022130683
55	0xbcaeae95	-0.021323482
56	0xbcb86eba	-0.022513736
57	0xbc6a82a2	-0.014313372
58	0xbc8c4354	-0.017121948
59	0xbc86ae42	-0.016440514
60	0xbcaabd43	-0.0208422
61	0xbcb9aac0	-0.022664428
62	0xbcd4e62e	-0.025988664
63	0x3db67636	0.08909266
64	0x3d9a4fcd	0.07534752
65	0x3d797fcc	0.060912892
66	0x3d8242db	0.06360408
67	0x3d61237c	0.05496548
68	0x3d3057ed	0.043052603
69	0x3cec8500	0.028872013
70	0x3cace833	0.021106815
71	0x3ca5c01a	0.020233203
72	0x3c1e7510	0.009671465
73	0x3b66928b	0.0035182561
74	0x3c95e0ea	0.018295724
75	0x3d026079	0.031830285
76	0x3ce5a221	0.02803141
77	0x3d14fbb1	0.036372844
78	0x3d293ba7	0.041316655
79	0x3d4ca152	0.049958535
80	0x3d5b6a75	0.053568322
81	0x3d2360f0	0.03988737
82	0x3d31a8e8	0.043373972
83	0x3d6de148	0.058076173
84	0xbc3b9bf0	-0.011450753
85	0xbcae914a	-0.021309514
86	0xbb84b149	-0.0040494544
87	0xbc9ec4d5	-0.019380966
88	0xbd0c01cc	-0.0341814
89	0xbc79a0fe	-0.015236137
90	0xbb16e032	-0.0023021814
91	0xbc436017	-0.011924765
92	0xbbc2da3f	-0.005946427
93	0x3a8db838	0.0010812348
94	0xbc8d8316	-0.01727442
95	0xbcd0f553	-0.025507605
96	0xbccb2277	-0.024796708
97	0xbc79c547	-0.0152447885
98	0xbd099234	-0.033586696
99	0xbcfe0691	-0.03100899
100	0xbc0074cc	-0.007840347
101	0xbcfa1e21	-0.030531945
102	0xbd2d4922	-0.042306073
103	0xbd244e38	-0.040113658
104	0xbcff4746	-0.031161916
105	0x3e33d222	0.17560628
106	0x3e1694d4	0.14705211
107	0x3e0de513	0.13856916
108	0x3e0d0b92	0.13773945
109	0x3e0e857a	0.13918105
110	0x3e0891e5	0.13336904
111	0x3de4aec7	0.11166149
112	0x3de8e996	0.11372678
113	0x3dcf087a	0.10109039
114	0x3db0f00c	0.08639535
115	0x3d8afbec	0.067863315
116	0x3d8e5905	0.06950573
117	0x3d9fe768	0.07807809
118	0x3da19afe	0.078908905
119	0x3dcb70f1	0.09933651
120	0x3dfd85d4	0.12379041
121	0x3dee572e	0.11637722
122	0x3dfca471	0.12336052
123	0x3e0d0246	0.13770398
124	0x3dfa176f	0.12211501
125	0x3dee13af	0.11624848
126	0xbcf52eb7	-0.029929502
127	0xbd03aaa3	-0.032145154
128	0xbcfed280	-0.031106234
129	0xbce5c803	-0.028049475
130	0xbca27818	-0.019832656
131	0xbce9b80b	-0.028530141
132	0xbce6501d	-0.028114373
133	0xbcc93674	-0.024562098
134	0xbca57e6d	-0.020201886
135	0xbc9b4906	-0.018955719
136	0xbce9a9c4	-0.028523333
137	0xbcc7492c	-0.024326883
138	0xbca0d452	-0.019632492
139	0xbcb401f3	-0.021973586
140	0xbcc0e26e	-0.02354547
141	0xbcd7a738	-0.026324853
142	0xbcdcb82e	-0.026943292
143	0xbcc2d7a8	-0.023784474
144	0xbcd9fdcf	-0.026610283
145	0xbd0524aa	-0.03250567
146	0xbcfa8106	-0.030579101
147	0xbd468779	-0.04846904
148	0xbcd1d404	-0.025613792
149	0xbd2f4d08	-0.042798072
150	0xbd1ddaba	-0.038538672
151	0xbd138a66	-0.03602066
152	0xbd18b852	-0.037285157
153	0xbd1646bb	-0.036688548
154	0xbce70231	-0.028199287
155	0xbcc57521	-0.024103703
156	0xbd1e1957	-0.038598385
157	0xbced83bb	-0.028993478
158	0xbd19aa21	-0.037515763
159	0xbce89dde	-0.02839559
160	0xbd194ea8	-0.037428528
161	0xbd12a8b5	-0.035805423
162	0xbced1e60	-0.028945148
163	0xbd23e29b	-0.04001103
164	0xbd042ae9	-0.032267485
165	0xbd0c9462	-0.034321196
166	0xbd1ea132	-0.038727947
167	0xbd0d66d2	-0.034521885
168	0xbd861943	-0.06547787
169	0xbd5b135f	-0.05348527
170	0xbd16bec8	-0.036803037
171	0xbd11e7e3	-0.035621535
172	0xbce4944d	-0.027902747
173	0xbce56b74	-0.02800534
174	0xbcd5296c	-0.026020728
175	0xbcb3c59a	-0.02194481
176	0xbcaf19e2	-0.021374647
177	0xbc381b1a	-0.01123693
178	0x3b54f3ab	0.003249387
179	0x3bddcbe7	0.006768692
180	0xbbe64203	-0.007026912
181	0xbc8c0125	-0.01709039
182	0xbc379cb6	-0.011206796
183	0xbbfc98ed	-0.00770866
184	0xbc3413b4	-0.010991026
185	0xbcf5fc9c	-0.03002768
186	0xbd246624	-0.04013647
187	0xbd2c2472	-0.042026944
188	0xbd840b07	-0.06447416
189	0xbcf4ff3d	-0.029906863
190	0xbd432101	-0.047638897
191	0xbd06f1b0	-0.032945335
192	0xbca5fd67	-0.020262433
193	0xbcd499e5	-0.025952289
194	0xbcd44f1a	-0.025916625
195	0xbca7f865	-0.020504186
196	0xbcd4c5ca	-0.02597322
197	0xbce23767	-0.027614309
198	0xbd390914	-0.045174673
199	0xbd0e99b4	-0.03481455
200	0xbd004d48	-0.0313237
201	0xbd21ed87	-0.039533164
202	0xbca615ec	-0.020274125
203	0xbc154c53	-0.009112435
204	0xbd10e0c4	-0.035370603
205	0xbc83d11c	-0.016090922
206	0xbc8646d4	-0.016391195
207	0x3c2f47ab	0.010698239
208	0x3bc9861a	0.0061500194
209	0xbc38d11c	-0.011280324
210	0xbca848a2	-0.020542447
211	0xbd3bab8f	-0.045817908
212	0xbc9c02b0	-0.01904425
213	0xbc267aa6	-0.010161078
214	0xbc9c0f34	-0.019050218
215	0xbcf411f0	-0.02979371
216	0xbc8f70b1	-0.01750979
217	0xbbffb988	-0.0078040995
218	0x3b399887	0.0028319673
219	0x3c233cd6	0.009963235
220	0xbbc07fe5	-0.005874621
221	0xbb92f8e5	-0.004485237
222	0x3bc733d0	0.0060791746
223	0xb9952306	-0.0002844559
224	0xbc97db58	-0.018537208
225	0xbbc80ac1	-0.0061047976
226	0xbcdd28ed	-0.026997054
227	0xbd118b05	-0.03553297
228	0xbcb35725	-0.02189214
229	0xbd28a756	-0.04117521
230	0xbd1031c8	-0.035203725
231	0xbd5e9bee	-0.054347925
232	0xbd392f3d	-0.045211066
233	0xbd455fc8	-0.048187047
234	0xbcd46b12	-0.025929961
235	0xbd3cae51	-0.04606468
236	0xbcca7aa7	-0.024716688
237	0xbd17c23d	-0.037050474
238	0xbccbdaba	-0.02488457
239	0xbcfd89aa	-0.030949432
240	0xbcec334c	-0.028833054
241	0xbc981b0b	-0.018567583
242	0xbcb31a59	-0.02186315
243	0xbd0532eb	-0.032519262
244	0xbd359bbc	-0.044337973
245	0xbd0404bb	-0.032231074
246	0xbd46436d	-0.048404146
247	0xbd24c490	-0.04022652
248	0xbd30de7d	-0.04318093
249	0xbd0e2998	-0.034707636
250	0xbce72f68	-0.028220847
251	0xbd6a772f	-0.05724257
252	0xbcf00897	-0.029300971
253	0xbccf5c58	-0.025312588
254	0xbc930f6a	-0.017951686
255	0xbd0cc384	-0.034366146

model.output.weight f4 [5, 192, 1, 1]
0	0x3e0aeecc	0.13567656
1	0xbeff3e5d	-0.49852267
2	0xbe7b5609	-0.24544539
3	0x3e2ac623	0.16677146
4	0xbe2a1ea7	-0.16613255
5	0xbe4e67f9	-0.2015685
6	0xbe3cb0ad	-0.18426771
7	0xbea0ef74	-0.31432688
8	0xbe6016dd	-0.21883722
9	0xbdac311e	-0.08407806
10	0xbe9fc57d	-0.3120536
11	0x3e22ceca	0.15899196
12	0xbeba470e	-0.36382335
13	0xbe25d9b8	-0.16196334
14	0xbe9e41cb	-0.3090957
15	0x3e5a9c07	0.21348582
16	0xbe90bcae	-0.2826895
17	0xbe9cb61a	-0.30607682
18	0x3db34d4e	0.08754979
19	0x3b21c4fe	0.0024684067
20	0xbd38873a	-0.045050837
21	0x3e4ea16b	0.20178764
22	0xbe5f6f56	-0.21819815
23	0x3beb1bbb	0.0071749366
24	0xbf0a8877	-0.5411448
25	0x3e61d90d	0.22055455
26	0xbed9fa39	-0.42573717
27	0x3d0cf1b7	0.034410205
28	0xbde16d90	-0.110072255
29	0xbd4420d5	-0.047882874
30	0xbe4e8898	-0.20169294
31	0x3d06d74e	0.032920174
32	0xbe4d065d	-0.20021959
33	0x3df003b3	0.117194556
34	0xbde24f89	-0.110503264
35	0xbea9c294	-0.33156264
36	0xbe3bc62b	-0.18337314
37	0xbe79be89	-0.2438909
38	0xbe8223f0	-0.25418043
39	0xbe4e466b	-0.2014405
40	0x3de4a305	0.11163906
41	0x3e4b76c9	0.19869532
42	0xbe117971	-0.14206482
43	0x3ca7d953	0.02048937
44	0xbeb4ad96	-0.35288686
45	0xbeb5152e	-0.3536772
46	0xbecf4f60	-0.40490246
47	0xbea10a3a	-0.31453115
48	0xbe5c1742	-0.21493247
49	0xbe38a51d	-0.18031736
50	0x3cb232c5	0.021752724
51	0xbea123b2	-0.31472546
52	0xbe8c25fe	-0.27372736
53	0x3e1c1265	0.15241392
54	0x3e70b4cb	0.23506467
55	0xbe78eaf0	-0.24308372
56	0xbeb98d04	-0.362404
57	0xbb84bc8f	-0.0040507982
58	0xbebfeb55	-0.37484232
59	0xbe9f209a	-0.3107956
60	0xbe6fc3e9	-0.23414578
61	0xbeee7dd4	-0.46580374
62	0xbe676d62	-0.2260032
63	0xbeb07fcb	-0.34472498
64	0x3cc4778a	0.023982782
65	0x3e934fcd	0.2877182
66	0x3de79c1f	0.113090746
67	0x3e0dca92	0.13846806
68	0xbd926e5e	-0.07149957
69	0xbea16757	-0.31524155
70	0x3dc0ec32	0.09420051
71	0xbe0ef93b	-0.13962261
72	0xbe76bb58	-0.24094903
73	0x3caef0b9	0.02135502
74	0xbe0ab36e	-0.1354501
75	0xbde2e6b3	-0.11079159
76	0xbc9f0f55	-0.01941649
77	0xbe3cdf62	-0.18444589
78	0xbe1c37ef	-0.15255712
79	0x3e777982	0.24167445
80	0xbe04c53d	-0.12965865
81	0xbe2b2374	-0.16712743
82	0x3a205938	0.000611681
83	0xbbd613b9	-0.006533113
84	0xbbbff2ae	-0.005857787
85	0xbe0b52cd	-0.13605805
86	0x3dfee6ba	0.12446351
87	0xbebabba2	-0.36471277
88	0xbc3f7ffe	-0.011688231
89	0xbcfd2687	-0.03090216
90	0xbd00b974	-0.031426862
91	0xbd08c5ec	-0.033391878
92	0xbdc89681	-0.09794331
93	0xbea132c1	-0.31484035
94	0x3cef41be	0.029206153
95	0xbd5bd8b7	-0.053673472
96	0xbf029f2e	-0.5102414
97	0xbbce2f0c	-0.0062922295
98	0xbca9dd23	-0.020735329
99	0xbec0062b	-0.37504706
100	0x3c6e322d	0.01453833
101	0xbe4dff6b	-0.20116965
102	0x3cdc8030	0.026916593
103	0xbdf33da0	-0.118769884
104	0xbd00fb10	-0.03148943
105	0xbe334438	-0.17506492
106	0xbe7ecbe1	-0.24882461
107	0xbd5be9d1	-0.05368978
108	0xbc1b40cc	-0.009475898
109	0xbde978f9	-0.11400027
110	0xbe2c0df2	-0.16802195
111	0x3d8b252c	0.06794199
112	0xbdc0047f	-0.093758576
113	0xbc8e16d5	-0.017344872
114	0xbb8cfbf3	-0.0043024956
115	0x3e666e79	0.2250308
116	0xbde79414	-0.113075405
117	0x3d6e19e7	0.05813017
118	0x3e7c7ee5	0.24657781
119	0x3d2a417a	0.04156635
120	0x3e80717e	0.25086588
121	0x3b16b7d6	0.0022997758
122	0x3ec22876	0.37921494
123	0xbe846ef3	-0.25865898
124	0x3e1acd1d	0.15117307
125	0x3e4b3f3d	0.19848342
126	0xbef04d62	-0.46934038
127	0x3e3ec58b	0.18630044
128	0x3d6b0950	0.057381928
129	0x3b56de10	0.0032786168
130	0x3df8f349	0.12155778
131	0x3cb1efca	0.021720786
132	0xbd37a3a7	-0.044833805
133	0xbeb7dab1	-0.35909036
134	0x3c0a1494	0.008427758
135	0xba5da8ab	-0.00084556144
136	0x3dc5ad91	0.09652246
137	0xbd58aef1	-0.052901212
138	0x3c33b31b	0.010967995
139	0x3b102a4e	0.0021997872
140	0x3e724037	0.23657309
141	0x3c8b7075	0.017021397
142	0xbbdce79d	-0.0067414776
143	0x39cfa5f4	0.0003960576
144	0xbddd7987	-0.10814195
145	0x3cb3b427	0.02193649
146	0xbd2b0ebc	-0.0417621
147	0x3af5f7d9	0.0018765881
148	0xbd293929	-0.041314278
149	0xbd82ef05	-0.063932456
150	0x3cc4e126	0.02403314
151	0xbebb64a5	-0.36600223
152	0x3eabe74d	0.33574906
153	0xbe2b2ca2	-0.16716245
154	0xbc6aa0ea	-0.014320591
155	0x3d098217	0.03357133
156	0xbc5a191e	-0.0133116525
157	0xbdda4a8d	-0.10658751
158	0xbcc21c8c	-0.023695253
159	0xbba061bc	-0.0048944633
160	0xbecb42b3	-0.39699325
161	0xbe806b48	-0.2508185
162	0xbde4dfdc	-0.1117551
163	0xbe283720	-0.16427279
164	0xbbfa4c7d	-0.0076385126
165	0xbe0ae76c	-0.13564843
166	0xbdeac0aa	-0.11462529
167	0xbd30460f	-0.043035563
168	0xbd59823b	-0.053102713
169	0x3bdf6040	0.006816894
170	0x3d67982b	0.056541603
171	0x3c2213b0	0.009892389
172	0xbd4593e8	-0.048236758
173	0xbd90136c	-0.070349544
174	0xbea640eb	-0.32471403
175	0xbe9d89c4	-0.3076917
176	0xbdaa5fc1	-0.08319045
177	0xbe1482a2	-0.14502957
178	0x3d98be6c	0.07458195
179	0x3e1e169b	0.15438311
180	0xbe963b0f	-0.29341933
181	0x3c4ac7a0	0.012376696
182	0xbdc037a7	-0.09385615
183	0xbd029324	-0.031878605
184	0x3dc7982a	0.0974582
185	0x3d151de3	0.036405455
186	0xbe002288	-0.12513173
187	0x3dbf72d5	0.09348074
188	0x3d06a17c	0.032868847
189	0xbd5ac1fd	-0.053407658
190	0xbdd0bef7	-0.10192674
191	0xbdf8dd08	-0.12151533
192	0xbf0388e2	-0.5138074
193	0xbe6c9d0e	-0.23106787
194	0xbe5fd080	-0.2185688
195	0xbd562daa	-0.052289642
196	0xbf038f65	-0.5139068
197	0xbe84ad70	-0.25913572
198	0xbe08291e	-0.13296935
199	0x3d90b891	0.07066453
200	0x3e7f380d	0.24923725
201	0xbb0f68ec	-0.0021882607
202	0x3da1fd9c	0.079097
203	0x3b953fed	0.0045547397
204	0x3dce7497	0.100808315
205	0xbf038c76	-0.513862
206	0x3d74df69	0.059783373
207	0xbe71bfd7	-0.23608337
208	0x3cfe1b7e	0.031018969
209	0x3dc397cb	0.095504366
210	0x3db90334	0.09033814
211	0xbd60863b	-0.054815512
212	0x3dc97bb4	0.098380476
213	0xbf020e28	-0.5080285
214	0x3de8e765	0.1137226
215	0xbd770141	-0.06030393
216	0xbe712ba0	-0.23551798
217	0x3decba35	0.11558954
218	0xbea04b66	-0.31307524
219	0xbe273dbf	-0.16332148
220	0xbdc84e60	-0.09780574
221	0xbe28241b	-0.16420023
222	0x3e3f4e2b	0.18682162
223	0xbe80cd87	-0.25156805
224	0x3e6ca2f1	0.23109032
225	0xbea1e37f	-0.31618878
226	0xbe861df9	-0.26194742
227	0x3dbec9a1	0.093158014
228	0xbe98dbe5	-0.29855266
229	0xbdc4ff0e	-0.0961896
230	0x3a0658c6	0.00051249226
231	0xbe929d96	-0.28635854
232	0xbdfea0e5	-0.12433032
233	0xbe6b4451	-0.2297528
234	0x3e1ec481	0.15504648
235	0xbeff5591	-0.4986997
236	0x3e248164	0.16064984
237	0xbe37f966	-0.17966232
238	0xbe97393b	-0.2953585
239	0xbe94089f	-0.28912827
240	0xbe2dfa80	-0.1699009
241	0xbd99d5f4	-0.075115114
242	0x3dcb112c	0.09915385
243	0x3cf771c0	0.030205607
244	0xbd55cac8	-0.05219534
245	0xbf020938	-0.50795317
246	0xbb501791	-0.0031752328
247	0xbe6c3b77	-0.23069559
248	0x3d34c9f3	0.044137906
249	0x3de6d432	0.11270942
250	0x3d7349cb	0.059396546
251	0xbe7c4177	-0.24634348
252	0x3e29d634	0.16585618
253	0xbecfb40f	-0.4056706
254	0x3e290b71	0.16508271
255	0x3e262e7b	0.16228668

model.output.bias f4 [5]
0	0xbe1603e8	-0.14649928
1	0x3e481b6f	0.19541715
2	0xbe23bea5	-0.15990694
3	0xbef3103c	-0.47473323
4	0x3f149606	0.5804142
